datasets/bioinformatics/PROTEINS/backups/results/temp/0/GSN_sparse/checkpoints/checkpoint.pth.tar (torch, 496034 bytes, 142 tensors)

conv.0.update_fn.fc.0.weight f4 [64, 81]
000000 98 28 9b 3c 79 fc 09 3d 20 d7 9f bd a4 c2 a4 bd
       0.018940255 0.033688042 -0.07804704 -0.08044937
000010 8b 4a a8 bd a9 fc f9 3c 6b f5 13 3c 61 fc da 3d
       -0.08217343 0.030515986 0.00903068 0.10692669
000020 85 98 b7 3c 5c 31 ba 3c ed 40 8c bd e5 ff 07 bd
       0.022411594 0.022728615 -0.06848321 -0.033203024
000030 14 f0 d5 bd a5 d5 42 bd 48 28 5f bd 23 f9 d9 3d
       -0.10446182 -0.04756703 -0.054481775 0.10643222
000040 cf c0 55 3d 8d a4 a3 3d e1 a1 db bd 38 b2 b7 bd
       0.05218583 0.0799037 -0.10724235 -0.089695394
000050 a2 56 66 3a 85 aa bf 3d d9 f4 7e bd 33 c2 ab 3d
       0.0008786713 0.09358696 -0.062245224 0.0838665
000060 c3 cb da bb 6d 8d fa 3c d4 11 08 3e 32 c3 e0 bd
       -0.0066771223 0.030585015 0.13288051 -0.109747306
000070 13 bd d6 bd 52 c2 21 bd f8 7c 2a bd 98 e5 f9 3d
       -0.10485282 -0.03949196 -0.041623086 0.12201995
000080 99 45 a5 bd c8 95 51 3d 4b 10 8e bd d7 03 ba bd
       -0.08069915 0.051168233 -0.069367014 -0.09082764
000090 4c 32 c6 bd 16 01 5e 3d ba 7e 25 3c 39 fe 61 3d
       -0.09677562 0.054200254 0.010101015 0.055174086
0000a0 04 5c 09 bd 3f 60 66 bd 6c 02 f6 3c 71 e8 ad bd
       -0.03353502 -0.05624413 0.030030452 -0.084916
0000b0 6d a9 44 bd 4b fa 82 bd 11 2e 10 3d ec 4c 5c 3d
       -0.04801314 -0.06395396 0.035200182 0.053784296
0000c0 e6 ec 42 bd e5 4f b4 3c 81 85 7f 3d d5 e1 59 3e
       -0.047589205 0.022010753 0.06238318 0.21277554
0000d0 0b 75 56 3d d6 61 e7 3c 71 6b 2e 3d e4 96 da bd
       0.052357715 0.028244894 0.042582933 -0.10673311
0000e0 be cb 99 bc 37 14 b0 bd 12 54 b0 bd 94 74 ab bd
       -0.01877391 -0.08597606 -0.08609785 -0.08371845
0000f0 73 3f 39 3d 46 3d ec 3d e3 f9 d3 3a 45 2f 0a 3d
       0.045226526 0.115351245 0.0016172495 0.033736486
000100 1d 9e 54 3d 46 40 25 bd 68 40 53 ba 7d 73 c5 3d
       0.0519086 -0.0403445 -0.00080586085 0.09641168
000110 37 a3 0b 3e f8 d7 da 3d f4 f8 c1 bd d0 4b 89 bd
       0.1363648 0.10685724 -0.09471312 -0.06703913
000120 7e 2f 1e 3d 21 a2 26 3e 0e 10 28 3e 9d 21 c9 3d
       0.03861951 0.16272785 0.16412374 0.09820864
000130 aa 64 55 3c 55 c8 fb bd 43 83 a9 3b c9 63 97 3a
       0.013024488 -0.1229407 0.0051731183 0.0011550124
000140 aa ee 13 bd 7a 36 ee 3d 73 c6 a3 3d cd f3 3d be
       -0.03611628 0.11631484 0.079968356 -0.18550034
000150 98 35 a2 3c b7 8f 42 bd 2b 6c df bb 60 ac 76 bc
       0.019800946 -0.04750034 -0.0068183145 -0.015055746
000160 ab 7a 08 3d 88 51 b6 bd ef 54 13 3d 0b b5 23 3d
       0.03332011 -0.089022696 0.03596967 0.039967578
000170 82 d8 c5 3d 17 88 1a 3d 69 88 e1 bd d5 cb 34 bd
       0.09660436 0.03772744 -0.11012346 -0.044139702
000180 f4 85 48 3d 2b 84 93 3b 1e a1 e0 bd eb ea a2 bd
       0.048955873 0.0045018396 -0.10968231 -0.07954963
000190 e5 ff b0 3d 1b ce 3a 3d ed 84 4a bd 20 70 68 bd
       0.08642558 0.045606714 -0.049443174 -0.056747556
0001a0 51 49 c1 bd 53 7b 0a 3d 8d a1 be bd 23 10 df bd
       -0.09437812 0.033809017 -0.09308157 -0.1089175
0001b0 c9 56 32 bc fc 78 f1 39 ad fb e8 bc c6 69 7e 3d
       -0.010884949 0.00046057242 -0.02844032 0.062112592
0001c0 18 ca 8a bd c0 d8 03 3e 61 95 8e 3d 33 4d e6 bd
       -0.067768276 0.12875652 0.069620855 -0.11245193
0001d0 09 81 4f bd ba f3 2c bc 4c d4 f7 ba 15 aa 3e bb
       -0.050660167 -0.010556156 -0.0018907874 -0.0029093076
0001e0 e5 84 2e 3d 99 43 b5 bc 98 18 2f bd f5 01 b5 3d
       0.042607207 -0.02212696 -0.042748064 0.08838264
0001f0 fd 8c ed bd 05 69 b6 bd 9f 6f 05 bd 81 11 90 bd
       -0.11599157 -0.0890675 -0.032577153 -0.070345886
000200 3b a5 b2 bc 41 54 c2 bd a9 de c2 bc 4b b7 53 3d
       -0.021807304 -0.094887264 -0.023787813 0.051688474
000210 e0 9a a1 bd f4 57 c8 bc cf 8e 67 3d 67 1e dd bc
       -0.07890868 -0.024456002 0.056532677 -0.026992036
000220 44 fd 75 bc 78 1e 1f bd 90 c5 d2 3c 7a fb 99 3d
       -0.0150139965 -0.038847417 0.02572897 0.075186685
000230 70 41 d4 3d 35 91 3b 3d ef 87 e8 3d 28 46 74 bc
       0.10364044 0.045792777 0.11354052 -0.014909305
000240 3e c7 c5 bd c1 2b 45 bd f4 a5 97 3d d3 ce d0 bc
       -0.09657143 -0.04813743 0.074047 -0.025489246
000250 ee 3c 41 bd 9b 74 bc bd 8e 51 ce bd e6 c3 b6 bd
       -0.047177248 -0.09201928 -0.10074149 -0.089240834
000260 1b cf c5 bc b2 21 14 3d 37 83 8b 3d f1 89 e9 bd
       -0.024146607 0.036164947 0.068121366 -0.11403263
000270 b7 95 94 3d 56 c5 a8 bd df 9c cd bc 9e fe 8e bd
       0.07255118 -0.08240764 -0.025099216 -0.06982158
000280 b0 c0 5a bc 08 06 eb bc 19 5b 02 be 2f f8 bb bd
       -0.013351604 -0.0286894 -0.12730063 -0.09178197
000290 fe ee f7 bc 21 ad 06 bc b9 0b 9b bd a1 01 a0 3d
       -0.030265328 -0.008219988 -0.07570595 0.07812811
0002a0 8f 71 dd bd 0c 0f f3 bc 04 88 a1 3d c6 24 89 bd
       -0.10812675 -0.02967026 0.07887271 -0.06696467
0002b0 99 5f dd 3d ce d2 36 3d 4a 5a ef bd d2 1d 88 3d
       0.108092494 0.044634633 -0.11687143 0.06646313
0002c0 3b 89 87 ba f8 39 9c bb 5b 3a 42 3d b6 33 0c be
       -0.001034058 -0.0047676526 0.047418933 -0.13691601
0002d0 5c cf 54 bd 34 ce 61 bd 5b 1d 0e 3d 6d f9 ae 3c
       -0.051955566 -0.05512829 0.034695964 0.02135917
0002e0 bc ac e6 3c 50 a6 9a 3d e1 b3 0e bd 15 87 3a bd
       0.028158538 0.07551253 -0.034839515 -0.04553898
0002f0 1a 1c e2 bd c4 f2 1d 3d 6f 90 c4 3d 5b b3 a4 3d
       -0.11040516 0.038561597 0.09597861 0.08042022
000300 65 81 c2 bd 55 aa 92 3a 50 45 88 bd 3a ca 85 bc
       -0.09497336 0.0011189679 -0.06653845 -0.01633178
000310 10 73 d9 bd 22 02 16 bc 88 36 05 be dc 72 0c bd
       -0.106176496 -0.009155782 -0.13009083 -0.034289226
000320 7f bd 23 bd 1a d2 7d 3d d0 af df bd c2 dd 23 bd
       -0.03997564 0.061967947 -0.109222054 -0.040006407
000330 53 c3 94 bd 72 bb 63 3d 6c c4 70 bd 71 9d 93 3d
       -0.07263818 0.055598684 -0.058781072 0.07207764
000340 0f 5a 44 3d 9f 43 97 3c 19 bf 8e bc 09 5d d3 bc
       0.04793745 0.018464861 -0.017425107 -0.025801199
000350 17 c4 d2 3c b0 6d 9f 3c a7 e6 2c bd 0d f7 06 bd
       0.025728269 0.019461483 -0.042212155 -0.03295045
000360 ae 68 1a be 5a 87 b8 bd e9 9c 38 3d bb 77 c7 bd
       -0.15078995 -0.09010191 0.045071516 -0.09739634
000370 81 b2 8c bc 8b 81 d9 3d 15 28 60 3b 8b ff dd 3b
       -0.017174961 0.106204115 0.0034203578 0.006774848
000380 0d af a8 bd 2a dc 43 3d fb ea b4 bd 46 64 10 bd
       -0.08236513 0.047817387 -0.088338815 -0.03525188
000390 95 8b 97 bd d9 20 52 bc 8e 0e 78 3c cf e4 ac 3d
       -0.0739967 -0.012825214 0.015140189 0.08442079
0003a0 70 2c 99 3b 1a 38 c4 3d 04 01 00 3d 81 6e 88 bd
       0.004674487 0.09581013 0.03125097 -0.06661702
0003b0 e9 93 82 3d 64 a7 af bd 78 8e 66 bd 39 50 ed 3c
       0.06375868 -0.08576849 -0.056288213 0.028968917
0003c0 d4 ec f3 b7 94 26 b2 3d 47 f1 b2 bc e2 f6 94 bc
       -2.9078139e-05 0.086987644 -0.021843566 -0.01818413
0003d0 b3 d1 cd 3d 41 af 13 be 75 7e 98 3d bb 2e af bd
       0.100497626 -0.14422323 0.07445995 -0.08553835
0003e0 ca 11 9e 3c dc 64 29 bc 37 ad 4f bd fd 65 dc bb
       0.019295592 -0.010338988 -0.0507023 -0.006726025
0003f0 57 e3 dd 3d 0c d1 21 bd 73 37 b0 bd c8 e0 55 bd
       0.10834377 -0.039506003 -0.08604326 -0.05221632

conv.0.update_fn.fc.0.bias f4 [64]
000000 bb 09 80 3d 6f 30 6e bd bf ed 7b 3d 5c 65 c2 bc
       0.06251856 -0.05815166 0.06150603 -0.023729973
000010 35 68 9d 3d 00 f7 ca 3d 84 9f bb bd 14 4d d1 3d
       0.076858915 0.09910393 -0.091612846 0.102197796
000020 d9 79 c7 3d 67 94 ae bd ac fd f3 3c 9a 82 da bd
       0.097400375 -0.08524399 0.029784046 -0.106694415
000030 d1 32 15 3d 95 f5 7c 3c 0a b6 e9 bd 81 6a 24 3d
       0.036425415 0.015439411 -0.11411674 0.040140633
000040 a5 24 07 bd 29 c0 ea 3d e1 ec d2 3d d4 22 3f 3d
       -0.03299393 0.11462433 0.10299087 0.046664074
000050 ea b9 cd 3d 07 d9 b7 3c b1 94 c6 3d 63 fd 1a bc
       0.10045226 0.022442354 0.096963294 -0.009459826
000060 62 04 0a 3d 23 0b 77 bc bc a2 16 3b 4c 69 aa bc
       0.033695586 -0.015078339 0.002298518 -0.020802163
000070 44 81 47 bd 52 d1 1d 3d a2 a8 17 3d 26 af 39 bd
       -0.04870726 0.0385297 0.037026055 -0.04533305
000080 83 f8 cd bd 28 12 61 3d c4 41 cc bd 7d 56 8c b9
       -0.100571655 0.054948956 -0.09973481 -0.0002676732
000090 94 e0 d7 bd 9b 3f b5 3d 72 ce c0 3d c0 23 af bd
       -0.10540882 0.088500224 0.09414376 -0.08551741
0000a0 76 f6 f3 bd 96 86 34 bd 97 b9 7e 3c 7e 87 7e bd
       -0.11912243 -0.044073664 0.015547178 -0.062140934
0000b0 6a 88 2f bd b9 24 ba bc ba f7 bb 3c 16 f5 45 bd
       -0.042854704 -0.022722589 0.022945274 -0.048329435
0000c0 05 0a 7f 3d 05 64 8b bd 96 57 16 bc 3f 57 b7 3d
       0.062265415 -0.068061866 -0.009176156 0.08952188
0000d0 a0 80 8d bd a9 d4 9d 3d 6c 7d a3 3d 00 7d 2d bd
       -0.06909299 0.07706577 0.07982907 -0.042355537
0000e0 13 1f 28 3d 4a 8d a1 bd c8 6b f8 3b b2 84 20 3d
       0.04104526 -0.07888277 0.007581208 0.039189048
0000f0 2f 4a cb 3d f4 8c 79 bd 37 ce 78 bd a0 51 55 bd
       0.09926259 -0.06092544 -0.060743537 -0.052079797

conv.0.update_fn.fc.1.weight f4 [64, 64]
000000 e3 82 16 be 62 b5 67 3c 42 2d cb bd 80 0f 72 bd
       -0.14698367 0.014142366 -0.099207416 -0.059096813
000010 e8 2f 48 bc 3d 07 a9 3c 87 ad dd 3c fd 9c 10 bd
       -0.012218453 0.020633334 0.027060283 -0.035305966
000020 f6 3b 35 bd 12 4b c3 bc a8 67 55 bd 0b 2b 3d 3c
       -0.044246636 -0.023839507 -0.052100807 0.011545907
000030 e0 fd 5d 3d 6b 57 6d bd 9b 15 f0 3d 0f ca e4 3d
       0.054197192 -0.057944696 0.11722871 0.11171352
000040 df 40 33 bd 39 bd 4a 3c bf b4 0f 3d 07 fb 51 3c
       -0.043763038 0.012374216 0.035084482 0.012816197
000050 29 c8 df bd a5 79 df 3d ad 30 06 3d 52 57 c0 bd
       -0.109268494 0.10911874 0.032761265 -0.09391655
000060 16 98 60 bd a1 f2 f3 3d a1 1f 88 3d 6e 8e 4b bd
       -0.05483254 0.11911512 0.06646658 -0.04969638
000070 14 45 ae 3d 0d d2 ad 3d 96 77 c2 3d ee 5a cc 3d
       0.08509269 0.0848733 0.094954655 0.09978281
000080 c2 4f 28 bc 70 48 09 3e a5 53 90 bd c3 ef e9 bd
       -0.010272922 0.13406539 -0.07047204 -0.11422684
000090 f2 93 08 3d 4d 5d b4 bc 89 4b 6b 3d df d0 ea bc
       0.033344217 -0.022017146 0.057445083 -0.02866405
0000a0 7e e6 eb 3c c9 4e 5d bc 32 32 0f 3e 64 70 de 3b
       0.02879643 -0.013507553 0.13983992 0.0067883004
0000b0 48 09 99 3b 54 f8 d1 3d 9e 0a 0a 3e b6 c3 e7 3d
       0.004670296 0.10252443 0.13480613 0.11316626
0000c0 ae 17 f3 bd 4b 72 0d bd 8c 25 97 3b 99 9a 35 bd
       -0.11869751 -0.034532826 0.0046126302 -0.04433689
0000d0 b3 6f b5 3d 10 7d 52 3d ea 01 85 3c e8 82 9b 38
       0.088591956 0.0513888 0.016236264 7.415359e-05
0000e0 8d 20 cf 3c 59 d6 e8 3d 9f a3 aa 3d 4e 67 55 bd
       0.025284076 0.113690086 0.083319895 -0.052100472
0000f0 a0 a0 50 bd 5b 40 fc 3c 96 64 10 3a 3c 52 c0 bd
       -0.050934434 0.030792406 0.00055081525 -0.09390685
000100 8e d9 01 be 1d 41 7a 3b 90 3e 33 bd 7a bb 8e bd
       -0.12680647 0.0038185783 -0.043760836 -0.06969352
000110 09 15 8e 3c 79 6d f4 3d 7c 81 e7 3d 32 c8 a8 3d
       0.017344015 0.11934943 0.11303994 0.08241309
000120 ea b1 d5 bd c3 d0 97 3d f2 ac 80 3d c2 cf f7 3c
       -0.10434325 0.07412865 0.06282987 0.030250434
000130 ce 1c 41 bc de 39 64 3c 36 1d 78 bd 98 21 2f bc
       -0.011786653 0.013929812 -0.060574733 -0.010689162
000140 72 cb b8 3b 89 68 3b bc 47 de c2 bd 71 c1 1e 3d
       0.005639487 -0.011438497 -0.09515052 0.0387587
000150 2d 19 c7 bd 7c c7 f3 bd b0 9b 74 3c 23 27 bf bd
       -0.09721599 -0.11903283 0.014929697 -0.093336366
000160 f4 52 f5 3d e9 d3 07 3e 6f 7c d0 bc fb 73 84 bd
       0.11978713 0.13264431 -0.02544996 -0.06467434
000170 06 23 c3 bd 82 2d 62 3d 42 a9 c0 3c 2d 1c 85 bd
       -0.095281646 0.05521918 0.023518208 -0.06499515
000180 b6 f8 f4 3c 80 25 08 3d 2d 93 53 bd 0c f0 5c bc
       0.02990375 0.033238888 -0.05165403 -0.013484966
000190 89 f9 02 be 3b ce ac bd 24 ca 8d 3a a2 37 04 3e
       -0.12790503 -0.08437773 0.0010817689 0.12911847
0001a0 c6 cf 86 bd 8a c9 b4 3d d7 a0 4b 3d 3a 29 38 bd
       -0.065825984 0.08827503 0.049713936 -0.04496119
0001b0 29 0a 8a bc 60 dd 12 3d 86 ed e4 3c 6f e5 00 3e
       -0.016850548 0.03585565 0.027945291 0.12587522
0001c0 80 f4 10 bd cb df be bd ad 08 1d 3e 4b 66 30 bd
       -0.035389423 -0.09320029 0.15335341 -0.043066304
0001d0 bc c4 a6 3d ea 59 9e 3d ca 78 19 3d 40 c9 dc bd
       0.08142993 0.077319935 0.03746871 -0.10780573
0001e0 1d a9 ee bd 4b 20 85 3d 81 78 6e 3d c8 fb 5c 3d
       -0.116533495 0.065003 0.05822039 0.053951055
0001f0 cc fa eb bd fa 4c e3 bc 30 22 dd 3d 84 6e 38 3d
       -0.11522445 -0.027746666 0.107975364 0.04502727
000200 4f be d0 3d ed 30 f3 3d 7d af 8a bc ee 0f ea bd
       0.101925485 0.11874566 -0.016929382 -0.114288196
000210 a6 aa a3 bd ce 2f 34 3d ce a3 a8 bd 6f c7 2f 3c
       -0.07991533 0.043990903 -0.08234368 0.010728701
000220 c3 c8 9d 3c be 50 51 3d 6e 0a f2 3d 35 c0 94 3d
       0.01926077 0.051102392 0.118183956 0.07263223
000230 60 df e8 bc 84 04 8f 3d f2 4c 94 bc cf ce 57 bd
       -0.028426826 0.06983283 -0.018103097 -0.052687462
000240 75 47 53 bd 59 53 6f bd a5 56 d1 3d 6d 59 0a bd
       -0.05158182 -0.058429096 0.10221604 -0.03377669
000250 e7 24 84 3d 08 b2 0a 39 6c 0b 86 bc dd 67 88 bd
       0.06452351 0.00013227027 -0.016362868 -0.06660435
000260 9a ac 5f bb cf 4b db bd 74 8f 7b bd b0 02 9e 3d
       -0.0034129978 -0.10707819 -0.061416104 0.07715356
000270 5a cc 0e be bd 55 a2 3a 5b ba c4 3c 63 a6 17 be
       -0.13945141 0.0012385171 0.024014642 -0.14809565
000280 82 f8 fd 3c e7 09 73 3d 10 75 af 3d 58 64 03 3c
       0.031002287 0.059335615 0.0856725 0.008019529
000290 ad 32 c9 3d 25 eb 95 bc 03 81 d7 3c 31 21 08 3d
       0.09824119 -0.018300602 0.026306635 0.03323478
0002a0 b9 fc 6c bd 81 52 e7 bc 0d 20 6e bd fd 40 c1 3d
       -0.057858203 -0.028237583 -0.058136035 0.09436224
0002b0 57 49 7c 3d 85 7a 6e bd 54 6b 09 bd ec ec 99 bb
       0.06159338 -0.058222312 -0.03354962 -0.0046974327
0002c0 6d 43 ee bd 8c 11 41 3c 3e 5d 34 3d b3 a6 53 3b
       -0.11633954 0.011783969 0.044034235 0.0032295405
0002d0 bb 7c 88 3c a2 60 65 3d 09 73 9a 3d b9 c7 e0 bd
       0.016661039 0.05600036 0.075414725 -0.10975594
0002e0 d0 b0 ce 3d 73 d4 ef bd d2 0b 18 3d cf c3 ef 3d
       0.10092318 -0.11710443 0.037120648 0.117072694
0002f0 94 0b a1 3c 25 cd 46 bd 2d 19 42 bd a3 ec 67 bd
       0.019658841 -0.048535485 -0.04738729 -0.05662216
000300 11 16 94 bc c7 02 85 bd 3d 35 c5 3d a6 05 8b bd
       -0.018076928 -0.0649467 0.09629295 -0.06788187
000310 5e 02 77 3d 41 c9 eb bd 1f 8d fd 3b 71 d9 fa 3d
       0.060304992 -0.115129955 0.00773777 0.12248505
000320 b7 3a b9 bd 8d be a8 bd 5e 39 7d 3c ee 03 e8 bd
       -0.09044402 -0.0823947 0.015455572 -0.113288745
000330 1d fb 9f bd 7c d0 eb 3c 66 d7 3f 3e e3 db 3f bd
       -0.07811568 0.028785937 0.18734512 -0.04684056
000340 8c 78 c6 bc a8 7d f2 bd 75 98 05 be 55 1a ba 3d
       -0.024227403 -0.11840373 -0.13046439 0.09087054
000350 22 b4 f1 3d 15 76 63 bd 8e da 95 bd c9 23 76 3c
       0.11801936 -0.055532534 -0.073170766 0.01502318
000360 a0 64 9e 3d 21 e3 01 be 68 82 86 bd 28 85 c3 bd
       0.077340364 -0.12684299 -0.06567842 -0.09546882
000370 92 68 2a bd e1 be 9b bb a5 4a d3 3d f8 b2 a6 3b
       -0.041603632 -0.004752979 0.10316972 0.0050872527
000380 57 78 0b be 5c 72 ed 3d 2f 66 91 3d 29 bf 19 3d
       -0.13620125 0.11594078 0.07099568 0.03753582
000390 f0 5c 8e 3d b4 9a 33 3d cf 81 be 3d f0 9d 0c be
       0.0695132 0.04384871 0.09302103 -0.13732123
0003a0 c6 3b 9f bd a9 4f 08 bd 9a e7 61 bb 09 36 50 bd
       -0.07775073 -0.033279095 -0.003447032 -0.050832782
0003b0 47 58 ed bd f6 f7 d9 bd 1b 6a 00 bd 33 10 a4 3d
       -0.11589103 -0.10642998 -0.03135119 0.08010902
0003c0 59 ba a7 3d f0 33 a8 3c 95 bb 9a bd 82 8b 14 bd
       0.0818984 0.020532578 -0.0755531 -0.036265858
0003d0 b1 dd 89 3b 81 c6 10 be e9 79 52 3c 1e 13 1f 3d
       0.004207336 -0.14138223 0.012846448 0.03883659
0003e0 28 ab b1 3d 4d 41 31 bd e8 70 d7 3d ac 67 aa 3b
       0.086752236 -0.043275166 0.10519582 0.005200347
0003f0 72 33 6a bd 0d 20 c0 3d 74 4b 01 3e 6e 63 ed bd
       -0.05717797 0.09381113 0.1262644 -0.1159123

conv.0.update_fn.fc.1.bias f4 [64]
000000 22 9b cc 3d 6b 74 e8 bd 56 75 b1 bc 2e 8e 2b bd
       0.09990527 -0.1135033 -0.021662395 -0.04188364
000010 d3 49 bf 3d 61 1a c9 bd 10 a9 c5 bc 98 ab 2e bd
       0.09340253 -0.098194845 -0.024128467 -0.042644113
000020 90 e0 cf 3d e0 81 b0 3d 27 08 f0 ba b5 0e 50 3d
       0.10150254 0.08618522 -0.0018312976 0.050795276
000030 95 76 f3 3d 92 65 df bd c4 bb d1 bb 31 5d dd 3d
       0.11887852 -0.10908045 -0.0064005572 0.108087905
000040 20 3b 3a bd 8f 6b cc bd 7e 9b d5 3d a7 02 fa 3d
       -0.045466542 -0.09981453 0.104300484 0.12207537
000050 74 d4 8d 3d fa 82 ae 3d 06 b1 13 bc 9b 19 b1 bd
       0.06925288 0.085210755 -0.009014374 -0.08647462
000060 be 8a dc bd 0d 9e 38 3d 85 23 16 bd ee 9f f7 3d
       -0.107686505 0.045072604 -0.036654968 0.12091051
000070 ff 20 45 3c 90 e5 a4 3d 0c 7f 01 3c 6b b5 06 bd
       0.012031793 0.08051598 0.0079038255 -0.032887857
000080 5a c0 30 bd 70 c5 e9 bd 3c 25 00 be 2d cc c4 bc
       -0.04315219 -0.11414611 -0.12514204 -0.02402314
000090 4c 9d d4 bd e1 24 01 be b8 ce 82 3d 87 b6 78 bd
       -0.103815645 -0.12611724 0.06387085 -0.060720947
0000a0 da c2 18 bb 43 31 ec bc 65 70 d9 bd d5 5b f1 bc
       -0.00233095 -0.028832084 -0.10617141 -0.029462734
0000b0 a2 dd 91 bd a4 d2 c1 3c 5d c6 e3 3d 4d 91 0f bd
       -0.07122351 0.023660012 0.11121819 -0.03505068
0000c0 c8 8d 98 3c f4 14 88 3d 69 7f 58 3d 64 e7 60 3c
       0.018622294 0.066446215 0.052855883 0.013727043
0000d0 b2 35 5c bd f5 bd 82 bc 7b ee 49 bc 68 1a ff 3d
       -0.053762145 -0.01595972 -0.012324925 0.124562085
0000e0 7c a9 19 3c d0 13 a3 3d 68 e9 90 3d 69 bb c8 3d
       0.009378787 0.07962763 0.07075769 0.09801371
0000f0 19 6e d5 3c da 2d 39 bc 39 30 02 bd b5 69 a8 3d
       0.026053475 -0.011302436 -0.03178427 0.08223287

conv.0.update_fn.bn.0.weight f4 [64]
000000 7e 44 81 3f f5 2c 7f 3f 01 ff 73 3f 7a 39 7d 3f
       1.0099027 0.99677974 0.9531098 0.9891583
000010 df 7c 82 3f 05 5f 82 3f ad 7a 80 3f a1 97 7f 3f
       1.0194358 1.0185248 1.0037438 0.9984074
000020 06 21 7b 3f 0f e2 78 3f 45 6b 76 3f db fc 80 3f
       0.98097265 0.9721994 0.9625743 1.0077165
000030 a9 5e 7e 3f ff c6 7a 3f dc f5 84 3f 3c 8d 7e 3f
       0.9936319 0.97959894 1.038753 0.99434257
000040 8d 2d 81 3f 26 ce 7b 3f 30 f7 7c 3f 05 26 7c 3f
       1.0092026 0.9836143 0.9881468 0.98495513
000050 18 52 81 3f fd c7 7b 3f 26 02 80 3f 7a e9 82 3f
       1.0103178 0.9835203 1.0000656 1.0227501
000060 2c b8 7e 3f 39 27 7c 3f d1 da 77 3f 8d 93 81 3f
       0.99499774 0.9849735 0.9681826 1.0123154
000070 fd 12 81 3f 13 b5 89 3f bd 60 7d 3f 9e 57 80 3f
       1.008392 1.0758384 0.98975736 1.0026739
000080 12 44 7d 3f a6 32 7e 3f 2f 64 81 3f ae 9a 7d 3f
       0.9893199 0.99296033 1.0108699 0.9906415
000090 72 71 82 3f 0d 19 79 3f 5b e4 83 3f e1 eb 7e 3f
       1.0190871 0.9730385 1.0304064 0.9957867
0000a0 6e 70 82 3f da e9 7f 3f c3 e4 85 3f ca f1 81 3f
       1.0190561 0.99966204 1.0460438 1.0151913
0000b0 2c 27 83 3f 5b c1 7a 3f db 89 81 3f 58 b1 7c 3f
       1.0246329 0.9795129 1.0120195 0.98708105
0000c0 30 dd 7c 3f 89 b1 7d 3f d7 55 80 3f 4f f6 78 3f
       0.98775005 0.9909902 1.0026196 0.9725084
0000d0 63 1f 83 3f c2 a1 82 3f 0f 15 83 3f e9 c6 7d 3f
       1.0243953 1.0205615 1.0240802 0.9913164
0000e0 fc 93 81 3f 9c 6f 83 3f c7 c8 7f 3f 7f 62 76 3f
       1.0123286 1.0268435 0.99915737 0.96244043
0000f0 6a f8 7e 3f d5 78 80 3f 66 91 76 3f e3 bb 77 3f
       0.995978 1.0036875 0.9631561 0.9677107

conv.0.update_fn.bn.0.bias f4 [64]
000000 d8 54 b3 3c 0a 42 16 bd 0e 4f 14 bd 38 d5 3a 3b
       0.021891043 -0.036684074 -0.036208205 0.0028508436
000010 46 50 cb bc 71 e6 c5 3b 93 35 52 bd 00 d2 a5 3c
       -0.02481855 0.0060394336 -0.051320624 0.020241737
000020 96 74 a3 3b f1 96 ea bc 67 3d 72 bd 74 b5 05 3d
       0.0049882634 -0.028636428 -0.05914059 0.03264375
000030 cd 3b 22 bc 25 ac 5f bd 1a 10 5f 3c 1b 3f d4 bc
       -0.009901953 -0.05460753 0.013614679 -0.025908997
000040 c7 40 76 bc b6 7f 2b 3b aa 79 a7 bc d5 f9 05 bc
       -0.015030093 0.002616865 -0.020443756 -0.00817724
000050 9e a3 08 bd 3b 3f 23 bd ea 46 94 bd 56 45 cb 3c
       -0.033359163 -0.039855223 -0.07240088 0.024813335
000060 39 ed 91 3a ed 07 9e bb 2d fa 2e bd 34 f1 42 3c
       0.001113332 -0.004822722 -0.042719055 0.011898328
000070 b2 01 c7 bb b1 9e 29 3d 53 8b 83 bc a9 63 92 bc
       -0.0060732 0.041411106 -0.016057646 -0.017869787
000080 47 db 60 bc 1e 83 1c bc b8 22 e3 3c 3f f1 e5 bc
       -0.013724155 -0.009552745 0.027726516 -0.028069137
000090 b4 cb d2 bc 6f 3c 8f bc 14 34 58 bc 1f a7 67 ba
       -0.025731899 -0.017484872 -0.01319601 -0.00088368537
0000a0 94 61 8b 3c 21 ed 19 bb ed 5d ec bb e2 88 9d bc
       0.017014302 -0.0023487287 -0.0072133453 -0.01923031
0000b0 b3 fd 81 bc 56 5d b3 bc 9b 6f a4 3c 7e f7 b2 bc
       -0.015868044 -0.021895092 0.020072749 -0.02184653
0000c0 75 96 48 bc 8f f1 89 3b 0b 36 25 bd 36 f0 2a bc
       -0.012242903 0.004209704 -0.040334743 -0.010433247
0000d0 b3 a9 2b 3d 2b b6 70 bd c6 a0 89 3c 41 26 09 3b
       0.041909885 -0.05876748 0.016800296 0.0020927342
0000e0 f3 a1 c2 bc 73 d4 d9 bc 7f 3d 8a bc 49 7f 3f bd
       -0.023758864 -0.026590561 -0.016875027 -0.046752248
0000f0 65 90 88 b8 cb 43 48 ba d0 91 ec bc 62 17 00 bc
       -6.511881e-05 -0.00076394965 -0.028878123 -0.007818075

conv.0.update_fn.bn.0.running_mean f4 [64]
000000 ae b8 06 3f 47 b5 cb be 59 00 65 bf ea 0a 18 3f
       0.5262555 -0.3978674 -0.89453655 0.59391654
000010 a5 df 98 3f 82 e3 61 bf 39 a4 15 3f 00 cc 4c 3c
       1.1943251 -0.88237774 0.5845371 0.012499809
000020 09 96 b5 bf 71 1a a4 3d c8 20 fd be a2 0f 77 3f
       -1.4186412 0.08012856 -0.49439073 0.9650823
000030 e5 2f 9b 3f 2f a5 04 bf 9b 63 92 bf 1c dd 06 3f
       1.2123991 -0.5181455 -1.1436647 0.52681136
000040 f3 db 07 3f 1f 41 22 be 53 48 18 3e a2 0b bd be
       0.5306999 -0.15845154 0.1487134 -0.36922938
000050 94 c6 ed 3d 8b ed 25 bf 50 aa a1 bd cf 8b cc bd
       0.116101414 -0.64815587 -0.07893813 -0.09987604
000060 71 ab ee 3e 8f e3 9a be ab 13 a6 3e 8c 81 0b 3e
       0.46615174 -0.30251738 0.3243688 0.13623637
000070 3d 72 a0 3f f6 c5 8a bf 8e 0e a5 3e 22 da 87 3f
       1.2534863 -1.0841663 0.32237667 1.0613444
000080 b4 b4 9a bd ea 0e 9c bf 5b 61 80 be 4e 04 d2 bd
       -0.07553998 -1.2192051 -0.25074276 -0.10254727
000090 ee 2e 2c 3f fc 5e be 3f eb bb 8a 3f 59 51 93 3e
       0.6725911 1.4872737 1.0838598 0.28773
0000a0 60 a2 e6 be 32 08 9e bf 02 ca b6 bf 93 6b c8 bf
       -0.45045757 -1.2346251 -1.4280398 -1.5657829
0000b0 89 0d 20 bf 2b c9 01 3e 78 04 3d 3f 11 9f cc 3f
       -0.62520653 0.12674396 0.73834944 1.5986043
0000c0 4d 79 19 3f ef bc 08 bf b6 de bc be 96 e0 c9 3e
       0.59950715 -0.5341329 -0.36888665 0.39429158
0000d0 88 72 c5 bf 33 d6 65 3e 1e 31 14 bf 03 62 05 3f
       -1.5425577 0.22444992 -0.57887447 0.5210268
0000e0 fc f2 cb 3e 2a ab 83 3e 66 27 20 3f cd 29 c6 be
       0.3983382 0.25716525 0.6256012 -0.38703766
0000f0 55 f0 04 bf a2 1a 13 bf eb af b7 bf f8 01 24 bd
       -0.5192922 -0.57462513 -1.4350561 -0.04004094

conv.0.update_fn.bn.0.running_var f4 [64]
000000 07 e7 c5 3e b0 86 2e 3e c8 0b 96 3e d6 c3 d1 3d
       0.38652822 0.17043567 0.29305863 0.10242431
000010 35 19 a1 3e 11 63 72 3e 75 9b ee 3d d2 2e 2b 3f
       0.31464544 0.23670603 0.11650745 0.6686832
000020 51 78 bb 3e 2d 1c 9a 3e 83 f2 1f 3e ab 37 36 3e
       0.36615232 0.3009962 0.15619855 0.17794673
000030 f0 cb 37 3f 0f 91 b0 3e a1 e0 22 3e 5b cd 01 3f
       0.7179556 0.3448567 0.15906002 0.5070397
000040 f1 5c c8 3e ad 87 e6 3e 66 83 64 3e ce 41 5e 3e
       0.3913341 0.45025387 0.2231575 0.2170479
000050 7f bd 17 3e c0 bc 19 3e 09 91 38 3e 2f fa 22 3e
       0.14818381 0.15013409 0.18024077 0.1591575
000060 3c 03 01 3e 09 cc b9 3e 50 22 20 3f 5d 71 3e 3e
       0.1259889 0.3628848 0.62552357 0.18597932
000070 12 0d 2a 3f 18 f7 05 3e 92 ef 8a 3e 54 aa 96 3e
       0.66426194 0.1308254 0.27135903 0.29426825
000080 42 16 60 3e a9 48 f1 3e 89 27 81 3e 1f 17 12 3e
       0.2188349 0.47125748 0.25225475 0.14266632
000090 e3 f6 6e 3e 04 ea 8e 3f 36 0d 3e 3e a7 4b 8e 3e
       0.23336367 1.1165166 0.18559727 0.27792093
0000a0 4e 6f 1d 3e b0 d3 b7 3e a7 69 3f 3e 6e a8 11 3f
       0.1537449 0.35903692 0.18692647 0.5689763
0000b0 80 9a 12 3e 1f 00 65 3e 62 03 09 3f 0f 6b d8 3e
       0.1431675 0.22363327 0.53520787 0.4226918
0000c0 3d 23 ae 3e 18 45 22 3e d2 c4 75 3e 27 69 ed 3e
       0.3401126 0.1584667 0.24000862 0.46369287
0000d0 ab eb 91 3e 23 3e 62 3e 0f 86 86 3e 64 38 34 3e
       0.28500113 0.22094016 0.26274154 0.17599636
0000e0 27 13 6a 3e 98 9c 4e 3e 1a ee a7 3e 82 da 98 3e
       0.22858869 0.20176923 0.32798845 0.29854208
0000f0 f3 ac df 3e ce 6d 5a 3e f2 f4 3b 3f 20 57 91 3e
       0.43686637 0.2133095 0.7342063 0.28386784

conv.1.update_fn.fc.0.weight f4 [64, 64]
000000 f6 f1 00 3e 0c fb 85 3d e5 7d 77 bd d8 6f 1d bd
       0.12592301 0.06542024 -0.060422797 -0.03843674
000010 71 df 1c 3d dd 88 c7 3d 01 58 a9 3d 7c de 66 bd
       0.038299028 0.097429015 0.082687385 -0.05636452
000020 6c e4 8c bc aa e4 64 3d bb d7 37 3d d3 42 a5 bd
       -0.017198764 0.055882134 0.04488347 -0.08069386
000030 4d 07 b7 bd a6 42 94 ba ad ba cb 3d c2 56 4f bd
       -0.089369394 -0.0011311367 0.09947715 -0.050619848
000040 6e 6e 33 bd ca 00 19 3d e8 5b eb bd 2f 97 39 bd
       -0.043806486 0.037354268 -0.11492139 -0.045310196
000050 81 3f bc 3c 3f f1 ae bd f5 e0 cf 3d 38 5b e2 3b
       0.0229795 -0.08542108 0.10150329 0.006907847
000060 89 00 92 3d 20 35 80 bb 79 51 1c bd 9e 27 f5 3d
       0.07129008 -0.003912583 -0.038163636 0.11970447
000070 d6 f1 c6 bd e0 6c ad bd ec 2a 68 bd 98 17 08 3d
       -0.09714095 -0.08468032 -0.05668156 0.033225626
000080 c6 9f da bc b1 72 81 3d e7 c6 92 bd 0f 5e 65 3d
       -0.026687514 0.06320704 -0.07166844 0.055997904
000090 56 2b e0 bd d7 1a 1f 3c c6 eb b5 3d 08 e1 1c 3d
       -0.10945766 0.009710989 0.08882861 0.038300544
0000a0 98 b1 3a bd 7c be 99 bd 74 a3 84 3d f1 24 9e bd
       -0.045579523 -0.07507035 0.06476489 -0.0772189
0000b0 b1 02 82 bd 45 00 f9 3b af 4c 12 be f7 c9 77 3c
       -0.063481696 0.007598909 -0.14287065 0.015123836
0000c0 98 59 8b bd f7 4c 89 3d 65 54 9e 3d a6 ff a6 3d
       -0.06804198 0.06704133 0.07730941 0.0815423
0000d0 3a 0c b1 bd 61 d7 46 bc fe 1c e1 3d 79 2a 5a bd
       -0.0864491 -0.012136311 0.10991858 -0.05326316
0000e0 a1 da b1 3d 24 9d fc 3c 37 d7 6f bc b0 3b 90 bd
       0.08684278 0.03083665 -0.014638714 -0.070426345
0000f0 60 23 df 3c 97 73 a8 3c bf 76 c7 bd 0d ec 46 bd
       0.027238548 0.02056293 -0.09739446 -0.04856496
000100 64 8e ec bd 6e 2d 8c bd 5f f1 92 3d c7 ea c6 3d
       -0.11550596 -0.068446025 0.07174944 0.09712749
000110 79 b7 60 bd 0a 79 ce bd 2e d3 ad bd fe ce d7 3d
       -0.054862473 -0.1008168 -0.08487545 0.105375275
000120 8f 93 09 3e 82 2e 91 bc e0 59 2b bd 58 44 4a bd
       0.13435195 -0.017722372 -0.04183376 -0.049381584
000130 6c 89 50 3c 51 75 88 3d 5b ea 99 3d f0 62 89 bd
       0.012728076 0.06663001 0.07515403 -0.06708324
000140 01 71 36 bd f1 9d 3a 3d 3b a8 97 3d de fa 05 3e
       -0.044541363 0.04556078 0.07405134 0.1308398
000150 b9 1a 62 3d 12 c1 b1 3d ab 1e e1 3d 1a be 62 3b
       0.055201266 0.08679403 0.109921776 0.0034598173
000160 41 8b 31 bd 55 e1 98 3d 34 90 25 3d bd ce d1 3d
       -0.043345693 0.07464854 0.040420726 0.1024451
000170 09 7d ae 3d bf aa 34 3d 2a bd c5 bd fa 5f a5 3d
       0.08519942 0.04410815 -0.09655221 0.08074947
000180 da f7 62 bd 5e 45 8d bb ac 42 b5 3d 6b 06 08 3d
       -0.05541215 -0.0043112477 0.08850607 0.033209246
000190 5f f8 67 bc c5 13 07 bc 9a 8d 9a bd 55 90 45 bd
       -0.014158337 -0.0082444595 -0.075465396 -0.04823335
0001a0 89 dc 74 3b ac 72 5b 3c 71 74 0d bd 59 76 96 3d
       0.0037362895 0.013394039 -0.034534875 0.07346792
0001b0 74 6f cd 3c eb a9 6b bd 1e 3d c1 3c 33 07 3e bd
       0.025077559 -0.057535093 0.023588713 -0.046393584
0001c0 0b aa b3 3d a6 c8 b4 3c 3f 05 c6 3d 64 3b f1 3d
       0.087726675 0.022068333 0.09668969 0.11778906
0001d0 f8 c0 12 3e 7f 0a 83 bc 32 94 f0 3d 59 d7 14 3c
       0.14331424 -0.015996216 0.11747016 0.009084546
0001e0 69 68 8e 3d 81 93 e1 bd d2 47 cb bd 8d 05 fc bd
       0.069535084 -0.11014462 -0.09925808 -0.12305746
0001f0 45 43 0d be d6 cb d8 bc 87 5f cf bd f2 b8 e4 3d
       -0.13795193 -0.026464384 -0.10125642 0.11168088
000200 2c 82 af bd a2 e4 c7 3d da e2 01 3d 04 45 c4 bd
       -0.0856975 0.09760405 0.031710483 -0.09583476
000210 7e c1 e5 3d b7 9f eb 3c 9e cc 19 bc 36 53 c9 3d
       0.11218546 0.028762681 -0.009387163 0.09830324
000220 06 c2 d4 bd 7b 1f 89 3d 15 51 84 3a c7 a4 41 3d
       -0.103885695 0.066954575 0.0010094965 0.047276285
000230 ee 29 96 3d 45 d6 aa bd d0 43 b4 3b 5d fd 90 3d
       0.07332216 -0.0834165 0.005501248 0.07079575
000240 ca 47 54 3d 95 c0 bd 3d e2 75 a4 3d a2 75 96 bd
       0.051826276 0.09265248 0.08030297 -0.073466554
000250 d5 1d 18 bd 66 be d7 3d 73 a0 4d bd a7 5c 97 3d
       -0.037137825 0.105343625 -0.050201844 0.07390719
000260 02 68 c4 3d 0d a2 d4 bd 64 01 45 3c 5d 73 bc 3d
       0.095901504 -0.10382471 0.012024257 0.09201691
000270 d2 3b f4 ba 53 b0 ba bd 5c c5 0c be a4 64 1b 3d
       -0.001863355 -0.091156624 -0.13747162 0.037937775
000280 71 cb 57 bb dd a0 b2 bd aa 5e de 3d ff ad e2 bd
       -0.0032927657 -0.087220885 0.108578995 -0.11068343
000290 a3 7d ba bd 05 8c 79 3d 20 eb 94 3d 78 55 a2 3c
       -0.091059946 0.06092455 0.07271409 0.019816145
0002a0 d5 f5 0a 3e 18 b4 42 bc 21 ae 19 3e 4f 64 b4 bd
       0.1357034 -0.011883758 0.15007831 -0.08808195
0002b0 fe 76 b3 bd ee fc c1 bc aa 0d ad bd a1 ea e7 bc
       -0.0876293 -0.023680177 -0.08449872 -0.028310122
0002c0 e7 02 cf 3c fd f2 de 3b e3 a0 64 3b 54 5f cc bc
       0.025269939 0.006803869 0.0034885935 -0.0249478
0002d0 57 bd 01 be ce 35 7f bd 3b d0 9d 3d 38 cb e6 3d
       -0.12669884 -0.06230717 0.077057324 0.1126923
0002e0 a3 f5 ca 3d 7c f4 8a 3d 83 d8 a2 bc a9 c1 b4 3d
       0.09910133 0.06784913 -0.019878631 0.08826
0002f0 b7 32 cf 3c db fe 93 bc 75 16 a7 bc f3 56 cb bd
       0.025292737 -0.01806586 -0.02039645 -0.099286936
000300 a6 b8 fa bc 4a d5 e5 bd df 14 44 bd 22 9e c5 bd
       -0.030605625 -0.11222322 -0.047871467 -0.09649302
000310 9b f1 3b 3d f9 21 35 3c 61 fd 4d 3d f9 0e 89 bd
       0.04588471 0.011055463 0.05029047 -0.06692309
000320 9a b1 b9 3b b3 a7 0e bd e8 74 de bd 77 1c aa 3d
       0.0056669237 -0.0348279 -0.10862142 0.083062105
000330 35 aa 14 be f4 b2 cd 3d 9f 56 33 bc 60 02 8d bd
       -0.14518054 0.10043898 -0.010945945 -0.068852186
000340 03 0b 04 be 0e 9e 16 be 5a 1f 55 bd 3c ea 85 3d
       -0.12894826 -0.1470873 -0.052031852 0.06538817
000350 ec 22 9b 3c 90 60 95 bd 67 05 f3 3d e9 d4 d6 3d
       0.01893755 -0.072938085 0.11866265 0.10489828
000360 8d 6c 3f 3d 0c 0d 07 3e 34 4c 72 3d d8 57 3b bc
       0.04673438 0.1318857 0.059154704 -0.011434518
000370 a8 26 d0 3d cc 8a 8c bd e0 0a 1d bd 89 51 a1 bd
       0.10163623 -0.06862411 -0.03834045 -0.0787688
000380 64 e2 0a 3b 62 0b ea bd 74 be a9 3d 57 93 80 bd
       0.0021192068 -0.11427952 0.08288279 -0.06278103
000390 bc 68 ac 3c 06 49 17 3e 68 8e 42 3d 4b c3 c6 39
       0.021046035 0.1477395 0.04749909 0.00037911008
0003a0 46 b4 e9 3d 6f 16 06 be e3 89 d4 3d 03 5b 13 be
       0.114113376 -0.13094495 0.10377862 -0.14390187
0003b0 d6 a7 01 3e 27 93 fc 3b 97 81 af bd 4c 1f 5f bd
       0.1266168 0.0077079716 -0.08569639 -0.054473206
0003c0 6b a2 ae bd 13 59 b6 3d e1 f1 d8 3d 53 72 4a 3d
       -0.085270725 0.08903708 0.1059301 0.049425434
0003d0 79 be 94 3d c3 32 d2 3d 53 d0 eb bd b8 f0 64 3d
       0.07262892 0.10263588 -0.11514344 0.05589363
0003e0 64 8a de bc b5 1c 92 3d a0 f8 d1 3c 26 5a f4 3b
       -0.0271656 0.07134382 0.025631249 0.0074570356
0003f0 7d b7 86 3d ab 8e e0 bc 6c cd d2 bd a9 82 83 bd
       0.06577966 -0.02741178 -0.10293087 -0.06421406

conv.1.update_fn.fc.0.bias f4 [64]
000000 dd a6 70 3c 42 23 b4 3c 0e 74 68 bc 77 60 c3 bd
       0.014688221 0.021989468 -0.014187826 -0.095398836
000010 8c d7 24 3d 5e 6d 15 bc eb 89 48 3d 5b e2 8a 3d
       0.040244624 -0.009120313 0.048959654 0.06781455
000020 f2 36 b9 3d 8a 03 02 3d 62 b7 cf 3b f7 99 5b bd
       0.09043683 0.031741656 0.0063389996 -0.05361363
000030 08 5f e4 3d c5 bc e0 bd e1 c9 85 bd a4 26 7c 3c
       0.11150938 -0.10973505 -0.06532646 0.015390072
000040 b6 82 74 3d 54 56 9a 3d 17 3b df bd d5 88 36 3d
       0.05969497 0.07535997 -0.10899942 0.044564087
000050 69 e7 d1 bd 77 bd b4 3d 90 19 d9 bd b3 22 b1 3c
       -0.10249216 0.088252 -0.10600579 0.021622991
000060 1f 8b 9f 3c bc 1e dd bc 6a 02 6f 3d 0e d9 ae 3d
       0.019475518 -0.026992194 0.05835191 0.08537494
000070 04 77 31 3d 14 9c ce 3c 30 ec f6 3d 33 40 ef 3d
       0.043326393 0.025220908 0.12056768 0.11682167
000080 b2 11 b2 bd af a4 e5 3d 43 17 df 3d 15 82 9d ba
       -0.08694781 0.112130515 0.10893109 -0.0012016917
000090 85 7c 25 3d bb 2d 5c bd 77 03 3f bd 37 a0 b6 3c
       0.040401954 -0.05375455 -0.046634164 0.022293193
0000a0 a5 a3 64 bd 98 cd 01 3d 9a c9 5b 3d 96 26 95 3d
       -0.055820126 0.03169021 0.05365906 0.0728275
0000b0 55 20 b7 bd fe 0a 82 bd 5c 4a c1 bc 65 32 4c 3d
       -0.08941714 -0.06349753 -0.023595028 0.049852747
0000c0 5b 76 48 bd 0c 57 77 bd 7e 80 ef bc 83 fe 2d 3d
       -0.048940998 -0.06038575 -0.029236075 0.04247905
0000d0 6a 29 a6 3b a1 13 04 bd 67 37 09 3d c6 5d c3 bd
       0.005070855 -0.032245282 0.0335001 -0.0953937
0000e0 0e 1d f4 bd c4 c8 8f 3d ad 14 e3 3d c3 19 2f bb
       -0.11919604 0.07020715 0.11087928 -0.0026718236
0000f0 0f fe 80 3d 26 f2 b3 3d 12 b4 de 3d c9 e6 1a 3c
       0.06298458 0.087864205 0.108741894 0.0094544375

conv.1.update_fn.fc.1.weight f4 [64, 64]
000000 7f 96 9f bc 4f 8a db bd 3b 4c 4a b9 13 ef 78 bd
       -0.019480942 -0.1071974 -0.00019292619 -0.060774874
000010 2b 27 c7 3b 0b d4 f5 3d f3 b1 25 bd 43 ad 98 bd
       0.006077667 0.120033346 -0.04045291 -0.07454922
000020 75 b6 fa 3d 45 3b 76 bc 3c 57 e5 bd bb dc 1f 3c
       0.12241832 -0.015028779 -0.11198279 0.009757216
000030 e1 62 52 ba de 9d 82 3b c7 b7 a4 3d f1 a0 51 bd
       -0.00080255984 0.0039861044 0.08042865 -0.051178876
000040 49 40 a8 bd ca 32 85 3c 6f 0d 98 3d 4c 46 11 3e
       -0.082153864 0.01625957 0.07424437 0.14186972
000050 04 a1 9c bd 19 77 fc bc be 21 a3 bc fd b3 cd bd
       -0.07647899 -0.030818509 -0.01991355 -0.10044096
000060 7f be 3d bc a5 d6 b6 3d 0b 1c ef 3d 22 ee 79 3d
       -0.011581062 0.08927659 0.11675271 0.061018117
000070 e1 b0 bf bc a8 9d 7d bd 36 cb d4 3d 8b 4b 40 bd
       -0.023399772 -0.06191793 0.10390322 -0.046947043
000080 88 b9 a3 3c c5 43 f3 3d bb dc 7b 3b b9 63 67 3d
       0.01998593 0.118781604 0.0038431126 0.056491587
000090 d7 a0 93 bd 77 f9 fd 3c b0 dd 19 3e a1 29 50 bc
       -0.07208412 0.031002743 0.15025973 -0.012705238
0000a0 a9 94 c6 bd 50 b9 44 3c c3 95 a8 bd fd fd 51 3d
       -0.096963234 0.012007073 -0.0823169 0.051267613
0000b0 a4 90 f9 3d 01 0a 2a bd d9 c7 86 3d 8f f6 b5 3d
       0.12185791 -0.041513447 0.06581087 0.08884918
0000c0 e7 e7 bb 3d f6 8c 94 3d f0 a7 01 be 6f b6 0a be
       0.09175091 0.07253449 -0.1266172 -0.13546155
0000d0 ac a0 d8 3d 4c 29 25 3d 37 33 be bd 32 10 0d 3e
       0.10577521 0.040322587 -0.09287112 0.1377571
0000e0 53 f6 26 3d e1 35 16 be 99 91 90 bd 90 47 d9 bd
       0.040762257 -0.1466899 -0.070590205 -0.106093526
0000f0 c5 cc 0b bd 6e 78 29 bc 9f 05 05 bc 40 d1 a6 bc
       -0.03413083 -0.010343654 -0.008119016 -0.02036345
000100 28 48 aa bc a4 44 f5 3d f7 c7 97 3d be 14 de bd
       -0.02078636 0.11975983 0.07411187 -0.108438
000110 38 7d 9b 3c c2 1a a0 bd 78 8f 49 bd e0 d1 a3 bc
       0.018980607 -0.07817604 -0.049209088 -0.019997537
000120 89 69 4d bd fc 0c 3e bd 42 82 0e be 6c bb f4 bc
       -0.050149474 -0.0463991 -0.13916877 -0.029874526
000130 68 02 06 bd ad 19 e7 bd 4f 09 e0 3c a7 b3 17 bd
       -0.03271714 -0.11284194 0.027348189 -0.037036564
000140 92 d1 3a bd 26 86 df 3c fd e6 03 3e df 86 30 3d
       -0.045610018 0.027285647 0.12881084 0.043097373
000150 5d fc 0a be c9 db 83 3d 1f 01 d5 3b 8e 62 87 3d
       -0.13572831 0.06438405 0.006500378 0.06610595
000160 32 5e aa bd 89 5a 07 3e 7d bb 80 bd c7 dd ac 3d
       -0.083187476 0.1321813 -0.062857606 0.08440738
000170 7d ac 03 3e ae fb 0c 3c a3 86 0b 3d fe b1 c5 3c
       0.12858768 0.008604927 0.034063946 0.024132725
000180 ab 03 e5 bb 4e 79 f6 3c 47 b8 11 bd bd bb bf 3c
       -0.0069889626 0.03008714 -0.03557613 0.02340495
000190 29 c8 d9 bd bf a3 6d 3d 92 2f f6 bd 07 9c 07 3d
       -0.10633881 0.05801749 -0.12020792 0.033107784
0001a0 2e 22 a9 bd c6 e6 8c bb 45 be c0 ba f8 7f e4 bd
       -0.082584724 -0.0042999713 -0.0014705142 -0.111572206
0001b0 d8 0d 07 bd 6d ed fb bd 8f 19 a9 bd 77 07 8a 3d
       -0.032972187 -0.12301145 -0.08256828 0.06739705
0001c0 b0 3b 02 3e 09 6c 0c be ba b6 67 bd 7c af 7a 3c
       0.12718081 -0.13713087 -0.056570746 0.015300628
0001d0 5a 01 60 bd a9 71 18 3b a4 c5 a4 bc 17 f5 9d 3c
       -0.05468879 0.0023261106 -0.020113774 0.019281907
0001e0 fc ef c5 bd c1 83 f3 bd d2 7c 0f bc d8 f3 8f 3d
       -0.09664914 -0.118903644 -0.008757787 0.070289314
0001f0 64 4a 04 3e ca e2 1f 3d 7c 04 c2 3c 36 6c ed 3d
       0.12919003 0.039034642 0.023683779 0.11592905
000200 02 69 3f bd 21 53 a6 3d a8 7f ff bb 15 ed 99 bd
       -0.046731003 0.08121324 -0.0077972 -0.07515923
000210 43 4f 2e bd 1e d5 e2 3d ea 5b c0 bd 67 06 fc bd
       -0.04255606 0.11075805 -0.09392531 -0.12305909
000220 8c 15 d6 3d 81 c7 02 3d 25 1c b2 3b dd fc a8 bd
       0.104533285 0.031928543 0.005435484 -0.08251355
000230 d9 74 be 3d 84 04 0e 3e b5 6e a3 bd 57 88 cd 3c
       0.09299631 0.1386891 -0.079801 0.025089426
000240 27 be dd 3d 3c e2 b5 bd 09 02 7f 3c 24 0c 65 bd
       0.10827284 -0.088810414 0.01556445 -0.05591978
000250 60 4e f7 3d f1 1f 69 3d 15 65 94 3d c8 18 3b bd
       0.12075496 0.056915227 0.07245842 -0.04567793
000260 a9 f1 9d 3d 28 82 27 bd ce e4 ba 3d b9 d2 e1 3c
       0.07712109 -0.04089561 0.09125672 0.0275663
000270 6e 2d fe bd f4 f5 36 bd c0 5c 24 bd d6 b1 10 be
       -0.12411009 -0.044668153 -0.040127516 -0.14130339
000280 31 44 b3 bc d8 f2 60 3d 7c 2a 30 3e 28 57 7f ba
       -0.021883102 0.054919094 0.17203707 -0.00097404653
000290 b8 bf 6b bd 55 87 ad bd e5 75 57 3d 84 39 bf 3c
       -0.057555884 -0.08473078 0.052602667 0.023342855
0002a0 c2 6d 8b 3d 70 0a d8 bd e6 4c 64 bb 55 50 9f bd
       0.06808044 -0.10548866 -0.0034835874 -0.07778994
0002b0 65 d5 9d bd b0 ac b7 3d 42 bf 06 be f9 0f a2 bd
       -0.077067174 0.089684844 -0.13158897 -0.07913203
0002c0 e8 22 dc 3d fb fc be bd be cc cb 3d 06 05 49 bd
       0.10748845 -0.09325596 0.09951161 -0.049077056
0002d0 d7 cd be bd 3a a5 00 3d 3e 78 8a bd 83 be 99 3c
       -0.093166046 0.031407572 -0.067612156 0.0187676
0002e0 14 9f b3 3d e4 7e 99 bd f8 99 99 bd 6c 6e 47 bd
       0.08770576 -0.074949056 -0.0750007 -0.04868929
0002f0 8f 35 ac 3c 45 5e e8 3d 50 73 ab 3d d3 9f 8b bd
       0.021021632 0.113461055 0.083716035 -0.068175934
000300 3c 93 c5 3d 12 f4 76 3d aa 3a cf bd 28 6e ca 3d
       0.09647223 0.060291357 -0.10118611 0.09884292
000310 34 0f f9 3d 58 48 00 bc 8b 4c d1 3d 83 85 da 3d
       0.12161103 -0.007829748 0.102196775 0.106699966
000320 bb eb 65 3d ec 29 a8 3c dc df e3 3d 1a b8 90 3d
       0.056133013 0.020527802 0.11126682 0.070663646
000330 d7 c4 05 3e 93 5d c0 bd ee a5 48 3d e2 e6 92 3d
       0.1306337 -0.09392848 0.048986368 0.07172944
000340 1e d6 6d bd 59 f8 d3 3c 8a 6c 8c bd fb 16 cd bd
       -0.058065526 0.025875257 -0.0685664 -0.10014149
000350 fe 94 01 3e 10 3d de bd 7e c8 ed bd 90 c2 b2 3d
       0.12654492 -0.108514905 -0.116105065 0.08728516
000360 39 db b0 3d 04 7a d6 3c 0c d6 81 3d fd 17 7b bc
       0.086355634 0.026181228 0.06339654 -0.0153255435
000370 4b 9f cd bc 9f f2 d5 bc 95 7d b5 3c 1b 16 12 be
       -0.02510037 -0.026116667 0.022154609 -0.14266245
000380 6f 43 10 be 11 7b 57 bd 80 68 c7 bc 4c e4 97 3d
       -0.14088224 -0.0526076 -0.024341822 0.07416591
000390 db c2 8a bd cf b3 db bd 05 bd 0c be 46 45 3e 3c
       -0.06775447 -0.10727655 -0.1374398 0.011613196
0003a0 89 7e a4 bd 2b 61 3a bc d7 0b cc bd f5 f9 87 3d
       -0.08031947 -0.011375706 -0.09963196 0.066394724
0003b0 d0 08 88 bd 95 5c ab bd f8 7a b6 3c c1 4d 4e bc
       -0.06642306 -0.08367268 0.022275433 -0.01259178
0003c0 42 29 c1 3d 46 d9 52 3b ba 0b 9b 3d d8 ba 83 3d
       0.094316974 0.0032172962 0.07570596 0.06432122
0003d0 68 3f 64 bd cb 4c a2 3d d9 29 20 3c 33 58 a8 bd
       -0.05572453 0.07924803 0.009775602 -0.08219948
0003e0 18 8a 23 3c a3 52 e3 3d 01 8f b7 3d 98 ca f4 3d
       0.009981655 0.11099746 0.08962823 0.11952704
0003f0 29 fc 8b bd 60 ee 54 bd 84 9c 5e 3c 78 2d 03 bd
       -0.06835205 -0.051985145 0.013587121 -0.032025784

conv.1.update_fn.fc.1.bias f4 [64]
000000 39 7c e8 bc 75 9c c4 bd 90 75 8a 3c 4a 31 9b bc
       -0.028379546 -0.09600154 0.016901761 -0.018944401
000010 3c 7d eb 3d 68 67 24 3d a2 58 06 3d cf 3a bb 3d
       0.11498496 0.04013768 0.03279937 0.09142076
000020 01 e9 84 bd 3d f8 a9 3d 57 07 4a bb 17 cc f1 bd
       -0.064897545 0.08299301 -0.0030827129 -0.11806505
000030 fd 52 a6 3d 35 2d ac bd f3 ff a1 3d fe 68 c8 3d
       0.081212975 -0.0840706 0.079101466 0.09785651
000040 1f 1c 35 bc 25 a6 1b bd 2d e0 c5 3c ef c1 be 3d
       -0.011054068 -0.038000245 0.024154747 0.09314334
000050 79 0a 8e 3d 38 65 c0 3d 7e 95 05 bb 6b 54 c0 bd
       0.06935591 0.09394306 -0.0020383294 -0.093911014
000060 c1 71 71 3d 45 57 1d 3c ab 53 f5 3c 21 10 f0 3d
       0.058946375 0.009603326 0.029947123 0.11721826
000070 fa fa f9 bc 60 33 e8 3d 35 5a 99 bd 4c f6 a0 bd
       -0.030515183 0.11337924 -0.07487909 -0.078594774
000080 70 09 a0 3d 1f 03 c9 3d 26 ce 53 bd fe fd fc 3b
       0.078143 0.098150484 -0.05171027 0.007720708
000090 53 bb 82 3c a0 a4 27 3d af 98 8c bc 67 24 00 be
       0.015958464 0.040928483 -0.017162649 -0.12513886
0000a0 f8 d6 10 3d 93 bc fd bd 22 e8 a8 bd 24 46 d3 bd
       0.03536126 -0.12389483 -0.08247401 -0.10316113
0000b0 f2 cd 3b 3d d0 dd 51 3d 86 bb 9c bd 01 e9 db 3d
       0.0458507 0.051236928 -0.07652955 0.10737801
0000c0 e1 dd b6 bd 7e 82 b8 3d c0 b5 63 3d d0 e4 d7 bc
       -0.08929039 0.090092644 0.055593252 -0.026354223
0000d0 5b 28 b0 3d 01 6c b6 3d 81 ea d8 3d d5 71 d0 bd
       0.08601447 0.08907319 0.10591603 -0.10177962
0000e0 80 68 48 bd 35 81 ba bd 34 cb d5 3d 45 5b b4 3c
       -0.048927784 -0.091066755 0.104391485 0.022016177
0000f0 27 cb 87 bd d1 d9 b6 bc 11 16 b4 3d 12 9f ee 3d
       -0.06630545 -0.02232066 0.08793271 0.11651434

conv.1.update_fn.bn.0.weight f4 [64]
000000 09 d8 7a 3f ec cc 81 3f bd 32 7b 3f ee 89 80 3f
       0.97985893 1.0140662 0.98124295 1.0042093
000010 aa 80 78 3f 76 ad 7f 3f 4e 12 7c 3f 3f c1 7d 3f
       0.97071326 0.99874055 0.9846543 0.99122995
000020 12 67 78 3f 0f 7a 7a 3f fe 4f 82 3f d8 1c 82 3f
       0.9703227 0.97842497 1.0180662 1.0165052
000030 72 27 84 3f 83 4c 88 3f c2 52 79 3f 08 ec 7b 3f
       1.0324538 1.064835 0.97391903 0.9840703
000040 ca 25 79 3f 96 00 83 3f 9b b4 7e 3f ac 87 81 3f
       0.97323287 1.0234554 0.9949433 1.0119529
000050 e1 62 81 3f 81 45 82 3f 2b 3d 86 3f 02 96 7e 3f
       1.01083 1.0177461 1.0487417 0.99447644
000060 03 e1 81 3f 41 f7 80 3f 30 53 79 3f 52 1a 80 3f
       1.0146793 1.0075456 0.9739256 1.0008032
000070 be e6 7b 3f 09 2f 78 3f b0 d0 7c 3f 94 12 7f 3f
       0.9839896 0.9694677 0.9875593 0.9963772
000080 54 dd 80 3f c3 e8 7c 3f 8a ec 83 3f c3 3f 7c 3f
       1.0067544 0.98792666 1.0306561 0.9853479
000090 2b 6b 77 3f 9e bc 7f 3f 18 04 82 3f 56 02 80 3f
       0.966479 0.9989718 1.0157499 1.0000713
0000a0 52 9c 81 3f 07 e2 7f 3f 19 1b 78 3f be 4e 83 3f
       1.012583 0.99954265 0.9691635 1.0258405
0000b0 ff 59 83 3f 7d 73 86 3f 5a 35 7f 3f 51 94 77 3f
       1.026184 1.0503994 0.99690783 0.9671069
0000c0 9f d5 7f 3f c4 76 83 3f a8 1b 80 3f ea a2 78 3f
       0.99935335 1.0270619 1.000844 0.9712359
0000d0 35 07 82 3f 56 31 81 3f cb 83 80 3f 0b 83 83 3f
       1.015845 1.0093181 1.004022 1.0274366
0000e0 fc 43 7e 3f af ce 87 3f 22 45 81 3f 38 92 80 3f
       0.99322486 1.060995 1.0099223 1.0044622
0000f0 f6 81 7c 3f b9 a3 79 3f 61 e3 82 3f f1 7c 72 3f
       0.98635805 0.97515446 1.022564 0.94721895

conv.1.update_fn.bn.0.bias f4 [64]
000000 05 d5 c9 bc fd a9 91 bb 94 0f 93 3b eb 5c 21 bc
       -0.024637708 -0.004445313 0.004487941 -0.0098488135
000010 50 d8 1f bd 47 80 0d bd 25 92 d4 bc 50 61 b0 bc
       -0.03902465 -0.034546163 -0.025948593 -0.021530777
000020 e2 90 c8 bc 9a 58 0d bc 50 4b 63 bd 07 4d 10 bd
       -0.024483148 -0.008627081 -0.055491745 -0.03522971
000030 81 33 cc bc 6f 28 84 3c 43 a5 89 bc 50 e6 90 3b
       -0.024926903 0.016132561 -0.016802436 0.0044219866
000040 72 36 2b bc 63 f1 17 bc ad dd dd 3c 7b d0 15 bc
       -0.0104499925 -0.00927386 0.027083242 -0.009143944
000050 f6 e3 91 bc 21 fb 7e bc 93 37 12 bc 00 36 55 bc
       -0.017808896 -0.0155628035 -0.008924383 -0.013013363
000060 44 03 00 bc f6 17 53 bd 00 8a 85 bb 6f a6 a1 bc
       -0.007813279 -0.051536523 -0.004075289 -0.019732682
000070 fa 9f 24 bd 70 20 1b 39 af 35 50 ba 45 c7 88 3c
       -0.040191628 0.00014794036 -0.000794257 0.016696582
000080 a1 58 d1 bb b2 17 5d bb 48 f1 8a 3c 48 42 2f bd
       -0.006388739 -0.0033736047 0.016960755 -0.04278782
000090 99 6d c1 bc e3 8f 2f bc 4b 1f 0b 3c b8 4c 39 bc
       -0.02361183 -0.010715458 0.008491348 -0.011309795
0000a0 1f 64 9d bd e2 b8 19 3c f0 0b 6b bc 8c 19 b1 bb
       -0.07685112 0.009382458 -0.014346108 -0.0054046568
0000b0 c8 41 21 3d 1c 8b b5 3c 10 8a d4 bb 6b 61 72 bc
       0.039369375 0.02216106 -0.006486185 -0.014793734
0000c0 16 5b fe bb cd 68 51 3c 93 3e 24 3c 8c a8 ac bd
       -0.007762323 0.012781334 0.0100246845 -0.08430585
0000d0 c4 87 ab bb 75 7e 53 3b 4b 55 c2 3c 2f 0f 58 bc
       -0.0052346904 0.003227142 0.023722311 -0.013187214
0000e0 b0 14 90 bc 8a 47 08 3d 25 4e 36 3d d9 7e f7 3c
       -0.01758799 0.03327135 0.04450812 0.030211853
0000f0 56 a4 57 bd 84 43 47 bb fa c0 a6 3b 33 29 ab bd
       -0.052646957 -0.0030405233 0.0050889226 -0.083574675

conv.1.update_fn.bn.0.running_mean f4 [64]
000000 45 ae 82 be 25 75 ce 3f d5 47 4d 3f 34 bc 44 be
       -0.25523582 1.61295 0.8018773 -0.19212419
000010 73 00 30 3f 93 30 a7 be 17 df 46 c0 d6 e8 a3 3d
       0.68750685 -0.32654247 -3.1073663 0.08003394
000020 8a 4a 9e 3d c0 9f 55 be 10 37 19 c0 ad e1 3a 3f
       0.07729061 -0.20861721 -2.3939857 0.73000604
000030 1a 55 19 bf 12 dc 94 bf 9f b0 11 bf 4d 04 0b 3f
       -0.5989548 -1.162966 -0.5691013 0.5430344
000040 b9 7a 1a 40 28 9c 48 bf b6 94 e5 be 5c ac ee be
       2.4137404 -0.78363276 -0.4484002 -0.46615875
000050 b6 4e 4b bf 8a e4 a7 bf aa 6a 0b c0 34 87 16 40
       -0.7941698 -1.311662 -2.1783853 2.3520021
000060 a5 ed b2 3f d7 d6 65 40 3a 53 f1 3d 45 95 8b be
       1.3978773 3.5912378 0.11783452 -0.2726232
000070 54 82 e5 3f 12 bb 2f 3f e5 c1 e2 bd 9e b9 7d bf
       1.7930398 0.6864482 -0.11072139 -0.99111354
000080 16 76 c8 bf c4 10 62 3f e1 71 86 bf af 2c 82 3f
       -1.5661037 0.8830683 -1.0503503 1.0169886
000090 a0 03 4a 3f 90 e9 e4 3e 7e e6 45 c0 a4 68 ca 3f
       0.7891178 0.44709444 -3.0921931 1.5813184
0000a0 5a 54 6d 3f 14 96 35 3e d5 8c 85 3f 7c bf 83 3f
       0.92706835 0.17733032 1.0433604 1.0292811
0000b0 b3 79 91 3e 41 b6 89 3f 84 37 98 be 71 1a e4 3f
       0.28413162 1.0758744 -0.29729855 1.7820569
0000c0 16 5c a2 3d d4 e1 a1 be 37 07 5e be 50 2c 21 bc
       0.0792772 -0.31617606 -0.2168244 -0.009837225
0000d0 d4 82 1a c0 b6 c9 03 be 29 90 c3 3f 31 c0 9d be
       -2.414235 -0.12869915 1.5278369 -0.30810693
0000e0 81 ec 38 bf 24 ef 4c bf 48 91 0a 3f 95 7e e6 3f
       -0.72235876 -0.800524 0.5412793 1.800738
0000f0 e4 2a 73 3f 7a bd ff bf f0 04 d0 bd e2 3f 4f bf
       0.9498732 -1.9979699 -0.10157192 -0.8095685

conv.1.update_fn.bn.0.running_var f4 [64]
000000 78 3c 55 3f 95 0c 4c 40 9c 83 23 40 bc f6 72 40
       0.83295393 3.188268 2.5549078 3.7963095
000010 c7 2a 23 40 72 59 4a 40 2e 73 ac 40 35 54 0c 40
       2.549486 3.1617093 5.38906 2.1926396
000020 ff 4f 63 40 24 7d 0a 40 71 3f 4f 40 96 1e 01 40
       3.5517576 2.163888 3.2382472 2.0174918
000030 8e bc bb 3f 11 1e e1 3f f3 49 85 3f 22 44 4f 40
       1.4666917 1.75873 1.0413193 3.2385335
000040 9c 9e 31 40 9d 10 0a 40 a2 e3 21 40 1d 45 ec 3f
       2.7753057 2.157264 2.5295186 1.8458592
000050 35 99 15 40 b4 af 70 40 f1 da 21 40 79 3f 48 40
       2.337476 3.760724 2.5289881 3.128874
000060 66 ab 15 40 4e a9 72 40 b1 9e 38 40 e5 ce 6b 40
       2.3385863 3.7915835 2.8846858 3.6845028
000070 b7 f1 7c 40 be 9e c2 3f d7 67 51 40 01 2f cc 3f
       3.952253 1.5204694 3.271963 1.5951844
000080 02 2c 34 40 dc 22 30 40 a0 f4 95 40 32 62 bf 3f
       2.815186 2.7521276 4.6861115 1.4951842
000090 ec d6 d8 40 4a 34 89 40 b8 16 72 40 9d ec 25 40
       6.7762356 4.287633 3.7826366 2.5925667
0000a0 a1 48 d0 3f f8 78 1d 40 82 4b 33 40 3d 63 16 40
       1.6272165 2.4605083 2.8014836 2.349807
0000b0 bc 2f 60 40 36 ad 1a 40 bd dd 12 40 6e af 65 40
       3.5029135 2.416822 2.2947838 3.5888324
0000c0 2b 19 4a 40 fb e6 32 40 09 e7 9c 40 34 e1 2d 40
       3.1577861 2.795348 4.9032025 2.7168703
0000d0 66 2d 6c 40 6a 3f 9b 40 e3 0c 10 40 3d 7b 2d 40
       3.690271 4.851491 2.2507865 2.7106469
0000e0 b7 b3 30 40 3a ad da 3f 38 0c df 3f 30 f7 88 40
       2.760969 1.7084115 1.7425604 4.2801743
0000f0 22 93 38 40 5a 21 28 40 77 0e 6c 40 ec f2 07 40
       2.8839803 2.6270356 3.6883829 2.1242018
