datasets/social/backup/results/temp/1/GSN_sparse/checkpoints/checkpoint.pth.tar (torch, 844130 bytes, 142 tensors)

conv.0.update_fn.fc.0.weight f4 [64, 534]
0.02515791 0.006784238 0.009963306 -0.08122053 -0.05227366 0.05934409 0.008106319 -0.05152631
0.018992139 -0.009338444 -0.004800507 0.04150593 0.03125799 0.047065903 0.020501206 0.013311885
0.048120044 0.01838086 0.025186853 0.011165613 -0.023288842 0.0104182 0.028988764 -0.023140496
0.058611657 -0.008796575 -0.0327003 -0.008193865 0.011111301 -0.034410756 0.02657667 -0.018565023
0.003829266 0.0037918729 0.06563304 -0.0124750165 0.08760899 0.019926969 0.009308264 -0.008282493
-0.011644729 -0.020920621 0.044854585 -0.0491214 0.050591618 0.039978687 -0.028581435 -0.02724662
0.013282406 0.016508559 -0.026107557 0.006851295 -0.03202952 -0.076632135 0.08960118 0.04510649
-0.028915698 -0.01916391 0.024411252 -0.13580607 0.04430655 0.010881238 0.019959752 0.02832086
0.021985415 0.12900133 0.03763128 0.0018231381 -0.0024292956 0.025736496 0.033713184 0.022342596
0.052361526 -0.024513392 0.030105267 -0.019123264 0.043451577 -0.011274755 0.08587669 0.016464107
-0.005405857 0.07534328 0.02069599 0.03818934 0.026912002 -0.0001369403 0.047357015 0.029953858
-0.014484252 0.044481356 0.008615905 0.065203615 0.030093249 -0.010426824 0.037199393 0.007995712
0.0360099 -0.00072599703 0.0061897645 0.023977946 0.04256464 0.017618876 -0.035861462 0.068500705
-0.006935751 0.089375645 0.013361208 -0.05328151 0.008890248 -0.00180902 0.027050754 -0.0060140654
0.013237969 0.022731367 0.030733878 -0.0010505514 0.023603732 -0.015741605 -0.026199717 -0.079403505
0.043939475 0.060072944 -0.022137856 0.045838647 -0.034296907 -0.052604377 0.012577394 -0.017583774
0.027635349 0.005761101 -0.01815139 0.03519399 0.01961508 0.013621712 0.004968026 0.0363441
-0.0018322458 0.063274324 0.036964085 0.048604347 0.05167519 0.039758552 0.020720467 0.016691098
0.04935455 0.047695156 0.026781864 0.009535715 -0.00048734384 -0.023338633 -0.0107312165 0.014383382
0.0070930524 -0.021710467 -0.006838428 -0.021167077 0.0045057847 -0.03418406 0.04216965 0.05909529
-0.018658804 0.048434008 -0.011162082 -0.04820542 -0.025509236 -0.0098499 0.041306537 0.0017705021
-0.034826558 -0.016984323 0.028161095 0.050623704 0.026302623 0.046021327 0.09293751 -0.025156112
0.006782719 0.041248646 0.013982602 0.048665967 -0.004627255 0.044685494 -0.032448623 0.019586112
0.015746647 -0.039789654 0.008535538 0.030555148 0.0062332605 0.0022141174 0.025982654 0.023222286
-0.0005440244 0.025300622 0.0052847643 0.03500996 0.017878072 0.05276523 -0.0060105827 0.021020826
-0.023901656 -0.030773392 -0.030078974 -0.00322481 0.029751131 -0.0022948545 -0.011848156 -0.023021286
-0.010116551 0.033431992 0.021431902 0.032353632 -0.026617315 0.0006543878 0.0024829255 -0.011634313
-0.023774069 0.018438464 -0.0017915712 0.03684746 0.013617185 -0.011380808 0.023104098 -0.01569979
0.020357102 0.049443416 0.023200508 0.050925814 0.010132598 0.0334485 0.035234153 0.048053976
0.0042833528 -0.039737646 -0.049202092 0.01895642 0.014067368 0.03988929 -0.02728462 0.028739398
0.0012858169 -0.007290491 -0.03585325 -0.05788776 0.0657425 -0.031698484 -0.024601093 -0.01844277
0.011641293 0.009621013 0.043127608 0.030730594 -0.0110978335 0.03356308 0.06732842 -0.07445168
00000000: f617 ce3c 504e de3b 223d 233c f356 a6bd
00000010: e81c 56bd ca12 733d 5ed0 043c 410d 53bd
00000020: 6795 9b3c 4600 19bc 924d 9dbb 1f02 2a3d
00000030: 6108 003d 2dc8 403d 25f2 a73c 181a 5a3c
00000040: 8619 453d 7593 963c a954 ce3c faef 363c
00000050: 3ec8 bebc 19b1 2a3c d879 ed3c 2391 bdbc
00000060: c712 703d 821f 10bc c0f0 05bd 903f 06bc
00000070: 2d0c 363c 4bf2 0cbd 51b7 d93c ad15 98bc
00000080: 6cf4 7a3b 1281 783b 9e6a 863d 0364 4cbc
00000090: 586c b33d e23d a33c b081 183c 4bb3 07bc
000000a0: 89c9 3ebc b961 abbc 71b9 373d 8533 49bd
000000b0: 2839 4f3d b1c0 233d 9d23 eabc 4e34 dfbc
000000c0: 739e 593c f53c 873c 84df d5bc d480 e03b
000000d0: 6331 03bd 4ff1 9cbd d380 b73d 95c1 383d
000000e0: 9de0 ecbc a2fd 9cbc 1bfa c73c bf10 0bbe
000000f0: c97a 353d 3847 323c a282 a33c 2601 e83c
00000100: c21a b43c ed18 043e 4223 1a3d 5df6 ee3a
00000110: d134 1fbb 58d5 d23c d616 0a3d d207 b73c
00000120: 0a79 563d 4fd0 c8bc 529f f63c 64a8 9cbc
00000130: 48fa 313d c0b9 38bc 1ee0 af3d bcdf 863c
00000140: 9e23 b1bb 944d 9a3d a38a a93c 6d6c 1c3d
00000150: 8f76 dc3c a297 0fb9 6ef9 413d cb61 f53c
00000160: 5b4f 6dbc 1532 363d ba29 0d3c 7989 853d
00000170: 1e86 f63c 45d5 2abc 645e 183d 7200 033c
00000180: 1e7f 133d d650 3eba 82d3 ca3b 666d c43c
00000190: 4358 2e3d 7655 903c 78e3 12bd 194a 8c3d
000001a0: 4c45 e3bb 940a b73d f8e8 5a3c b63d 5abd
000001b0: 67a8 113c a31c edba 8b99 dd3c a311 c5bb
000001c0: 11e4 583c 2237 ba3c 9dc5 fb3c a8b2 89ba
000001d0: 9d5c c13c 8af4 80bc caa0 d6bc 4e9e a2bd
000001e0: e1f9 333d 0c0f 763d 735a b5bc 4ec1 3b3d
000001f0: ea7a 0cbd b077 57bd 6a11 4e3c d90b 90bc
00000200: 8763 e23c 9ec7 bc3b 39b2 94bc 9327 103d
00000210: ceaf a03c 9a2d 5f3c d3ca a23b 8ddd 143d
00000220: f827 f0ba f895 813d a767 173d 5a15 473d
00000230: 5da9 533d ddd9 223d f8bd a93c c5bb 883c
00000240: ff27 4a3d ff5b 433d a465 db3c b03b 1c3c
00000250: 2f82 ffb9 a930 bfbc fcd1 2fbc 47a8 6b3c
00000260: d66c e83b 26da b1bc e414 e0bb 9466 adbc
00000270: 43a5 933b 9604 0cbd 15ba 2c3d e70d 723d
00000280: 59da 98bc bd62 463d 2ae1 36bc 0c73 45bd
00000290: bff8 d0bc 7a61 21bc 0b31 293d 3110 e83a
000002a0: 4ba6 0ebd b522 8bbc 19b2 e63c cd5a 4f3d
000002b0: 9978 d73c dc80 3c3d 0556 be3d 3114 cebc
000002c0: 9241 de3b 57f4 283d 4917 653c f755 473d
000002d0: 3aa0 97bb 2308 373d d9e8 04bd 0e73 a03c
000002e0: 1dff 803c 7afa 22bd a4d8 0b3c ca4e fa3c
000002f0: 6140 cc3b ba1a 113b 93d9 d43c aa3c be3c
00000300: dc9c 0eba 4043 cf3c d12b ad3b 9b66 0f3d
00000310: 0975 923c 5b20 583d 6cf4 c4bb de33 ac3c
00000320: 68cd c3bc 7b18 fcbc 2e68 f6bc 5557 53bb
00000330: a5b8 f33c 4565 16bb c51e 42bc 2397 bcbc
00000340: e4bf 25bc fcef 083d f591 af3c 3e85 043d
00000350: 8e0c dabc 398b 2b3a 94b8 223b d89d 3ebc
00000360: d6c1 c2bc 430c 973c 27d3 eaba 5ded 163d
00000370: 9d1a 5f3c 9276 3abc ce44 bd3c d99c 80bc
00000380: f0c3 a63c 2e85 4a3d fe0e be3c 9697 503d
00000390: 3203 263c 4b01 093d b051 103d 3fd4 443d
000003a0: 5e5b 8c3b f1c3 22bd 2288 49bd 7e4a 9b3c
000003b0: d17a 663c f462 233d ff83 dfbc e36e eb3c
000003c0: db88 a83a 12e5 eebb dcda 12bd b71b 6dbd
000003d0: 01a4 863d 45d6 01bd 3b88 c9bc 4b15 97bc
000003e0: 1fbb 3e3c 74a1 1d3c 93a6 303d babe fb3c
000003f0: b0d3 35bc 7179 093d 7ce3 893d 1f7a 98bd

conv.0.update_fn.fc.0.bias f4 [64]
0.0048426087 0.018425334 -0.03515581 -0.03198746 -0.037376437 -0.03885371 -0.0037185838 0.0051093567
-0.027948616 -0.02965663 -0.027688276 -0.0461002 -0.004818317 -0.019173086 -0.017915888 -0.02541301
0.010922268 0.031114127 -0.015802749 -0.0019957928 0.0108217625 0.025529262 -0.02457288 0.01517093
0.019670933 0.013080958 0.0020274704 -0.028183045 -0.040482145 -0.007452636 0.037746735 0.019491479
-0.014314833 0.021591367 -0.037114017 0.008250606 0.020286664 0.032266416 0.0004912452 0.041431013
0.0131939845 -0.031430148 -0.043311436 -0.025718892 -0.011333308 -0.029598163 0.030636925 0.03914393
-0.027811805 0.018478854 0.004603612 0.026278226 -0.033959866 -0.02146212 0.029365731 0.004579742
0.012513344 0.0047611007 -0.035153322 0.0076527908 0.008747953 -0.024693742 -0.022925712 0.032481473
00000000: bfae 9e3b baf0 963c 8aff 0fbd 4805 03bd
00000010: 0918 19bd 1125 1fbd 7cb3 73bb 646c a73b
00000020: 7ff4 e4bc 76f2 f2bc 86d2 e2bc 90d3 3cbd
00000030: f9e2 9dbb e010 9dbc 57c4 92bc f22e d0bc
00000040: 50f3 323c 0ee3 fe3c c474 81bc d9cb 02bb
00000050: c34d 313c be22 d13c 104d c9bc 7e8f 783c
00000060: f024 a13c 8451 563c 4fdf 043b 21e0 e6bc
00000070: 9bd0 25bd 3e35 f4bb 529c 1a3d 98ac 9f3c
00000080: c388 6abc 61e0 b03c de04 18bd 8d2d 073c
00000090: 3830 a63c ca29 043d e8c6 003a 91b3 293d
000000a0: 952b 583c e6bc 00bd 5567 31bd 6db0 d2bc
000000b0: 57af 39bc d977 f2bc 4afa fa3c 6355 203d
000000c0: 95d5 e3bc f760 973c e5d9 963b 6f45 d73c
000000d0: 8019 0bbd 54d1 afbc 6790 f03c a911 963b
000000e0: c504 4d3c 0203 9c3b eefc 0fbd 43c4 fa3b
000000f0: 9353 0f3c 884a cabc b4ce bbbc 4b0b 053d

conv.0.update_fn.fc.1.weight f4 [64, 64]
-0.10946769 0.035943583 0.068294354 -0.07932785 -0.07173851 0.11279552 -0.12783623 0.08104305
0.03541648 -0.05611161 0.08892304 -0.085957035 -0.030415485 -0.14119302 0.032633457 0.1570177
-0.10377053 -0.08938953 -0.03696569 0.10705639 -0.027570479 -0.07892653 -0.018970191 -0.017280282
-0.08676112 0.014094837 -0.111245744 -0.021271441 -0.051902283 -0.07300089 -0.12990956 -0.020046087
0.023083016 0.009550437 0.06667325 0.08308616 0.024452329 0.027618347 -0.09502738 0.050815586
-0.09981131 0.041761614 0.1250091 0.006905404 -0.06460195 -0.024582978 -0.14332998 -0.15951426
-0.058101334 -0.0034181352 -0.12250935 0.025881162 0.03969491 0.05199479 0.07062163 0.051364172
0.0648253 -0.014696839 0.06342181 0.04012296 -0.10105987 0.10218887 0.09587002 0.062074963
0.0052393423 0.10640769 -0.107169926 -0.0013214354 0.07118874 -0.026864488 0.006384315 -0.05400164
0.01595418 0.09583306 -0.0708801 0.091049716 -0.094309695 0.09087543 -0.11296956 -0.16604096
0.008377879 0.037865173 -0.040954806 -0.12907068 -0.06248877 -0.11423117 -0.09102639 0.046200942
0.044915393 0.018980047 0.065699376 -0.13779251 0.0573497 0.059469964 0.035778295 -0.11118905
-0.022009715 -0.108005196 0.06458982 0.004114143 0.017191937 0.122656316 -0.037280623 -0.083370276
-0.035500016 -0.07483802 -0.058174673 -0.10015536 -0.10414803 -0.02785663 -0.049245227 -0.069845475
0.1114312 0.0747713 0.07871344 -0.10335001 0.07216626 -0.0052259443 -0.10623071 0.15842272
0.091252066 -0.0818057 0.06849229 -0.12002757 -0.035704106 -0.05647984 0.01312306 0.051081643
-0.015236665 0.086485066 0.11800586 -0.072844915 0.0949329 -0.08397 -0.02757498 0.11481525
0.01936695 -0.023386603 -0.03547588 -0.031465694 0.017263552 0.0007089797 0.04775283 -0.006042212
0.030218324 0.10653474 -0.08473081 0.036656063 0.10551286 -0.098654896 0.03889987 -0.09813314
0.039991956 0.08294632 -0.12252456 -0.12222722 -0.08879098 -0.11036374 0.119675785 0.0903336
0.035495102 0.11574551 -0.060674116 0.11781816 -0.11167107 -0.09003586 -0.049143024 -0.10060768
0.08144033 0.119332336 0.05391683 -0.08562091 0.08424653 0.11664976 -0.004036925 -0.035402127
0.08430159 0.099746555 0.09337555 -0.03993124 -0.008073999 -0.085127026 0.05782564 -0.052356705
0.06380162 0.03934967 0.08992192 0.039102424 -0.0005370387 0.13627684 0.06675004 0.1098093
0.06124926 -0.1557565 -0.0075010504 0.019222958 -0.021250594 0.10710497 0.04247546 0.06147319
-0.05141807 0.13104403 -0.10397128 0.059161894 0.05051405 0.06722244 -0.045899082 -0.048956186
0.024953838 -0.0894976 0.03735374 0.12421571 -0.00010893386 -0.06384277 -0.047343865 0.023104822
-0.02892001 0.0020230908 -0.07140353 0.0805333 0.11197661 -0.039745346 0.10903206 -0.105025955
-0.032920033 -0.15174045 -0.044213284 -0.008396342 -0.02535433 -0.0911881 -0.022540422 0.010707334
-0.12236373 -0.0478067 -0.089375935 -0.11148899 -0.041064832 0.1274174 -0.11632388 -0.076511905
-0.06850978 0.047197595 -0.07542029 0.060631793 -0.063197464 -0.09036565 0.11843772 0.027498357
-0.06149165 -0.05869162 0.058269244 0.13988864 0.12718987 0.058187854 -0.08242394 0.04860002
00000000: 9930 e0bd 9439 133d e9dd 8b3d a476 a2bd
00000010: a4eb 92bd 5601 e73d 80e7 02be e6f9 a53d
00000020: df10 113d 4ad5 65bd 481d b63d 3e0a b0bd
00000030: e529 f9bc e794 10be a9aa 053d 3fc9 203e
00000040: a585 d4bd dc11 b7bd 5669 17bd 6140 db3d
00000050: 7cdb e1bc 3ca4 a1bd 6067 9bbc 618f 8dbc
00000060: d0af b1bd 08ee 663c cfd4 e3bd 7241 aebc
00000070: 7d97 54bd 7e81 95bd 0307 05be b137 a4bc
00000080: 9818 bd3c 7079 1c3c fc8b 883d 1429 aa3d
00000090: 4050 c83c df3f e23c b79d c2bd 0124 503d
000000a0: df69 ccbd 3a0e 2b3d 6302 003e ba46 e23b
000000b0: 074e 84bd 3e62 c9bc 18c5 12be b557 23be
000000c0: aafb 6dbd cb02 60bb 2fe6 fabd bb04 d43c
000000d0: 2197 223d 7df8 543d 13a2 903d 3d63 523d
000000e0: 20c3 843d 03cb 70bc 4be3 813d f957 243d
000000f0: 7af8 cebd 6648 d13d 8057 c43d 5142 7e3d
00000100: caae ab3b 46ec d93d e87b dbbd 0434 adba
00000110: 67cb 913d ea12 dcbc 8433 d13b d330 5dbd
00000120: 57b2 823c 2044 c43d 9629 91bd 4678 ba3d
00000130: 7125 c1bd e61c ba3d 965c e7bd a406 2abe
00000140: 5f43 093c 8318 1b3d 3ac0 27bd 1b2b 04be
00000150: 39f4 7fbd 08f2 e9bd 0b6c babd 333d 3d3d
00000160: 34f9 373d 0b7c 9b3c 658d 863d 7b19 0dbe
00000170: 85e7 6a3d c796 733d 438c 123d 16b7 e3bd
00000180: b84d b4bc d431 ddbd ab47 843d efcf 863b
00000190: 1bd6 8c3c 3c33 fb3d 91b3 18bd 09be aabd
000001a0: 7768 11bd ad44 99bd 9148 6ebd 411e cdbd
000001b0: 904b d5bd 9633 e4bc 5db5 49bd 250b 8fbd
000001c0: 0a36 e43d b221 993d 8334 a13d 2ca9 d3bd
000001d0: e7cb 933d 663e abbb 7d8f d9bd 9139 223e
000001e0: 5de2 ba3d bf89 a7bd b045 8c3d 04d1 f5bd
000001f0: 783e 12bd 6857 67bd 1a02 573c fc3a 513d
00000200: 34a3 79bc 151f b13d 0ead f13d b72f 95bd
00000210: 2e6c c23d 77f8 abbd ede4 e1bc 4224 eb3d
00000220: 70a7 9e3c 4395 bfbc 284f 11bd 2ce2 00bd
00000230: 4b6c 8d3c d3da 393a 7998 433d bffd c5bb
00000240: 6b8c f73c e32e da3d 5987 adbd ab24 163d
00000250: 2017 d83d 940b cabd 7855 1f3d 07fa c8bd
00000260: 9bce 233d c3df a93d 28ee fabd 4452 fabd
00000270: 0cd8 b5bd 6206 e2bd 9418 f53d d300 b93d
00000280: 5063 113d fb0b ed3d 6c85 78bd a64a f13d
00000290: cdb3 e4bd b964 b8bd 324a 49bd 660b cebd
000002a0: 30ca a63d 8364 f43d e5d7 5c3d 045a afbd
000002b0: 7289 ac3d 12e6 ee3d 2e48 84bb d201 11bd
000002c0: 50a6 ac3d ec47 cc3d ae3b bf3d f18e 23bd
000002d0: ce48 04bc 1457 aebd 94da 6c3d fc73 56bd
000002e0: 6caa 823d 1f2d 213d fc28 b83d dd29 203d
000002f0: 0fc8 0cba 288c 0b3e 3fb4 883d b3e3 e03d
00000300: 81e0 7a3d a27e 1fbe 5fcb f5bb 7779 9d3c
00000310: ba15 aebc da59 db3d bffa 2d3d 50cb 7b3d
00000320: c19b 52bd 6830 063e e5ee d4bd be53 723d
00000330: d2e7 4e3d ebab 893d ad00 3cbd 4886 48bd
00000340: fe6b cc3c 854a b7bd 3c00 193d ce64 fe3d
00000350: 6c73 e4b8 00c0 82bd a4eb 41bd 5346 bd3c
00000360: a8e9 ecbc d595 043b 043c 92bd a5ee a43d
00000370: fe53 e53d 04cc 22bd 334c df3d d917 d7bd
00000380: 28d7 06bd d961 1bbe fd18 35bd d090 09bc
00000390: e2b3 cfbc d4c0 babd b1a6 b8bc d06d 2f3c
000003a0: d699 fabd f5d0 43bd bb0a b7bd 5754 e4bd
000003b0: 9933 28bd b579 023e 373b eebd 46b2 9cbd
000003c0: db4e 8cbd 4452 413d f475 9abd 0b59 783d
000003d0: ac6d 81bd a011 b9bd 7a8f f23d 3c44 e13c
000003e0: abde 7bbd a066 70bd bbab 6e3d f83e 0f3e
000003f0: 103e 023e 6356 6e3d e2cd a8bd d110 473d

conv.0.update_fn.fc.1.bias f4 [64]
0.007015464 0.07880539 -0.03407192 -0.06791487 0.034696415 -0.041352782 -0.020460524 0.0051487936
0.034495115 0.065059155 0.01746107 0.010063352 -0.083348416 -0.07651112 -0.10885046 -0.06432584
0.05296081 0.081125006 -0.10614749 -0.12315944 0.07819554 0.108162306 -0.03373137 0.0039340453
0.107486814 -0.078184225 0.083296716 -0.070189916 -0.10395554 -0.12633753 0.11986496 0.056202035
-0.054573305 0.036774933 -0.11014821 -0.056680474 -0.063008815 0.05543824 -0.07470233 0.0503882
-0.076473475 -0.063258655 -0.006391074 0.039189827 0.11795596 0.10020204 0.0694735 0.0030020298
-0.08114466 0.07974351 -0.038102493 0.064067036 0.090272024 0.019655861 -0.060551427 0.12521535
-0.08168303 0.04371829 0.056791555 0.057636235 0.10565628 0.110667765 -0.017330786 0.055108417
00000000: fae1 e53b b864 a13d ff8e 0bbd f416 8bbd
00000010: d41d 0e3d 8961 29bd d49c a7bc 36b7 a83b
00000020: c04a 0d3d bc3d 853d 850a 8f3c c2e0 243c
00000030: 93b2 aabd ddb1 9cbd fdec debd 44bd 83bd
00000040: 6fed 583d de24 a63d db63 d9bd 043b fcbd
00000050: fc24 a03d 3384 dd3d e829 0abd 2ae9 803b
00000060: 0c22 dc3d 0d1f a0bd 7897 aa3d bbbf 8fbd
00000070: a4e6 d4bd a05e 01be c37b f53d 1b34 663d
00000080: 4288 5fbd 50a1 163d 6295 e1bd c929 68bd
00000090: c40a 81bd 3513 633d 89fd 98bd db63 4e3d
000000a0: 209e 9cbd c18d 81bd 376c d1bb 8385 203d
000000b0: e592 f13d ba36 cd3d 1f48 8e3d b4bd 443b
000000c0: 2c2f a6bd 9150 a33d 5c11 1cbd 9435 833d
000000d0: 8ae0 b83d 5405 a13c c604 78bd 7438 003e
000000e0: 6f49 a7bd f311 333d 439e 683d f913 6c3d
000000f0: 5262 d83d c8a5 e23d 4bf9 8dbc 5db9 613d

conv.0.update_fn.bn.0.weight f4 [64]
1.0069677 1.028957 1.0194378 0.98423374 1.0331187 1.0119895 0.957901 1.006939
0.97221327 0.9833022 0.99113023 0.98493385 1.0196335 1.0051336 1.0114421 1.0273045
1.0629323 1.0089465 0.9603978 1.0112873 1.0051979 0.98310494 1.0529324 0.9843197
0.9793443 0.9814485 1.0103799 1.051946 0.9962655 0.988308 1.0179677 0.99706477
0.9613296 1.0144254 0.99647444 0.95889384 1.031312 1.0418345 1.0012983 1.0007924
0.96876436 0.9952156 0.9919085 0.95861346 0.99627453 0.981919 1.0136622 1.0090315
0.9839256 1.0233295 0.9605237 1.0306412 0.9841812 0.9948623 0.9969057 0.98016757
0.9897892 0.98948807 0.9655816 1.0139333 1.0057434 1.0027113 1.0112268 0.97189504
00000000: 51e4 803f ddb4 833f f07c 823f bef6 7b3f
00000010: 3c3d 843f df88 813f 0039 753f 61e3 803f
00000020: f8e2 783f b1b9 7b3f b6ba 7d3f a024 7c3f
00000030: 5a83 823f 38a8 803f ef76 813f b77e 833f
00000040: 2a0e 883f 2925 813f a1dc 753f dd71 813f
00000050: 53aa 803f c4ac 7b3f 7dc6 863f 60fc 7b3f
00000060: 4fb6 7a3f 3540 7b3f 2154 813f 2ba6 863f
00000070: 410b 7f3f c101 7d3f c44c 823f a33f 7f3f
00000080: b219 763f b1d8 813f f318 7f3f 117a 753f
00000090: 0802 843f d55a 853f 8b2a 803f f719 803f
000000a0: f100 783f 73c6 7e3f b7ed 7d3f b167 753f
000000b0: d90b 7f3f 0b5f 7b3f afbf 813f f227 813f
000000c0: 8ce2 7b3f 76fc 823f e2e4 753f 0dec 833f
000000d0: 4df3 7b3f 4caf 7e3f 3635 7f3f 43ec 7a3f
000000e0: d362 7d3f 174f 7d3f 5b30 773f 91c8 813f
000000f0: 33bc 803f d858 803f e16f 813f 1dce 783f

conv.0.update_fn.bn.0.bias f4 [64]
0.02095886 0.006159866 -0.003228753 -0.046311717 -0.009740291 -0.011603362 -0.037127055 0.0003509923
-0.019759329 -0.0073689125 -0.018978605 -0.011468257 0.043024432 0.029890772 -0.008544049 0.017899903
-0.0034780374 0.0028796454 -0.059445605 0.023674948 -0.0035440242 -0.008145396 0.0009665363 -0.006040939
-0.020821182 0.005244175 0.0032061418 0.027533319 -0.015435316 -0.02241366 0.0029412634 0.013683295
-0.034992468 0.027882399 -0.012828368 -0.02160881 0.037698083 -0.009203651 0.0051061152 -0.024788966
-0.0018869728 -0.01849728 -0.008530177 -0.045888625 -0.012886542 -0.02724305 -0.016037144 -0.0036680289
-0.03422491 0.009783977 -0.014930755 0.011568072 -0.018515559 -0.02402988 -0.0045302236 -0.042113442
0.030312004 -0.0066497535 -0.017899742 0.012266266 0.004431012 0.025653431 -0.012371604 -0.02512533
00000000: eab1 ab3c b4d8 c93b 7d99 53bb 5bb1 3dbd
00000010: be95 1fbc 071c 3ebc 8a12 18bd 6405 b839
00000020: 51de a1bc eb76 f1bb 0579 9bbc 5be5 3bbc
00000030: 633a 303d 7edd f43c 57fc 0bbc d1a2 923c
00000040: c9ef 63bb 6fb8 3c3b 3c7d 73bd f7f1 c13c
00000050: dc42 68bb 4474 05bc 275f 7d3a 12f3 c5bb
00000060: 2f91 aabc 54d7 ab3b 221e 523b 8e8d e13c
00000070: 68e4 7cbc da9c b7bc 36c2 403b e62f 603c
00000080: 4354 0fbd a169 e43c 132e 52bc f604 b1bc
00000090: 4e69 1a3d e9ca 16bc 3351 a73b 3b12 cbbc
000000a0: 4d54 f7ba 9c87 97bc 28c2 0bbc b6f5 3bbd
000000b0: 1322 53bc d12c dfbc 5460 83bc 5063 70bb
000000c0: 6b2f 0cbd f94c 203c 20a0 74bc 0388 3d3c
000000d0: f1ad 97bc 50da c4bc 4572 94bb 257f 2cbd
000000e0: e150 f83c 2de6 d9bb 7ba2 92bc 73f8 483c
000000f0: 0632 913b 2527 d23c 45b2 4abc a3d3 cdbc

conv.0.update_fn.bn.0.running_mean f4 [64]
0.48845834 -0.41682383 0.21921347 -0.1306304 0.018752512 0.27284828 -0.54234725 0.26745227
-0.09112734 -0.37279764 -0.51177996 0.057592984 -0.6172286 -0.6406651 0.47223482 -0.3663928
-0.049870744 0.33866075 0.3731912 -0.20338508 -0.048430875 -0.02419997 0.22099075 0.3295144
0.44925308 0.06892198 0.27727535 -0.37960535 -0.085094355 -0.61659765 0.06802254 -0.12914659
0.17776348 -0.1207516 0.31826282 -0.024751853 0.0572292 0.63853717 0.2641524 -0.14340994
0.49285284 -0.5383367 0.18005387 -0.120786145 0.62233347 -0.13872592 0.19296902 -0.33964378
0.7422063 0.90894437 -0.25449648 0.6785216 -0.40648517 -0.15616278 -0.50878006 0.05693992
-0.21542558 -0.29969162 0.09754659 -0.6856428 -0.8138232 0.039839722 0.15071923 0.27279449
00000000: 3617 fa3e ef69 d5be 7f79 603e fac3 05be
00000010: de9e 993c c5b2 8b3e 45d7 0abf 81ef 883e
00000020: f9a0 babd 55df bebe 0304 03bf 9fe6 6b3d
00000030: b202 1ebf a102 24bf c3c8 f13e d697 bbbe
00000040: 4445 4cbd f164 ad3e eb12 bf3e 2e44 50be
00000050: 745f 46bd 043f c6bc 664b 623e 1db6 a83e
00000060: 8004 e63e f826 8d3d 09f7 8d3e a25b c2be
00000070: f345 aebd 58d9 1dbf 674f 8b3d 013f 04be
00000080: a107 363e 9d4c f7bd 58f3 a23e 66c4 cabc
00000090: 2a69 6a3d 2c77 233f fc3e 873e 0eda 12be
000000a0: 3557 fc3e 6fd0 09bf 0b60 383e ba5e f7bd
000000b0: 3f51 1f3f 2b0e 0ebe ac99 453e cae5 adbe
000000c0: 3b01 3e3f 94b0 683f 5d4d 82be 97b3 2d3f
000000d0: d31e d0be 23e9 1fbe 693f 02bf d539 693d
000000e0: 8698 5cbe 2e71 99be 82c6 c73d 4986 2fbf
000000f0: b856 50bf fa2e 233d 2456 1a3e b8ab 8b3e

conv.0.update_fn.bn.0.running_var f4 [64]
0.29177085 0.34415 0.2466837 0.5380287 0.21828637 0.27935797 0.70306414 0.42916608
0.6829064 0.72165686 0.4966359 0.7889093 0.32562923 0.4268852 0.2676982 0.2678887
0.17586382 0.66291 0.5083141 0.46992028 0.2998405 0.4464313 0.23338011 0.43489674
0.4402782 0.9057256 0.3514058 0.374532 0.2776971 0.3583571 0.2622608 0.54271007
0.521097 0.46586987 0.26598632 0.51108867 0.4469677 0.14558667 0.41239986 0.2977137
0.7028724 0.39293167 0.2732382 0.5729702 1.0647339 0.26690066 0.23262374 0.33344054
1.1895306 0.39735153 1.0290241 0.19105016 0.32808396 0.33609617 0.40936545 0.39270318
0.40274903 0.3451806 0.46565598 0.8116521 0.67875814 1.1685544 0.47743443 0.5192442
00000000: fd62 953e 6e34 b03e a79a 7c3e 40bc 093f
00000010: 7686 5f3e 0208 8f3e 03fc 333f a8bb db3e
00000020: f4d2 2e3f 81be 383f 1047 fe3e f6f5 493f
00000030: e0b8 a63e b290 da3e bd0f 893e b528 893e
00000040: a515 343e 78b4 293f df20 023f 6499 f03e
00000050: b284 993e a592 e43e 32fb 6e3e c9aa de3e
00000060: 256c e13e a2dd 673f 76eb b33e a9c2 bf3e
00000070: 502e 8e3e 957a b73e 0c47 863e 0cef 0a3f
00000080: 9d66 053f 7f86 ee3e 5c2f 883e b5d6 023f
00000090: f3d8 e43e ac14 153e 1326 d33e ee6d 983e
000000a0: 72ef 333f 572e c93e e1e5 8b3e 2dae 123f
000000b0: 3349 883f 34a7 883e eb34 6e3e b8b8 aa3e
000000c0: 8a42 983f a971 cb3e 10b7 833f a7a2 433e
000000d0: 9ffa a73e cc14 ac3e 5998 d13e 6410 c93e
000000e0: 1f35 ce3e 83bb b03e 766a ee3e 6fc8 4f3f
000000f0: 18c3 2d3f 3193 953f 4972 f43e 30ed 043f

conv.1.update_fn.fc.0.weight f4 [64, 64]
-0.008262166 0.0042415764 0.06906923 -0.10901536 0.038581114 0.08489171 -0.12744449 0.007017613
-0.08794838 0.05419229 -0.0023919607 0.10050408 0.0041737226 -0.08558974 0.08350104 -0.06699721
-0.100653134 0.11974706 -0.0185636 0.01663009 0.03120692 -0.11881487 -0.036838062 -0.09503232
0.035138607 0.08469613 -0.0048483848 0.1197071 0.025585927 0.053435583 -0.08566877 0.1167315
0.04063713 0.025177805 0.03649026 -0.0024161094 -0.10858917 -0.027138159 0.11046721 0.03198693
0.024854306 -0.00041296886 0.071401544 0.0029598982 -0.14024398 -0.0656352 -0.024684051 -0.049481582
0.012976565 -0.037885774 -0.10888857 0.03676834 -0.040969826 -0.0020412437 -0.09671578 0.11111356
0.124805704 0.020066826 0.1149232 0.0042884843 -0.043726623 0.075960636 -0.09032971 0.06042038
-0.023534317 -0.15036015 -0.020683687 -0.0056519355 0.033574957 -0.11670793 0.045431633 0.021405779
0.13003613 0.053474434 0.12222413 -0.07694464 -0.11017615 0.0941594 0.08565497 -0.07677457
0.11405156 0.041366417 0.06604569 -0.078977235 -0.0073374836 -0.06077004 -0.0865647 0.02591114
-0.07330691 0.05540758 0.12997581 -0.061312128 -0.083308816 0.107368656 -0.014295608 -0.13207282
0.08406385 -0.023360841 -0.12626049 0.07208738 0.1051199 -0.034074567 -0.00426159 0.013554994
-0.07817528 0.0019453843 0.007878625 -0.14228891 -0.03138102 -0.022080973 -0.02646057 0.09172783
0.073592685 -0.10217799 0.07391112 -0.119750336 -0.057334386 0.09219363 0.0970502 0.008992307
-0.029411819 -0.06061541 -0.10489058 -0.11984297 0.014343307 -0.020980334 -0.07998327 0.023826709
0.09594002 0.013699576 -0.00731527 0.040438738 0.14379227 0.055520155 -0.02628389 -0.052742153
0.07845873 0.07958443 -0.073575936 0.11346306 0.07398295 -0.047083575 0.042202592 -0.07746488
0.062001977 -0.090693496 0.03841467 -0.10535844 -0.12073613 -0.1203953 -0.05810594 0.04618893
-0.021630883 0.050309256 -0.042182233 0.10488389 0.1303205 0.048876427 0.06424055 -0.103966564
-0.10873019 -0.08553384 -0.11564803 -0.10037455 -0.03682557 0.06750073 0.15816371 0.04787054
0.11297992 -0.0718829 0.03329298 0.0035767716 0.03744603 -0.08199222 0.044003952 -0.022524847
-0.1139169 0.059307583 0.027045103 -0.113587976 -0.107504286 -0.033813037 0.08880533 -0.025233323
-0.031061944 -0.0032903554 0.07756763 0.1081758 -0.13261248 -0.013305503 -0.045196276 -0.06631517
0.036077566 0.025077114 0.020993695 0.13381352 -0.056164507 0.05468466 0.06428915 0.11463818
-0.06635856 -0.070723295 -0.046785135 0.029833307 -0.08187721 0.010849979 0.09983122 0.05962091
0.0724459 -0.14381258 0.011822793 0.073431045 0.121902436 -0.080419295 -0.0961207 0.0772653
-0.06821188 -0.083804645 0.060754526 -0.102477185 -0.12309555 -0.076713085 -0.018350733 0.012291132
-0.08499111 -0.061881542 0.029913645 0.004725456 -0.11681091 0.04212378 -0.02588303 -0.05779568
-0.10148245 0.025500644 0.09512179 0.09479336 -0.013884839 -0.15067795 -0.030121677 -0.11840962
-0.0042461893 0.07341126 -0.12043182 0.0458833 -0.03842178 -0.075468235 -0.03102601 -0.1261627
0.037616774 0.037358303 -0.023132758 -0.01111896 -0.0064676474 -0.0008472735 -0.13133916 -0.08335728
00000000: 095e 07bc ecfc 8a3b 2b74 8d3d 7243 dfbd
00000010: 3b07 1e3d b4db ad3d cf80 02be 01f4 e53b
00000020: 481e b4bd bcf8 5d3d 71c2 1cbb 15d5 cd3d
00000030: b9c3 883b ac49 afbd 9802 ab3d d535 89bd
00000040: 3b23 cebd f23d f53d b112 98bc d43b 883c
00000050: a8a5 ff3c 3655 f3bd 82e3 16bd 4ea0 c2bd
00000060: 80ed 0f3d 2a75 ad3d 33df 9ebb ff28 f53d
00000070: 9499 d13c 45df 5a3d 1c73 afbd ed10 ef3d
00000080: 1f73 263d af41 ce3c d076 153d 9757 1ebb
00000090: 0064 debd d850 debc a23c e23d ba04 033d
000000a0: 429b cb3c be83 d8b9 f93a 923d dafa 413b
000000b0: 1e9c 0fbe bf6b 86bd 3536 cabc 33ad 4abd
000000c0: a99b 543c 1d2e 1bbd f800 dfbd 669a 163d
000000d0: facf 27bd 63c6 05bb ec12 c6bd 828f e33d
000000e0: 229a ff3d 2f63 a43c db5c eb3d 6a86 8c3b
000000f0: b01a 33bd 4091 9b3d c8fe b8bd 5c7b 773d
00000100: 0acb c0bc 03f8 19be d670 a9bc df33 b9bb
00000110: e585 093d 9104 efbd 8516 3a3d 2c5b af3c
00000120: 3128 053e 0208 5b3d a550 fa3d 2795 9dbd
00000130: 09a4 e1bd a5d6 c03d df6b af3d fc3b 9dbd
00000140: dd93 e93d d56f 293d f642 873d d1be a1bd
00000150: 466f f0bb 01ea 78bd d548 b1bd 9943 d43c
00000160: ef21 96bd 0ff3 623d 6118 053e 6d22 7bbd
00000170: d09d aabd 19e4 db3d 2038 6abc 193e 07be
00000180: ab29 ac3d 3c5f bfbc 6e4a 01be 8ca2 933d
00000190: 1a49 d73d c691 0bbd cfa4 8bbb c415 5e3c
000001a0: 5c1a a0bd 44fc fe3a 5915 013c 2fb4 11be
000001b0: 6289 00bd 28e3 b4bc d6c3 d8bc cddb bb3d
000001c0: c3b7 963d b242 d1bd b75e 973d aa3f f5bd
000001d0: 76d7 6abd 04d0 bc3d 41c2 c63d 7854 133c
000001e0: 0ef1 f0bc dd47 78bd dfd0 d6bd 3b70 f5bd
000001f0: 3100 6b3c f3de abbc 45ce a3bd 3b30 c33c
00000200: 347c c43d 3074 603c efb4 efbb 17a3 253d
00000210: 483e 133e 1a69 633d 5051 d7bc 2808 58bd
00000220: f8ae a03d 29fd a23d fbae 96bd 525f e83d
00000230: 5f84 973d b5da 40bd a0dc 2c3d e8a5 9ebd
00000240: c9f5 7d3d 83bd b9bd b358 1d3d 2ac6 d7bd
00000250: 8144 f7bd d091 f6bd 7f00 6ebd 9a30 3d3d
00000260: 4033 b1bc 1411 4e3d 47c7 2cbd 5dcd d63d
00000270: bd72 053e a632 483d 8d90 833d 6cec d4bd
00000280: efad debd 5e2c afbd e0d8 ecbd 2c91 cdbd
00000290: 69d6 16bd d33d 8a3d abf5 213e e613 443d
000002a0: 0462 e73d 5837 93bd 385e 083d 4568 6a3b
000002b0: 0261 193d 89eb a7bd 7d3d 343d 0786 b8bc
000002c0: 434d e9bd 82ec 723d b18d dd3c d0a0 e8bd
000002d0: 352b dcbd 8a7f 0abd 92df b53d 1db6 cebc
000002e0: 9e75 febc 01a3 57bb c7db 9e3d 468b dd3d
000002f0: 91cb 07be 53ff 59bc bb1f 39bd 3fd0 87bd
00000300: 12c6 133d 856e cd3c f8fa ab3c 6906 093e
00000310: c10c 66bd 06fd 5f3d 08aa 833d 6cc7 ea3d
00000320: ffe6 87bd 60d7 90bd c5a1 3fbd fb64 f43c
00000330: 3daf a7bd 1cc4 313c 5074 cc3d 0e35 743d
00000340: 845e 943d 9b43 13be 63b4 413c 0463 963d
00000350: fca7 f93d dfb2 a4bd eeda c4bd 453d 9e3d
00000360: acb2 8bbd c5a1 abbd bdd9 783d 8fdf d1bd
00000370: 8519 fcbd c01b 9dbd 4754 96bc be60 493c
00000380: d20f aebd 8077 7dbd 760d f53c ffd7 9a3b
00000390: 8f3a efbd fc89 2c3d a608 d4bc 2abb 6cbd
000003a0: 08d6 cfbd bae6 d03c 37cf c23d 0523 c23d
000003b0: 3c7d 63bc 524b 1abe bcc1 f6bc be80 f2bd
000003c0: 9e23 8bbb a558 963d f5a4 f6bd 21f0 3b3d
000003d0: 2860 1dbd 178f 9abd 422a febc cb30 01be
000003e0: 0c14 1a3d 0505 193d e980 bdbc 4c2c 36bc
000003f0: 8fee d3bb 901b 5eba c67d 06be 39b7 aabd

conv.1.update_fn.fc.0.bias f4 [64]
-0.04194304 0.119139306 0.106676675 0.011841156 -0.075362004 -0.11844532 0.06551989 0.07511585
0.09638113 0.0033487629 -0.021358555 0.10220321 0.12002353 0.005643997 -0.05703159 0.03418357
-0.09087239 -0.062153805 -0.010132384 -0.10264287 -0.0041090427 0.09792628 0.04474976 0.022650395
-0.03121607 0.07721083 -0.0861099 -0.091244094 -0.09049038 -0.0782053 0.110195905 0.10695788
-0.03274092 -0.12476377 -0.10956754 -0.11882258 -0.049577635 -0.0037990317 -0.12290266 0.05445802
-0.06662081 -0.12430377 0.003364774 -0.068636894 -0.028322442 0.042803984 0.057167355 0.10846493
0.105279535 0.1081974 -0.047479253 0.0072289547 0.0286078 0.078053825 -0.010836015 -0.07984499
-0.124396384 0.032125846 0.11296255 -0.022855183 -0.014352347 -0.087971084 0.12009098 0.0791618
00000000: 77cc 2bbd 4fff f33d 4d79 da3d 6801 423c
00000010: 6557 9abd 7693 f2bd 4b2f 863d 57d6 993d
00000020: 7863 c53d eb76 5b3b 23f8 aebc eb4f d13d
00000030: e6ce f53d 47f1 b83b f599 69bd 1204 0c3d
00000040: 4e1b babd fd94 7ebd 4c02 26bc 6d36 d2bd
00000050: 26a5 86bb 938d c83d 864b 373d 528d b93c
00000060: d8b8 ffbc b620 9e3d 635a b0bd 2fde babd
00000070: 0553 b9bd 1a2a a0bd 64ae e13d bc0c db3d
00000080: 581b 06bd 2684 ffbd f264 e0bd 4159 f3bd
00000090: eb11 4bbd 2df9 78bb 64b4 fbbd 5f0f 5f3d
000000a0: 7e70 88bd fa92 febd 8a83 5c3b 8091 8cbd
000000b0: 7704 e8bc 3b53 2f3d 5128 6a3d dc22 de3d
000000c0: cc9c d73d 9996 dd3d 9b79 42bd dee0 ec3b
000000d0: e85a ea3c afda 9f3d 8b89 31bc c585 a3bd
000000e0: 88c3 febd 6496 033d e958 e73d cb3a bbbc
000000f0: 1b26 6bbc 2f2a b4bd 42f2 f53d 951f a23d

conv.1.update_fn.fc.1.weight f4 [64, 64]
0.09727078 0.0047743926 0.10310972 -0.04442174 -0.087347984 -0.061139263 -0.0505947 0.12160025
-0.10303352 0.0999408 -0.05048016 0.076819845 -0.045248423 0.07661222 -0.098953165 -0.102115385
0.029422965 -0.016248897 -0.047864188 0.04187472 -0.011133812 -0.035277005 -0.035376154 -0.11663311
0.0074698227 -0.08233 -0.10943584 -0.08712135 0.02546931 -0.023433419 0.0064911405 0.00051336054
0.053222265 -0.04588605 0.10655688 0.09520494 0.10746665 0.031771682 0.05703648 0.09868448
0.08840602 -0.08894905 0.018708695 0.0879168 -0.036964905 -0.08783762 -0.11133662 -0.11207308
0.05481391 0.03787365 0.029132998 -0.02133597 0.061289657 -0.04565393 -0.09879629 0.085279495
0.024314081 0.11696154 0.12295921 0.08270521 0.118670166 -0.08495851 -0.075604394 -0.07443339
-0.0350206 -0.0049813334 0.066391066 0.028917924 -0.08161533 -0.122001305 0.1202119 0.020824552
-0.045025416 -0.08971658 -0.13115133 -0.09514609 -0.051516354 0.033682503 -0.0852803 0.1140025
0.062976934 0.10308152 0.10268886 0.015502881 0.052032273 0.0066436986 0.03921925 -0.055545073
0.074594624 -0.030746022 -0.057168685 0.074680276 0.09368827 -0.055778988 0.040087827 -0.045005415
0.06276946 0.012406388 -0.043220837 -0.008677713 0.08943754 0.040881254 -0.07390835 0.011016537
0.06373473 0.11934982 0.019658282 0.030139262 -0.11166519 0.07085771 -0.07880695 0.04856591
-0.081883684 -0.09743351 0.018770402 0.09300381 0.00245657 0.0796265 0.019813286 0.12241457
-0.10854783 -0.14497735 -0.020872753 0.044024475 0.047752466 0.025903996 0.07221392 -0.14861567
-0.076664366 0.08195467 -0.0013108772 0.010056789 0.04376403 0.07945187 0.040333252 0.042778492
0.020974174 -0.06477458 0.035183247 0.1362992 0.0627031 -0.0030417244 0.123290695 0.018767096
-0.08969265 -0.04445343 0.079924814 -0.038682483 0.051574484 -0.090217695 0.05265698 0.12116407
-0.025902243 0.032027993 -0.046729863 0.058705315 -0.034481253 -0.047889877 -0.05640279 0.06274215
0.12977116 0.10202739 0.08829627 0.11733313 0.0035803895 0.050975975 0.11753287 -0.05595848
-0.005032189 0.028110862 0.08604244 0.074340716 -0.052123085 -0.11097523 0.08630674 0.10682748
0.09983988 -0.13254878 -0.12582989 -9.327413e-05 0.028759748 0.042148385 0.01431946 0.05004674
0.06917998 -0.09353406 -0.0067710336 0.005237899 0.10011028 0.0841945 -0.0019688497 0.04993309
-0.04005289 -0.073248565 -0.13679276 0.09023565 -0.07543365 0.09902687 -0.0075196233 0.029371306
-0.055387933 -0.029051917 0.02333475 -0.0861411 -0.052944943 0.08226531 -0.08079014 0.15387939
0.023555044 0.11207349 0.12481532 -0.07160385 0.05045007 -0.09009182 0.02433353 -0.09681834
0.0234073 -0.0069116754 -0.09920691 0.10102084 0.12000178 0.102426484 -0.020732112 0.11121914
0.14482418 0.096618675 0.096495 -0.06467454 -0.01693314 -0.042715736 -0.02245968 0.046503317
0.0701042 0.025922133 -0.10358772 0.075012065 -0.056637213 -0.022542115 -0.033071417 -0.06936963
-0.1112166 0.12981293 0.062889464 -0.0063054697 0.11882188 0.11612657 -0.088710055 -0.032744817
0.08747965 -0.08586386 -0.026182005 0.09114918 0.12810278 -0.06095538 -0.102438785 0.10175908
00000000: e735 c73d 8272 9c3b 302b d33d 92f3 35bd
00000010: 80e3 b2bd 2a6d 7abd 633c 4fbd 8d09 f93d
00000020: 3d03 d3bd c3ad cc3d 49c4 4ebd b953 9d3d
00000030: 6956 39bd dee6 9c3d f5a7 cabd df21 d1bd
00000040: 6e08 f13c 681c 85bc 3d0d 44bd d484 2b3d
00000050: 986a 36bc 9f7e 10bd 96e6 10bd 57dd eebd
00000060: 6ac5 f43b a29c a8bd e61f e0bd ae6c b2bd
00000070: 04a5 d03c 71f7 bfbc a2b3 d43b 0b93 063a
00000080: 97ff 593d 03f3 3bbd 7e3a da3d cffa c23d
00000090: 7a17 dc3d 0623 023d 169f 693d 171b ca3d
000000a0: 370e b53d eb2a b6bd fa42 993c b90d b43d
000000b0: 8368 17bd 36e4 b3bd 7404 e4bd 9286 e5bd
000000c0: 8d84 603d 6721 1b3d 53a8 ee3c c6c8 aebc
000000d0: dd0a 7b3d 9eff 3abd b655 cabd 04a7 ae3d
000000e0: 532e c73c 8889 ef3d 0ad2 fb3d 5961 a93d
000000f0: 5809 f33d bafe adbd 7ad6 9abd 8870 98bd
00000100: c371 0fbd 743a a3bb 0af8 873d 48e5 ec3c
00000110: f025 a7bd d2db f9bd a831 f63d 4098 aa3c
00000120: 926c 38bd 54bd b7bd 894c 06be f4db c2bd
00000130: d002 53bd aaf6 093d 70a7 aebd 257a e93d
00000140: 0dfa 803d 671c d33d 894e d23d ccff 7d3c
00000150: cb1f 553d 62b3 d93b 5da4 203d 3b83 63bd
00000160: 11c5 983d 15df fbbc b629 6abd f9f1 983d
00000170: a3df bf3d 8278 64bd 2233 243d 9957 38bd
00000180: 468d 803d 2a44 4b3c 5508 31bd f72c 0ebc
00000190: 072b b73d 1a73 273d 435d 97bd b57e 343c
000001a0: 5b87 823d ae6d f43d 680a a13c 9de6 f63c
000001b0: b8b0 e4bd d91d 913d 8a65 a1bd 0ced 463d
000001c0: a2b2 a7bd 388b c7bd 63c4 993c c878 be3d
000001d0: 68fe 203b 3813 a33d 794f a23c 7db4 fa3d
000001e0: 534e debd f174 14be 56fd aabc 0253 343d
000001f0: 1798 433d 9e34 d43c e4e4 933d b52e 18be
00000200: 3502 9dbd dad7 a73d bdd1 abba 3bc5 243c
00000210: e941 333d a9b7 a23d 7b34 253d 8038 2f3d
00000220: 08d2 ab3c 89a8 84bd 4f1c 103d 0492 0b3e
00000230: 7c6a 803d ab57 47bb d57f fc3d 74bd 993c
00000240: c8b0 b7bd cd14 36bd 9faf a33d 8671 1ebd
00000250: c43f 533d 0ec4 b8bd d8ae 573d de24 f83d
00000260: f130 d4bc c92f 033d d067 3fbd fc74 703d
00000270: 373c 0dbd 2d28 44bd 9d06 67bd f57e 803d
00000280: bbe2 043e bcf3 d03d add4 b43d 5a4c f03d
00000290: f8a4 6a3b 2fcc 503d 13b5 f03d b834 65bd
000002a0: 10e5 a4bb c048 e63c 0537 b03d f23f 983d
000002b0: 047f 55bd fb46 e3bd 97c1 b03d 5ec8 da3d
000002c0: da78 cc3d deba 07be 8dd9 00be 2b9c c3b8
000002d0: 9099 eb3c c9a3 2c3d 2b9c 6a3c cffd 4c3d
000002e0: 3cae 8d3d c98e bfbd 8cdf ddbb aea2 ab3b
000002f0: 9e06 cd3d 2b6e ac3d d107 01bb a486 4c3d
00000300: 800e 24bd 5803 96bd 6713 0cbe 78cd b83d
00000310: f57c 9abd 9ace ca3d 2c67 f6bb 189c f03c
00000320: 75de 62bd 49fe edbc 8528 bf3c bf6a b0bd
00000330: ccdc 58bd b77a a83d 4d75 a5bd 8f92 1d3e
00000340: 82f6 c03c c986 e53d 2d9f ff3d 0aa5 92bd
00000350: bca4 4e3d 0f82 b8bd 1c57 c73c b248 c6bd
00000360: aac0 bf3c 567b e2bb fe2c cbbd 04e4 ce3d
00000370: 7ec3 f53d fac4 d13d 64d6 a9bc dcc6 e33d
00000380: ca4c 143e 03e0 c53d 2c9f c53d 1674 84bd
00000390: 5eb7 8abc b2f6 2ebd 5dfd b7bc 437a 3e3d
000003a0: ca92 8f3d a75a d43c cc25 d4bd ed9f 993d
000003b0: 6cfc 67bd 3eaa b8bc e575 07bd aa11 8ebd
000003c0: 87c5 e3bd aeed 043e 31cc 803d 1d9e cebb
000003d0: e358 f33d c4d3 ed3d 9ead b5bd 6e1f 06bd
000003e0: 8828 b33d 64d9 afbd a57b d6bc 6cac ba3d
000003f0: 602d 033e 59ac 79bd 6dcb d1bd 1167 d03d

conv.1.update_fn.fc.1.bias f4 [64]
-0.048417225 0.07002291 -0.009850103 -0.08461006 -0.0009692844 -0.023487382 0.06504227 -0.12440024
0.115950435 -0.05953342 -0.06925498 0.12609167 0.090805605 -0.09718515 -0.04756008 0.0070990683
0.091146655 -0.09008106 0.0048458464 -0.08553935 0.12066844 -0.11067712 0.035151746 -0.009045208
-0.08856845 0.012035071 0.12385119 0.026617534 -0.042964492 0.07268377 -0.061810028 -0.0071391356
0.0044611413 -0.116586335 -0.01688879 0.031300146 0.004883691 0.10827636 -0.09513213 0.090422414
-0.0070872027 -0.083840296 -0.02954297 -0.03158024 -0.05772562 0.01978052 -0.040713593 -0.022503864
-0.06816124 0.005364493 -0.074324265 0.040233765 -0.05119172 -0.07411542 -0.108162284 0.051772412
-0.048682746 -0.009050403 0.106794246 0.105031736 -0.09079582 -0.072880276 -0.0394781 -0.06563986
00000000: 2451 46bd 2c68 8f3d 5462 21bc 0a48 adbd
00000010: 9317 7eba 9c68 c0bc e234 853d 8ec5 febd
00000020: 6c77 ed3d 51d9 73bd 8ed5 8dbd 2d1e 013e
00000030: 4af8 b93d 0209 c7bd 5cce 42bd 4d9f e83b
00000040: 19ab ba3d 6b7c b8bd e8c9 9e3b 412f afbd
00000050: 0421 f73d b0aa e2bd 47fb 0f3d 5a32 14bc
00000060: 6063 b5bd bf2e 453c b1a5 fd3d 040d da3c
00000070: 89fb 2fbd 3adb 943d 832c 7dbd 69ef e9bb
00000080: c42e 923b d1c4 eebd 5c5a 8abc 9534 003d
00000090: 5f07 a03b ffbf dd3d a2d4 c2bd 632f b93d
000000a0: c43b e8bb 76b4 abbd 1904 f2bc 485a 01bd
000000b0: b371 6cbd c20a a23c 4cc3 26bd 065a b8bc
000000c0: 1f98 8bbd a1c8 af3b 5237 98bd 29cc 243d
000000d0: 69ae 51bd d3c9 97bd 3084 ddbd 4f0f 543d
000000e0: 8f67 47bd 2448 14bc f1b6 da3d e11a d73d
000000f0: 29f3 b9bd 4142 95bd cab3 21bd 316e 86bd

conv.1.update_fn.bn.0.weight f4 [64]
0.97784215 0.9919915 1.0592719 1.0145572 1.0456665 1.059669 0.97801596 0.9978243
0.9519679 0.99358845 0.9950439 0.99212295 1.0078468 0.9852796 0.97647905 0.9992942
1.0717908 0.984399 0.98202544 0.9713444 1.010126 0.95984805 0.991548 1.0177875
1.0044755 1.0039651 0.9755725 0.9905522 1.025968 0.9984341 0.99049324 1.0022862
1.0209525 0.99980223 0.99517554 0.9755345 1.0034664 1.0499063 1.0003213 0.96785986
1.0190591 1.0215999 0.99869186 0.9956949 1.0025991 1.0210505 1.0098295 0.97101146
0.9929559 0.9955903 0.9951012 0.9799132 1.0078777 1.0016717 0.99845904 0.96264166
1.0411556 0.99004424 1.035089 0.9734303 0.98240685 0.98387134 0.9708996 1.0114753
00000000: dd53 7a3f 28f3 7d3f 3996 873f 03dd 813f
00000010: 66d8 853f 3ca3 873f 415f 7a3f 6a71 7f3f
00000020: 2bb4 733f d05b 7e3f 32bb 7e3f c5fb 7d3f
00000030: 2001 813f 493b 7c3f 88fa 793f bfd1 7f3f
00000040: 7130 893f 9301 7c3f 0566 7b3f 07aa 783f
00000050: cf4b 813f 9ab8 753f 17d6 7d3f dc46 823f
00000060: a792 803f ee81 803f 1fbf 793f d494 7d3f
00000070: eb52 833f 6199 7f3f f790 7d3f ea4a 803f
00000080: 92ae 823f 0af3 7f3f d3c3 7e3f a1bc 793f
00000090: 9671 803f 5463 863f 870a 803f aac5 773f
000000a0: 8770 823f c9c3 823f 45aa 7f3f dce5 7e3f
000000b0: 2b55 803f c8b1 823f 1842 813f 3594 783f
000000c0: 5c32 7e3f 02df 7e3f f4be 7e3f 97db 7a3f
000000d0: 2302 813f c736 803f 039b 7f3f af6f 763f
000000e0: 9644 853f 8a73 7d3f cc7d 843f ba32 793f
000000f0: 047f 7b3f fede 7b3f e08c 783f 0678 813f

conv.1.update_fn.bn.0.bias f4 [64]
-0.0039742966 -0.0012215301 0.08419656 -0.005419123 0.026100326 0.03311687 0.016581256 -0.0032927736
-0.062126346 -0.004904023 0.009790644 0.0015629444 -0.004065895 -0.01480645 0.0013068911 0.027673459
0.02041243 0.0124259135 -0.016181966 -0.04644139 0.023638988 -0.02417717 0.002042333 0.04094195
0.0071115447 0.023027202 -0.008200608 -0.0017548654 0.061802547 0.015712565 0.006318318 0.022598376
0.011655144 -0.005814152 0.010775715 -0.021649946 0.03647743 0.07212013 0.005279658 -0.018554213
0.056843273 0.008299399 0.008073142 -0.019607898 0.016955687 0.024869818 0.014823591 -0.0025159684
-0.030912258 0.017409965 -0.01857436 -0.010839749 0.024012815 0.01669658 -0.019682264 -0.027268257
0.06646568 0.0065464564 0.058183484 -0.050230443 -0.019543344 0.026605753 -0.037677176 0.033157725
00000000: d13a 82bb c01b a0ba 3f6f ac3d e692 b1bb
00000010: 5ad0 d53c 8ea5 073d 6ad5 873c 93cb 57bb
00000020: 3278 7ebd edb1 a0bb f068 203c b6db cc3a
00000030: 333b 85bb c196 72bc fd4b ab3a 73b3 e23c
00000040: f837 a73c 0f96 4b3c 0b90 84bc 5439 3ebd
00000050: 8da6 c13c 330f c6bc a9d8 053b bfb2 273d
00000060: f607 e93b 8ba3 bc3c d85b 06bc 8303 e6ba
00000070: ab24 7d3d a3b7 803c e509 cf3b 3b20 b93c
00000080: 38f5 3e3c a484 bebb a08c 303c 3a5b b1bc
00000090: 5c69 153d b8b3 933d fb00 ad3b 01ff 97bc
000000a0: 7ed4 683d 34fa 073c 3645 043c bea0 a0bc
000000b0: a7e6 8a3c cabb cb3c a6de 723c f2e2 24bb
000000c0: b43b fdbc 589f 8e3c 4229 98bc 3499 31bc
000000d0: 86b6 c43c 44c7 883c b33c a1bc ae61 dfbc
000000e0: 291f 883d a883 d63b ce51 6e3d 70be 4dbd
000000f0: 5d19 a0bc 4ff4 d93c 6253 1abd 65d0 073d

conv.1.update_fn.bn.0.running_mean f4 [64]
0.29062515 -2.6952896 -0.6073126 -6.1135054 -3.535467 -3.3855858 0.06631685 3.882731
-1.3640358 4.676307 0.9596675 -5.018696 -3.37182 3.3104997 -3.9802265 5.131248
-3.1330945 -1.5971481 0.5987324 1.2402227 5.804397 0.46607628 5.2101254 2.031569
5.9170303 2.745158 1.8361744 3.992644 5.648783 0.8918978 2.7149968 -3.3764486
4.7615156 -0.81879354 0.7456348 5.670515 0.57213926 -1.0914688 3.220485 8.22726
-1.7282695 -4.8299685 -3.7342007 -7.567265 -4.08176 -4.3822975 3.5238683 5.0230846
0.2769993 7.921766 7.267443 -1.6828789 -1.9939814 0.017527986 7.7250743 -5.4637566
-3.185716 -4.986945 0.06343738 -0.15037239 -0.57463753 3.4117754 -4.71144 -4.524363
00000000: d2cc 943e a07f 2cc0 d778 1bbf d6a1 c3c0
00000010: 1745 62c0 70ad 58c0 21d1 873d aa7e 7840
00000020: ba98 aebf 4fa4 9540 c5ac 753f 2899 a0c0
00000030: e6cb 57c0 3adf 5340 08bc 7ec0 2f33 a440
00000040: 9f84 48c0 596f ccbf 8746 193f 9ebf 9e3f
00000050: 9fbd b940 8da1 ee3e 59b9 a640 3a05 0240
00000060: 5058 bd40 abb0 2f40 c307 eb3f 7b87 7f40
00000070: d5c2 b440 6a53 643f 82c2 2d40 bc17 58c0
00000080: 565e 9840 749c 51bf ece1 3e3f dc74 b540
00000090: b877 123f 40b5 8bbf 6d1c 4e40 dba2 0341
000000a0: ef37 ddbf 1a8f 9ac0 25fd 6ec0 0927 f2c0
000000b0: c79d 82c0 c83b 8cc0 0f87 6140 1cbd a040
000000c0: dad2 8d3e 1b7f fd40 e58e e840 9368 d7bf
000000d0: c83a ffbf da96 8f3c cf33 f740 18d7 aec0
000000e0: c5e2 4bc0 0e95 9fc0 75eb 813d 38fb 19be
000000f0: 721b 13bf 875a 5a40 1ec4 96c0 95c7 90c0

conv.1.update_fn.bn.0.running_var f4 [64]
22.301643 30.074017 14.0565605 56.043602 22.999964 28.45884 87.31584 139.37447
17.170036 51.180145 42.532692 56.840237 42.572582 58.93662 46.77522 57.22614
12.546726 13.54846 27.942965 43.493862 56.638947 71.50967 99.073814 62.353916
73.474 29.211788 28.199245 51.746773 136.62595 22.28156 19.933899 64.19166
73.38388 66.739876 36.227497 65.71978 67.38538 9.641038 69.46092 56.39465
9.619692 33.831245 51.01819 68.86283 33.744026 18.4991 25.613558 78.75801
64.8012 40.331207 107.34036 17.41147 47.04612 69.62038 76.46915 52.610317
22.020985 29.27855 17.086714 50.8607 57.073624 64.04288 59.735577 61.473244
00000000: c469 b241 9697 f041 ace7 6041 a62c 6042
00000010: edff b741 b4ab e341 b6a1 ae42 dd5f 0b43
00000020: 3c5c 8941 78b8 4c42 7a21 2a42 675c 6342
00000030: 534a 2a42 19bf 6b42 d319 3b42 91e7 6442
00000040: 64bf 4841 7ec6 5841 318b df41 b7f9 2d42
00000050: 488e 6242 f304 8f42 cb25 c642 696a 7942
00000060: b0f2 9242 beb1 e941 0e98 e141 b2fc 4e42
00000070: 3ea0 0843 a340 b241 a078 9f41 2162 8042
00000080: 8cc4 9242 d17a 8542 f5e8 1042 8770 8342
00000090: 51c5 8642 b141 1a41 feeb 8a42 1f94 6142
000000a0: 42ea 1941 3253 0742 a012 4c42 c5b9 8942
000000b0: e2f9 0642 28fe 9341 91e8 cc41 1a84 9d42
000000c0: 379a 8142 2853 2142 44ae d642 b14a 8b41
000000d0: 3a2f 3c42 a23d 8b42 34f0 9842 f770 5242
000000e0: fa2a b041 783a ea41 97b1 8841 5b71 4b42
000000f0: 644b 6442 f415 8042 3bf1 6e42 9ae4 7542

conv.2.update_fn.fc.0.weight f4 [64, 64]
-0.010835031 0.05527414 0.13832259 -0.060361873 0.09435012 -0.029701438 0.042874794 0.0024011722
0.11619245 -0.13260216 0.06719644 0.0491084 -0.017137151 0.106628746 -0.06782547 0.055588324
0.09145919 0.08730783 -0.11529402 0.051260885 0.0057309987 0.1475303 0.120464705 0.06000387
0.051454715 0.10041296 0.036471125 0.058497023 -0.0856515 0.07168843 -0.07467539 0.0037887173
-0.040570393 0.011888551 0.120080866 -0.015067481 0.09087251 0.066314965 -0.009236049 -0.018436458
-0.088570274 -0.061656952 -0.041478124 0.0766284 -0.077062845 -0.06731659 -0.05811479 -0.04420792
-0.11353513 0.040546484 -0.08729176 0.06654853 -0.08266906 -0.045542706 -0.11055237 0.05315034
-0.111534774 0.0992599 -0.06838841 -0.14359738 0.030275019 0.10142882 -0.106843516 0.11844496
0.11639912 0.059930615 0.0651705 0.024915382 0.09784506 0.072433986 0.08662678 0.08207947
0.029134234 0.0949502 0.062407237 0.13450006 -0.065728016 -0.110377595 0.08505864 0.0026228828
0.05125779 0.012976129 0.12716924 0.111234695 0.024531934 0.0344277 0.087437205 0.02021742
0.038431626 -0.11182357 0.047014758 -0.091282055 -0.07480184 0.12409364 -0.0338615 0.08989182
-0.0039758137 0.002091438 0.09065009 -0.035123963 0.023771375 -0.06800001 0.01931849 0.06747763
0.02996276 -0.091016196 0.034380667 0.006586735 -0.055450883 -0.113289855 0.09403591 0.06096023
-0.008997798 0.045074202 0.06624166 -0.01198693 -0.07140971 0.016922565 0.09467141 -0.03548987
-0.021839913 0.045552712 -0.00136276 0.1014217 -0.12875897 0.047124337 -0.10245261 0.117194004
-0.011275609 -0.066405535 0.07681576 0.06759911 0.027992053 0.06422424 -0.004748526 -0.031119715
-0.004206756 -0.015410911 -0.026388204 0.03450249 0.05383451 -0.08843565 0.11354631 -0.09844377
-0.05749249 0.027964167 0.090754 0.05131669 -0.12204196 -0.0040160096 0.05308778 0.069460265
0.099252686 -0.009609291 -0.08633565 0.037474833 0.04396225 0.04056105 -0.08789815 -0.00412673
-0.12792943 0.022097766 -0.022687053 -0.096320294 -0.035077624 0.01512235 -0.105794236 -0.10871009
0.007651034 0.13087735 -0.02835853 -0.0906234 -0.09667186 0.10857442 0.00030296948 0.05217468
-0.05820483 -0.04513472 0.05296413 -0.069576904 0.09705153 0.07748427 0.10086782 0.13598001
0.0018354673 0.13220231 0.078041844 0.05761125 -0.00032871382 -0.0056109424 -0.0021627892 0.02410046
0.07135416 -0.029029716 -0.07583516 -0.10298733 0.111081116 0.057976272 -0.112545215 0.01929698
0.0061389585 -0.11319771 -0.008052491 0.092851534 -0.006049567 0.009926978 0.07825619 0.028708782
0.031570613 0.08286455 0.06341412 -0.06654101 -0.0850031 0.12408383 -0.049428888 -0.12328253
0.04444514 0.0463754 0.028328015 -0.115249716 0.05177687 -0.04765884 -0.05804285 -0.07311226
-0.00082872 0.046008844 -0.09708096 -0.06731857 0.025007743 -0.03445026 -0.09416516 -0.12242003
0.062240314 -0.026946643 0.037472546 0.039770883 0.09415951 -0.0016147248 0.0013239526 0.093415305
0.1000561 -0.046435747 -0.0734399 0.07462583 -0.08138382 -0.094137244 -0.008591332 -0.105994225
0.10131882 -0.12430415 -0.012023624 0.090216756 0.06726296 0.06783084 0.10216265 -0.104833394
00000000: 6a85 31bc 2367 623d 70a4 0d3e 033e 77bd
00000010: a33a c13d 6e50 f3bc 7b9d 2f3d fc5c 1d3b
00000020: 4ff6 ed3d dcc8 07be 4a9e 893d e425 493d
00000030: 3663 8cbc 2c60 da3d 14e8 8abd 95b0 633d
00000040: f54e bb3d 73ce b23d 451f ecbd eff6 513d
00000050: 1acb bb3b 2f12 173e 33b6 f63d 9ec6 753d
00000060: 2ec2 523d 4fa5 cd3d bf62 153d 939a 6f3d
00000070: 0e6a afbd 62d1 923d 69ef 98bd 214c 783b
00000080: 242d 26bd 32c8 423c f5ec f53d 99dd 76bc
00000090: 5e1b ba3d 24d0 873d cc52 17bc 0e08 97bc
000000a0: 5564 b5bd 008c 7cbd f7e4 29bd 5aef 9c3d
000000b0: 20d3 9dbd 48dd 89bd c609 6ebd 5d13 35bd
000000c0: 1b85 e8bd 1214 263d 06c6 b2bd 984a 883d
000000d0: 654e a9bd fd8a 3abd 4869 e2bd 2cb4 593d
000000e0: 586c e4bd c648 cb3d 390f 8cbd 310b 13be
000000f0: 5103 f83c eab9 cf3d c6d0 dabd 4593 f23d
00000100: a962 ee3d ce79 753d 1c78 853d 581b cc3c
00000110: fe62 c83d 4558 943d 6269 b13d 4819 a83d
00000120: ebaa ee3c 4075 c23d bb9e 7f3d 62ba 093e
00000130: 699c 86bd a60d e2bd 3933 ae3d ace4 2b3b
00000140: b0f3 513d d499 543c a738 023e 04cf e33d
00000150: 32f7 c83c 0f04 0d3d 4712 b33d 019f a53c
00000160: 7b6a 1d3d c203 e5bd 8c92 403d 16f2 babd
00000170: b531 99bd ce24 fe3d 5bb2 0abd 3419 b83d
00000180: 8b47 82bb 8210 093b c1a6 b93d 25de 0fbd
00000190: 30bc c23c 9743 8bbd cf41 9e3c b631 8a3d
000001a0: 7674 f53c b366 babd bed2 0c3d 8ad5 d73b
000001b0: 7720 63bd 8304 e8bd e695 c03d 6fb1 793d
000001c0: 806b 13bc ba9f 383d b5a9 873d d464 44bc
000001d0: 413f 92bd 31a1 8a3c 16e3 c13d d35d 11bd
000001e0: 9ee9 b2bc 7b95 3a3d a39e b2ba 2eb6 cf3d
000001f0: 64d9 03be 7305 413d add2 d1bd 6903 f03d
00000200: 55bd 38bc a0ff 87bd 9551 9d3d 6771 8a3d
00000210: 974f e53c 0088 833d 8699 9bbb c6ee febc
00000220: d4d8 89bb 0c7e 7cbc 132c d8bc 7c52 0d3d
00000230: 9381 5c3d c01d b5bd f88a e83d e39c c9bd
00000240: 3f7d 6bbd 1c15 e53c 3cdd b93d 7331 523d
00000250: 23f1 f9bd bb98 83bb 9272 593d 2f41 8e3d
00000260: fe44 cb3d 4a70 1dbc bfd0 b0bd 367f 193d
00000270: c311 343d 5823 263d f203 b4bd 8539 87bb
00000280: efff 02be 6006 b53c 33da b9bc 9343 c5bd
00000290: 8ead 0fbd bcc3 773c a6aa d8bd 65a3 debd
000002a0: 86b5 fa3b b604 063e 2650 e8bc c398 b9bd
000002b0: e5fb c5bd 445c de3d e0d7 9e39 1eb5 553d
000002c0: 3068 6ebd 2fdf 38bd eaf0 583d 567e 8ebd
000002d0: f4c2 c63d 13b0 9e3d ca93 ce3d 583e 0b3e
000002e0: 1094 f03a 0b60 073e 67d4 9f3d c6f9 6b3d
000002f0: 3957 acb9 ffdb b7bb 95bd 0dbb 546e c53c
00000300: 2122 923d bacf edbc 774f 9bbd 05eb d2bd
00000310: 7f7e e33d 8778 6d3d 1b7e e6bd b314 9e3c
00000320: 5129 c93b 33d4 e7bd 98ee 03bc f228 be3d
00000330: 723b c6bb c3a4 223c c844 a03d ae2e eb3c
00000340: 3050 013d e4b4 a93d 43df 813d a746 88bd
00000350: 1b16 aebd aa1f fe3d f275 4abd 8d7b fcbd
00000360: 1b0c 363d 22f4 3d3d 2710 e83c 0b08 ecbd
00000370: fc13 543d ea35 43bd 57be 6dbd e1bb 95bd
00000380: 753e 59ba c573 3c3d 62d2 c6bd 52de 89bd
00000390: 0add cc3c b71b 0dbd aad9 c0bd 5ab7 fabd
000003a0: b3ef 7e3d 35bf dcbc d07c 193d cbe6 223d
000003b0: b4d6 c03d 2ca5 d3ba 7a88 ad3a 8650 bf3d
000003c0: 36ea cc3d 6933 3ebd a967 96bd 6dd5 983d
000003d0: 8fac a6bd 07cb c0bd a8c2 0cbc 8013 d9bd
000003e0: 3e80 cf3d 2d93 febd bcfe 44bc 90c3 b83d
000003f0: 2ac1 893d e5ea 8a3d a73a d13d e4b2 d6bd
