datasets/social/backup/results/temp/0/GSN_sparse/checkpoints/checkpoint.pth.tar (torch, 844130 bytes, 142 tensors)

conv.0.update_fn.fc.0.weight f4 [64, 534]
00000000: 72f0 b6bb 0bf4 963c 6999 07bd b5e4 5f3d
00000010: eef4 1a3d c1b7 2b3d 0f2e 023d 3eba a23c
00000020: 5e40 d6bc 5ec0 ef3b 7c0e 32bd dc79 cfbc
00000030: 0c93 52bd 644a d2bc 43dd 03bd 6da6 c1bb
00000040: 90e6 fbb9 5080 eb3c 9aee 2fbc 420a 033c
00000050: f519 a6ba 1e0b 903d 17bf 9d3c 78ef 243d
00000060: dba4 a43b 975d 103d d066 fc3c f183 02bd
00000070: 5ace 36bc 92c0 423b 0582 19bc bc58 863d
00000080: 75dc c8bc 9142 1abc dda3 12bd 85f1 f0bc
00000090: e34b c1bc 713d 773d f352 2b3d f690 243d
000000a0: 0ac4 9cbb 1ec1 85bb a42c 323c 9504 4abd
000000b0: c5ac 2f3b ac36 1abc 4737 9f3c 0ef4 a93c
000000c0: 0399 63ba 19c3 5c3b 0e18 633c 63ac fb3c
000000d0: fd34 cd3d 9299 6b3d e525 2a3d 61de 9e3b
000000e0: 1fd1 abbc c45b 793d f300 903b e396 4f3d
000000f0: 7fe7 823d d39f a23d bb10 61bd dc6a 143d
00000100: 5b3a 0cbb 6955 2bbc 70e1 273c dd2a 35bc
00000110: f6db a33d 2e7b 7c3d 9f5b 74bd 3677 523c
00000120: 5c01 283d 3ee5 c83c 0fa1 7a3d b62b 523d
00000130: 7d01 863c 1133 00bd 2fc6 7a3d 1a18 e4bc
00000140: 4e9d 89bd c658 093d b85d a83c 6e4b 44bd
00000150: a7e3 793c 4292 b8bc 96b8 32bc d907 16bc
00000160: 1c88 4c3b 07c3 0a3d 59a9 01bc 2c62 373d
00000170: 2e6c 073d 7945 223d b0a2 96bd fd68 09bd
00000180: 03a0 5c3d 8af9 abba e2ac 33bd 88f7 27bc
00000190: e9fc 033d c8a2 cf3c 74e4 dfbc 8530 bdbc
000001a0: d5d7 5abd e5ac 14bb c4d1 72bd 3bf3 f6bc
000001b0: ad94 b83c 5099 85bb 1bd2 0cbd dba7 df3c
000001c0: 97d1 c5bc 9d26 cd3c a401 e93c bec7 3dbd
000001d0: a200 b7bc c5c7 cabb 1209 563c 703f 0ebd
000001e0: ac7f 3c3d 4e30 f13b 8f66 ccbc ae9c d43c
000001f0: 6d76 63bd bbfa 25bd eab0 45bc 5e02 fbbc
00000200: dc29 b0bc c2fc 0bbd 989e ddbc 5a7a aa3c
00000210: 34eb d13b 22a7 253b 91a1 433d 93ea 84bc
00000220: 6281 c3bc efff 2cbc e78c 2c3d 3ad2 c63b
00000230: a0cf 2a3d 092b fe3c 0207 603d 24fe 9bbc
00000240: 91ee 23bd e174 c0bc 80ca 2e3d 6528 e23b
00000250: f665 c6bc 14f4 e2bc b30d 2fbd b10b 11bd
00000260: 50bf 273c bc7c 933c 948c d43c 7ffb 3cbd
00000270: 2ba8 063d cc5f f1bc c83d 06bc c69b dd3b
00000280: c008 babb dd3b 1dbc a74e 3bbd f645 c8bc
00000290: f5d1 e2bb 8660 103d fef6 9c39 6ec4 123d
000002a0: bc1f 2bbd c011 433c 6ebf 743d ba80 2cbc
000002b0: c726 3a3d 7306 883c 9741 a7bb 7606 4c3d
000002c0: 68a5 79b9 42af e4bc 6f51 513d 96f5 58bc
000002d0: 0fe5 4ebc 09e8 e1bc 6476 2b3d 28a9 013d
000002e0: f55d 1e3d 3b89 463d 1a64 dabc 8b2c 783c
000002f0: 5e01 c4bc 2517 523d 3686 d93c eefc 7c3d
00000300: 4bc2 33bc f8b1 d2bc 46fc 27bd 8296 02bd
00000310: 385c cfbc 893c 433c 58d7 1ebd 4a59 f03b
00000320: 1a46 33ba 88a4 ec3c 3117 91ba 1162 34bd
00000330: 6c02 e4bc 2558 003d de8b 89bc e0e2 2b3d
00000340: 7ff6 363d 4495 50ba 766e 843c 93ed 63ba
00000350: 75ae 9e3a 88c1 c53b 7560 303c 3e97 9e3c
00000360: 2a48 afbc 4cd2 11bd 1dfe 803d 723b 98bc
00000370: c256 69bc d6ac 5c3d f17c be3c 6ca3 fcbb
00000380: a084 d6bc 0064 f33c 79ab 1abc f8a9 273c
00000390: 0b9e 803b 7912 7bbc 10a6 b33c 5070 253d
000003a0: d1a4 523c 7b04 8f3c 6208 f43c a302 03bd
000003b0: 60ff 7cbb 56f2 90bc 80b6 03bd 5da7 903c
000003c0: b194 053d 6435 a53c 0de9 a1ba 043d 6c3d
000003d0: 24c2 553d b9eb f93c d3c5 bd3d 43e9 403b
000003e0: bd91 0d3d a1af c63b a3a9 0f3d a306 b73c
000003f0: b169 ba3d f8bc 29bd 7ea4 9fbd e725 d13c
-0.0055828625 0.018426916 -0.033105288 0.05466147 0.03783124 0.04192329 0.031782206 0.019864198
-0.02615374 0.007316633 -0.043470845 -0.025326662 -0.051409766 -0.025670238 -0.032193433 -0.005909732
-0.00048046233 0.028747708 -0.010738039 0.007998051 -0.0012672531 0.070333704 0.019256158 0.040267438
0.005024535 0.035245504 0.030810744 -0.03186411 -0.0111575965 0.0029716832 -0.009369378 0.065598935
-0.024519185 -0.009415285 -0.035800803 -0.02941204 -0.023595756 0.06036133 0.041827153 0.040177308
-0.004784112 -0.0040818593 0.010874901 -0.049320776 0.002680586 -0.009412449 0.019435538 0.020746257
-0.00086821633 0.0033685623 0.013860716 0.030721849 0.10019872 0.057519503 0.041540045 0.004848287
-0.02097374 0.06087853 0.0043946444 0.050681006 0.063918106 0.0794064 -0.054947596 0.03623472
-0.0021397087 -0.010457375 0.01024662 -0.011057583 0.080009386 0.06164091 -0.05965769 0.012845805
0.04101692 0.024523374 0.061188754 0.051311217 0.016358132 -0.0312987 0.06122416 -0.027843524
-0.067194566 0.033531927 0.020552501 -0.047923498 0.01525203 -0.022530679 -0.0109082665 -0.009157144
0.0031209057 0.0338774 -0.007913911 0.04477136 0.033062153 0.039617036 -0.07355249 -0.03354739
0.053863537 -0.0013120633 -0.043866046 -0.010251887 0.032223616 0.025346175 -0.027330615 -0.023094425
-0.05342849 -0.002268606 -0.05928208 -0.030145278 0.022531832 -0.004077114 -0.03438006 0.02730172
-0.024147792 0.025042826 0.028443165 -0.046333067 -0.022339169 -0.006188365 0.013063686 -0.034728467
0.046020195 0.0073604947 -0.024951247 0.025953617 -0.05553286 -0.04052232 -0.012066105 -0.030640777
-0.021504335 -0.034176596 -0.027053162 0.020810295 0.006406212 0.002527662 0.047761504 -0.016225135
-0.023865405 -0.010559066 0.042126562 0.0060675414 0.041701913 0.03102638 0.054694183 -0.019042082
-0.040022437 -0.023493232 0.042673588 0.006901788 -0.02421854 -0.027704276 -0.042737674 -0.03541154
0.010238484 0.018003814 0.02594594 -0.046138283 0.03287522 -0.029464625 -0.008193441 0.0067629544
-0.0056773126 -0.009596792 -0.045729306 -0.024447422 -0.0069220015 0.035248302 0.00029938662 0.03583186
-0.04177831 0.011906087 0.059752874 -0.010528738 0.045447137 0.016604638 -0.0051042545 0.04981085
-0.00023808109 -0.0279156 0.05110305 -0.013242146 -0.012627854 -0.027576463 0.041860953 0.03165546
0.038663823 0.048470717 -0.02665906 0.015147339 -0.023926433 0.051291604 0.026553255 0.06176465
-0.010971616 -0.025719628 -0.04101207 -0.031881817 -0.025312528 0.011916288 -0.038779587 0.007334863
-0.0006838754 0.028887048 -0.0011069534 -0.044038836 -0.027833186 0.03133406 -0.016790327 0.04196441
0.04466867 -0.00079568126 0.016165953 -0.0008694764 0.0012106436 0.0060350336 0.010765185 0.019359227
-0.021396715 -0.035600945 0.06298468 -0.018583033 -0.014241876 0.053875767 0.023252936 -0.007709911
-0.026186287 0.02971077 -0.009440296 0.010233395 0.00392509 -0.015324228 0.02192977 0.040390313
0.012856678 0.017458191 0.029789153 -0.031984936 -0.0038604364 -0.01769368 -0.032156467 0.01765793
0.032612506 0.02016706 -0.001235278 0.057675377 0.0521871 0.03050791 0.092662476 0.002943591
0.034562815 0.006063417 0.035073888 0.022342032 0.0910219 -0.04143998 -0.07795046 0.025530769

conv.0.update_fn.fc.0.bias f4 [64]
00000000: 4d5d fa3c 1502 2b3c 23dd debc 9257 42bd
00000010: 4bc1 03bd dd53 ea3b 9bf6 a2bc f2e9 b6bc
00000020: a99e c7bb 056b c23c d78e 2dbd d007 afbc
00000030: 3db2 2dbd 2a30 12bd e7ee 97bc 2a90 1f3d
00000040: d12e f6bb 972c c3bb bf4e 29ba a267 cebc
00000050: 27be 413d 4573 b1bc e5ec 08bd 7981 a7ba
00000060: 96d1 233b 6ff5 25bd 579e f13c 78d7 6cbc
00000070: 756e e9bc 48e3 77bc f040 d63c af6c 65bb
00000080: 80f2 76bc 1db7 3f3c bc2b 2f3d b0ee c33c
00000090: 8d96 033d cd26 1dbd 46ea 06bc 4f6f 21bc
000000a0: ad51 3f3d 092b 153d 902e a0bc 6ace 4bbd
000000b0: 07be 033d a796 3abc 924b 17bd 8495 0c3d
000000c0: ef72 183d 6555 253c 7a27 65bc a1b2 ab3c
000000d0: 3a01 4ebd fca5 513b 323b 3dbc 6fd0 34bc
000000e0: 4052 753c fd0a a13c 9ca8 e8bc 8220 ad3c
000000f0: d553 8fbc 5db4 2bbd 10a8 34bd eb80 31bc
0.030562067 0.010437508 -0.027205056 -0.047446795 -0.03216676 0.0071511106 -0.019892981 -0.02232835
-0.006091912 0.023732672 -0.04237255 -0.02136603 -0.04240631 -0.035690464 -0.018546535 0.038955845
-0.007512905 -0.0059562433 -0.00064585725 -0.0251959 0.047300484 -0.02166141 -0.033429045 -0.0012779675
0.002499675 -0.040517267 0.029494448 -0.014455669 -0.028495053 -0.015129872 0.026154011 -0.0035007407
-0.015072465 0.011701372 0.042766318 0.023917526 0.032126 -0.03836708 -0.008234566 -0.009853198
0.04670875 0.036417995 -0.019553453 -0.0497574 0.032163646 -0.011388457 -0.036937304 0.034322277
0.037218984 0.01009116 -0.013986463 0.0209592 -0.05029414 0.0031989804 -0.011549758 -0.011036023
0.014973223 0.01965856 -0.028400712 0.021133665 -0.017496029 -0.041920055 -0.04410559 -0.010833959

conv.0.update_fn.fc.1.weight f4 [64, 64]
00000000: 3d2f e5bd 3352 ae3d 0872 063d 7ce8 9cbd
00000010: 32c5 26bd 7c07 08be 2f65 283d b2ff 4b3d
00000020: 99b9 76bb 98d2 dbbd 41fb e33d 75cd 9bbd
00000030: dfde e3bd 3bc5 7cbc e76c ae3d 388d 1ebd
00000040: d236 fbbb d1c1 e73c 008d e63c d457 443c
00000050: 9e66 7dbb 03fa 503d 86ac 2c3d cff1 b63d
00000060: a309 4ebd aaa9 f93c 85ea 023e f98c bd3d
00000070: aff1 5dbb 235e e1bd b162 8bbd 63bd 3f3b
00000080: 7b22 91bd 888d 8f3d b60c 703d ee2a e9bd
00000090: cd45 b43b dd22 ca3c 9a7d b6bd 0fe4 08bd
000000a0: d966 093e 1f4d b73d 85e3 0abe 8469 0d3d
000000b0: fe48 adbd 14b5 093d 8117 523c a4bd 5d3d
000000c0: 303f c93d 071d d33d f065 d83d b5c6 723d
000000d0: c8eb 6cbc 51bd d23d f015 06be dca7 4a3d
000000e0: 8589 e0bd 1aae 983d be5f 643d a378 f03d
000000f0: a15b 1c3d 2eb4 40bd 90ad 7abc 30f0 44bd
00000100: e365 193d 194b c33d a449 0bbd de83 043e
00000110: f462 72bd b92e 5f3d d70a d7bd 0d5c e73c
00000120: 6443 99bd c48d 8b3d 8028 a93c a607 05be
00000130: 576b 2fbd 0c12 a6bd 959d 1bbc 6cf4 22bd
00000140: 3472 aebd 4637 9ebd 3933 aabb 7a4a 9bbd
00000150: 54bd 713c 7eb8 6a3d 2bc1 d63d 8d8b d9bd
00000160: e8e2 14bb 4201 963c 04f0 0e3d 5941 a83d
00000170: c39a 80bb 5446 86bd 8cba 9dbc b4ce f63d
00000180: 40c3 b23d 71b0 b0bd 6bec f7bd 8df6 7a3d
00000190: 9887 7b3c 05e7 ac3d c003 f3bd d700 98bd
000001a0: 284e f0bd be10 f5bd 8a89 993d 9096 e03d
000001b0: bd84 8abd 3918 d4bd b963 bbbc 1398 863c
000001c0: 31ae 73bd 8ab8 b5bd 8d1b 753b ea60 a3bd
000001d0: 1434 e23d 802a 923d 0e35 f5bb ab98 a0bd
000001e0: 844f c13a cd32 0a3d e1d0 dbbd 7eeb e3bc
000001f0: d6b4 f43d 061b 263d 3d97 873d 7a94 333d
00000200: 4920 28bd 4f49 a2bc a87f ba3d 777a 903d
00000210: 06ba 903d 72a1 f33c 8a95 bd3d c9ab c4bd
00000220: ddfe 173d 8781 f4bc 51df 063b fff9 013e
00000230: c23d 86bd a68a c13c 569b 6fba 7165 783d
00000240: 60a7 303c 9f8d c6bd bc16 5d3d ab1c e1bd
00000250: 8d00 08bd 8d29 27bd 5609 51bd 4ee3 853d
00000260: 7d77 89bd 9db6 94bd 3c3f 73bd 20fe ba3c
00000270: d234 d7bd 19c9 5dbd 2930 57bc cc54 97bd
00000280: 4089 e7bd 5a33 c63d 533d 90bd d100 b33d
00000290: 345f a13d 37a5 95bd b22f 1f3d ec4f 803d
000002a0: 6ea1 81bb 233b 9cbd 95a9 f43d 46bb a13d
000002b0: b0ad a4bd cb10 393a 4b71 d23d d63a ebbd
000002c0: 8db9 bc3d 2ce5 2e3d 830e e2bd 911d ac3d
000002d0: 723b 1bbc f09f ac3d f8ab 1abd 90a1 54bd
000002e0: ea37 8bbc 9a61 acbd 66b6 103e c627 04be
000002f0: 8b83 40bd 0b30 adbd 9f9b b5bd 8f81 09bd
00000300: 6b9c 713d 1779 423d 1202 35bd 2a0a ddbd
00000310: 8633 41bd b41c af3d f386 873d edfd b13d
00000320: 83cc 95bd f6f0 66bd 49fa 81bd c90c 83bd
00000330: 6ae8 92bd 8d4e c0bb 6572 d8bd 14a5 adbd
00000340: 50b3 3fbc 50e3 47bd a93e 01bd 65cc b2bd
00000350: 17c7 ca3c ce4a 2a3d ccbc 443c 1bb0 8abd
00000360: d85b 2e3d 542c 5f3b f88f 36bd d9fb a8bd
00000370: 7291 93bd 670e b3bd dc14 a0bd 3b53 6a3c
00000380: d960 ea3d 790d f03c b29d 81bd 5141 c93c
00000390: ed40 10bd 0982 a93d 2ad0 af3b a408 8e3d
000003a0: d45c e1bb 8ba7 3f3d d5ed a53d 43b8 77bd
000003b0: 60c7 b5bd dc93 30bd d4f6 4b3d cbd4 e1bd
000003c0: 0d8d b3bd 4b69 c5bd 28a8 8d3d b0db 8e3d
000003d0: 36e3 02bd 48e7 7ebd 7099 ac3d 9357 8cbd
000003e0: 684d 9f3d a883 17be 6974 0abe 4739 9fbd
000003f0: 7d91 223d b1b6 443d 4108 f33d 6b45 1fbd
-0.111906506 0.08511772 0.032823592 -0.076615304 -0.040715404 -0.13284105 0.04111212 0.049804397
-0.0037647246 -0.10733527 0.11131907 -0.07607547 -0.11126494 -0.015427883 0.08516865 -0.038708895
-0.007666447 0.028290661 0.028143406 0.0119838305 -0.00386659 0.05101968 0.04215672 0.0893284
-0.05030216 0.03047641 0.12784775 0.09255404 -0.0033865978 -0.11004283 -0.06805933 0.002925717
-0.07086655 0.07009417 0.058605872 -0.11385141 0.005501485 0.024674827 -0.08910675 -0.03342062
0.1341814 0.089502566 -0.13563354 0.034524456 -0.08461188 0.033619955 0.012822987 0.054135934
0.09826505 0.10308271 0.10566318 0.059271533 -0.0144605115 0.102900155 -0.13094306 0.04947649
-0.1096373 0.07455082 0.05575537 0.1174176 0.03817332 -0.047046833 -0.01530017 -0.048080623
0.037450682 0.09535808 -0.034005776 0.12940928 -0.0591764 0.054487918 -0.105001144 0.028242135
-0.07483557 0.06814149 0.020649195 -0.12991199 -0.042826977 -0.08108911 -0.00949802 -0.03978388
-0.08517876 -0.07725386 -0.0051940945 -0.07582565 0.014754612 0.05730485 0.104860626 -0.1062232
-0.0022718254 0.018311147 0.034896865 0.08215589 -0.003924699 -0.06556383 -0.019253992 0.12051144
0.08728647 -0.086274035 -0.1210564 0.061270285 0.015352152 0.08442501 -0.1186595 -0.07422035
-0.11733657 -0.11966084 0.074969366 0.109662175 -0.06763599 -0.103561826 -0.0228747 0.016429937
-0.059492294 -0.08873089 0.0037400455 -0.07977469 0.11045089 0.071370125 -0.0074831313 -0.07841619
0.0014748429 0.033739854 -0.107332 -0.027822252 0.11948554 0.040553115 0.06620643 0.04384277
-0.041046415 -0.019810347 0.0910638 0.07054608 0.07066731 0.029740069 0.09257038 -0.09603078
0.03710829 -0.02984692 0.0020579884 0.12693022 -0.06554748 0.023625683 -0.00091402733 0.060643617
0.010782093 -0.09694981 0.05397676 -0.10991796 -0.03320365 -0.04081111 -0.051034294 0.065374956
-0.06712244 -0.07261393 -0.059386477 0.022826254 -0.105081216 -0.05414686 -0.013134041 -0.073892206
-0.11305475 0.09677763 -0.07042947 0.0874039 0.07879487 -0.07306903 0.038863845 0.06265244
-0.0039560115 -0.07628467 0.11946408 0.07897048 -0.08040941 0.0007059692 0.10275515 -0.114858314
0.092150785 0.042699024 -0.11037924 0.08404077 -0.009474622 0.08428943 -0.03776166 -0.05191189
-0.016994435 -0.084170535 0.1413208 -0.12905797 -0.04700045 -0.08456429 -0.08867573 -0.033570822
0.058987062 0.04747876 -0.044191428 -0.10792954 -0.047168277 0.085503966 0.066175364 0.086910106
-0.07314398 -0.056382142 -0.06346566 -0.06398923 -0.07173236 -0.005868739 -0.10568694 -0.08478752
-0.011700466 -0.048800766 -0.031553898 -0.087303914 0.024753137 0.041575246 0.012007903 -0.06771871
0.042568058 0.0034053521 -0.044570893 -0.08251161 -0.07205476 -0.087429814 -0.078164786 0.01430207
0.114442535 0.0293033 -0.06328906 0.024567278 -0.035218168 0.08276755 0.0053653913 0.06935242
-0.006877521 0.04679064 0.081020035 -0.06047846 -0.088759184 -0.04310976 0.04979594 -0.11026915
-0.08767138 -0.09639224 0.06916839 0.06975496 -0.031954966 -0.062232286 0.084277034 -0.06852641
0.07778436 -0.14796317 -0.1352097 -0.07774597 0.03968953 0.04802579 0.11866809 -0.03888456

conv.0.update_fn.fc.1.bias f4 [64]
00000000: d8bc b03d 966d e3bd 89fb 15bd a287 013d
00000010: 9320 be3d 869d f93d e1aa ad3d 3b9b 7d3c
00000020: a92e 03be 293c f93d 0884 cb3d 9ab1 92bd
00000030: 12fd 38bc 61ac bdbb 93ee 7fbd ebb1 023d
00000040: 0b69 24bc 5116 5dbd fe3b a1bd 7ea3 32bc
00000050: 2c84 aebd f41f 283c 6f09 9ebd 49cd 9abd
00000060: afc7 9e3c 33ea ac3d 479b 483d 8de2 b6bd
00000070: fccd b5bc 7fcd ca3d b9fd cabd d7f9 de3d
00000080: 9131 e9bd c682 be3d d731 83bc 1829 f13d
00000090: 570a 323d 84a2 b23c e77f afbb 45c7 d0bd
000000a0: eeb9 c23d 2dfa aa3c c681 b3bd dd65 f03b
000000b0: 6624 403d b744 9cbc aefe f13d 6528 9fbd
000000c0: 7fa7 903d 56cb 6bbd 4d3c cfbd bff4 7e3c
000000d0: b261 07bd ea53 d2bc f3ea 2c3b d8ab 50bd
000000e0: ea02 87bc 2df8 b4bd 6039 d53c 7227 1ebc
000000f0: 73d5 dfbd 86a6 cbbd 6d7a abbd 90f6 e7bc
0.08629769 -0.11104886 -0.036616836 0.03162349 0.09283557 0.12188248 0.08479858 0.015478904
-0.12810768 0.12169678 0.09937292 -0.07162781 -0.011290805 -0.0057883714 -0.06248338 0.031907957
-0.01003481 -0.05397636 -0.07872771 -0.010903237 -0.085213035 0.0102615245 -0.07716643 -0.07558686
0.019382326 0.084431075 0.04897621 -0.0892993 -0.022192948 0.099024765 -0.09911675 0.10887497
-0.11386407 0.09302287 -0.016014976 0.11775416 0.043466892 0.02180601 -0.0053558233 -0.10194258
0.095081195 0.020871246 -0.08764987 0.007336362 0.046909712 -0.019075735 0.118161544 -0.077713765
0.07063197 -0.057566963 -0.10118923 0.015561282 -0.033052154 -0.025674779 0.0026385158 -0.050945133
-0.016480882 -0.08836398 0.026028335 -0.009652959 -0.10929384 -0.09943871 -0.0837296 -0.028315812

conv.0.update_fn.bn.0.weight f4 [64]
00000000: 3331 7b3f 29a4 7c3f 4cc4 803f 8fe8 833f
00000010: 65d0 813f a828 7d3f ca88 7b3f 955a 803f
00000020: cf8b 843f 6d1b 843f 7ff6 7f3f d9be 803f
00000030: 062a 7e3f 4da9 823f c3d6 7a3f 8d7a 7c3f
00000040: 527f 7a3f 941c 7a3f 58c3 813f baaf 803f
00000050: a41d 833f 25ce 783f 2f5f 813f 0bae 803f
00000060: 841a 803f c4dc 7a3f 3fdb 7e3f 8435 7e3f
00000070: d5db 7c3f f09a 7d3f c751 823f 740f 7f3f
00000080: 5aed 823f 4c25 763f 7e38 7e3f b520 803f
00000090: 83aa 773f 11cf 823f 8c38 783f 235a 7e3f
000000a0: b387 813f d47d 803f 9870 813f 5069 823f
000000b0: de79 7c3f 289f 7f3f a056 7f3f bd86 813f
000000c0: 2cf7 753f fd0f 803f 9080 803f bcaf 843f
000000d0: 053f 873f aa59 803f 5ed4 793f 0cb5 7d3f
000000e0: fbe6 7e3f e920 853f 07bf 803f 7228 7b3f
000000f0: fbd8 7d3f 35f9 7b3f 3dcb 7e3f a788 7a3f
0.9812195 0.9868799 1.0059905 1.0305346 1.0141722 0.9889016 0.982556 1.0027643
1.0355166 1.032087 0.999855 1.0058242 0.9928287 1.0207916 0.9798395 0.986245
0.97850525 0.97699857 1.0137739 1.0053627 1.0243421 0.9718955 1.0107173 1.0053114
1.0008092 0.9799311 0.99553293 0.9930041 0.9877294 0.9906454 1.0181206 0.99632955
1.0228684 0.9615066 0.9930495 1.0009981 0.96744555 1.0219442 0.96961284 0.9935629
1.0119537 1.00384 1.0112486 1.0188389 0.98623455 0.9985223 0.99741554 1.0119244
0.9608028 1.0004879 1.0039234 1.036613 1.0566107 1.0027363 0.9758967 0.9910438
0.995712 1.0400668 1.0058297 0.9810859 0.9915921 0.98427135 0.99528867 0.97864765

conv.0.update_fn.bn.0.bias f4 [64]
00000000: 0026 debb fa83 40bc cc96 eb3a 06df 413d
00000010: 0d9c 6a3c 9256 8dbc 2632 3dbc b38a 383b
00000020: 2118 443d e705 073d 6081 e5ba 99f1 413c
00000030: f9a8 cb3a 3cb4 463d a7b5 10bd bd8e eebc
00000040: f303 d3bc 97b5 c9bc 2877 7b3b e09e 013d
00000050: 2478 0fbb 2dcd 88bc 657e 543c d460 b0bb
00000060: 9b70 babc 547d 413b fefe a5bc 8d8c 93bc
00000070: 88f6 cf3b ef10 60bb 2344 cd3c c0fe 46bc
00000080: 7d20 e33a 8a17 48bb 3c64 46bb d94f 22bd
00000090: dd71 d7bc a845 903c 1469 3abc 01f4 cebb
000000a0: 9580 993b 6956 1a3c 5bb2 4ebc a84f 893c
000000b0: 4822 14bd 4517 213d 994c 563c 0980 cdbc
000000c0: 70f9 0abd 6c80 37bc c366 1bbc 1f11 45ba
000000d0: f81a 203c c8a0 a0bc 0d8d 88bc fdd3 2d3c
000000e0: 17e0 29bd f30b 4e3c 0cd2 27bc 17af c2bb
000000f0: b12b 36bc 79fe 9b3c ce7c b83c b60a d8bc
-0.0067794323 -0.011750216 0.0017974018 0.047331832 0.014319432 -0.017253194 -0.011547601 0.0028158843
0.047874574 0.032964613 -0.001750987 0.0118373865 0.0015538029 0.04851173 -0.035329487 -0.029120797
-0.02575872 -0.024622722 0.0038370583 0.031645656 -0.0021891678 -0.016699398 0.012969588 -0.0053826366
-0.022758773 0.0029524164 -0.020263191 -0.018011356 0.0063465275 -0.003418978 0.025056904 -0.012145698
0.0017328408 -0.0030531608 -0.0030272147 -0.03962693 -0.026299411 0.01761134 -0.011377592 -0.0063157086
0.0046845176 0.009420016 -0.012615765 0.016761616 -0.036165506 0.039328832 0.013079786 -0.025085466
-0.03392929 -0.011200052 -0.0094849495 -0.0007517505 0.009772055 -0.019607916 -0.01666882 0.010609624
-0.041473474 0.012576091 -0.01024295 -0.0059412825 -0.011118815 0.01904224 0.022520449 -0.026372295

conv.0.update_fn.bn.0.running_mean f4 [64]
00000000: ac69 8d3c 22e4 26bf 5aa1 4d3e 0152 02be
00000010: 83be d73e 8010 b8bd d675 46bf f843 0b3f
00000020: 7a45 983e 33db 7fbe 7553 85be 0fe8 40bf
00000030: e77f adbe 8899 07be bc41 6fbe d47e 7ebe
00000040: aba6 0a3e 6c25 75be 102a 81be 9858 1dbf
00000050: 1732 103c 6ef5 453f 5547 c1be dcb1 c13e
00000060: 1c44 d63e d100 a1be 4854 473e 87b6 22be
00000070: 48c9 7dbe 15c1 eebd 0e29 e03e 71d0 45be
00000080: 8861 48be 1209 f4bd e5f9 08be 166c d43d
00000090: 2654 bfbe 7b90 023e d349 623f 8943 6bbd
000000a0: 5124 013d 514f 38be dd82 733e 21df 053d
000000b0: f2f7 2fbe edb3 3abe 25d9 083f def2 313f
000000c0: 1923 28bf 9f12 d83d 724d 84be d510 e73e
000000d0: 53f9 5e3e a767 dc3d 1624 46bf 434b 9dbe
000000e0: e7f5 ee3e c958 6abe cef7 3ebe bca4 f9ba
000000f0: c5cb 14bf 081e dc3d b30a 82bd d354 2cbe
0.017262302 -0.65191853 0.20081082 -0.12726595 0.42137536 -0.08987522 -0.77523553 0.5440059
0.29740506 -0.24985962 -0.26040235 -0.75354093 -0.33886644 -0.13242161 -0.2336492 -0.24853069
0.13540141 -0.23940057 -0.25227404 -0.6146331 0.008801005 0.7732762 -0.37749735 0.37831008
0.41848838 -0.31445935 0.19465744 -0.15889941 -0.24783814 -0.11657921 0.43781322 -0.19317795
-0.19568455 -0.119157925 -0.13376577 0.10372178 -0.37368888 0.12750427 0.88393897 -0.057437453
0.031528775 -0.17999007 0.23780389 0.032683495 -0.17184427 -0.18232699 0.53456336 0.6951121
-0.65678555 0.10550427 -0.25840336 0.4513003 0.21774797 0.107619576 -0.7739881 -0.30721483
0.46671984 -0.22885431 -0.18649217 -0.0019046287 -0.5812343 0.107479155 -0.06349697 -0.16829233

conv.0.update_fn.bn.0.running_var f4 [64]
00000000: 5b31 b13e fc21 653f 6c0f d83e 56ae 3e3f
00000010: 427f 3a3f 891d c63e d7b9 c03e 6b49 0f3f
00000020: f663 0e3f b752 0c3f c11f 8b3f ae5d a63e
00000030: d3f3 173f f487 493f 9bd5 4a3f 4320 5b3e
00000040: 6ee9 ca3e 57f3 033f 2357 503e 70a5 323f
00000050: ed8c 9d3e 6dad bc3e 09a4 003f ec65 143f
00000060: a346 a73e e73a 163f 14ff 243f 47a8 bf3e
00000070: 767a 2c3f 8356 273f 68cb 953e 1544 e23e
00000080: 753c f43e 2342 663f 2920 163f e65b 8b3e
00000090: c19d 363f 7c80 f43e e204 343f 5d17 e73e
000000a0: 81ee 343e 8c08 f93e c1b3 9c3e 318d 183e
000000b0: 0040 803e 14fa 153f 5bb7 773f 80f7 953e
000000c0: bb2c 833f 28d1 8d3e 029a 1b3f f34f 8a3e
000000d0: cf2a 403e a3e2 893e 9f2f 213f 3fdb 503f
000000e0: 60ba 853e 2c05 923e 2675 c23e dcf7 363f
000000f0: d0b7 103f 2461 2e3f d1ab 973e 3f79 283f
0.34607968 0.8950498 0.42199266 0.74484766 0.7285043 0.3869441 0.37641785 0.559714
0.5562128 0.5481371 1.0869066 0.32493347 0.5935642 0.78723073 0.79232186 0.21399026
0.39631218 0.5154318 0.2034574 0.6978369 0.3077158 0.36851063 0.502503 0.5796802
0.3267108 0.5868363 0.6445172 0.37433073 0.6737436 0.6536638 0.2925675 0.44192567
0.47702375 0.89944667 0.5864282 0.2721855 0.71334463 0.47754276 0.7031995 0.45135012
0.17669107 0.48639333 0.3060589 0.1489761 0.25048828 0.58584714 0.96764153 0.2929039
1.0248026 0.27698636 0.6078187 0.2701412 0.1876633 0.26930723 0.6296329 0.81584543
0.26118755 0.2851957 0.37980002 0.71471953 0.56530476 0.68116975 0.29623273 0.65810007

conv.1.update_fn.fc.0.weight f4 [64, 64]
00000000: 9a59 17bd ee7b 2f3d d5b0 91bd 0379 013e
00000010: 9de4 19bd 8014 50bd 0b95 a23d aa10 8ebd
00000020: 60d2 0b3e d220 f93d ac01 983d 9fc0 553d
00000030: ac48 2ebc 622e 22bd d20a 313d 2b06 3fbd
00000040: e6e4 47bd d661 003e 7dfd 863d bea5 c83d
00000050: 6a5c 3dbd 5ca2 aa3d e17f 283d ad92 bcbd
00000060: e6bf c7bd 5f17 2fbd 821d c9bd 3eca c13c
00000070: 1858 13be 2ab0 893d d091 0e3d 920d 35bd
00000080: 1885 5d3d 6b5e adbd 98d7 fabc 02d4 263d
00000090: 576b 0c3c 836b a0ba 0917 043e abc1 2cbd
000000a0: 4c0a 753b ae97 67bd eae8 a93d ff38 b7bd
000000b0: 21cb 2c3d 8682 fdba b47e 8c3d be1e e93d
000000c0: 4f28 8ebd fcfa e5bd fc13 6ebd ed24 54bc
000000d0: d2ec cc3d 7fe2 da3c f4b9 163d 8303 20bc
000000e0: 556b a4bc 57ea 433d 6747 ca3d 0698 78bd
000000f0: 153a 83bc 00d2 c2bd 14ac e13d db5f eabc
00000100: bcdf dc3d 1ccc 98bd b2b3 d73d 047f b0bd
00000110: cfff e5bd 107e c83d df1c d3bb 5a02 01bd
00000120: 3bea 40bd abac c0bd c644 bbb9 ee51 e43d
00000130: be06 19bd 19f7 803c 2052 b13d f090 c5bc
00000140: ff2d cf3d e580 9bbd 4653 e4bc b076 343d
00000150: fca7 33bd a7b7 8abd 600f 623d a958 e0bd
00000160: b83f a0bd 219c 053e e6be f63d e147 88bd
00000170: 68af 6dbd a93d 77bc dda9 0c3d bf9a d03d
00000180: 51da b8bd 447f 7fbd 5111 cb3c 175a 3cbd
00000190: bc33 f5bd ee0f 053e cc5d 013e 4d82 e43d
000001a0: 7fd2 723d acbd 253d 9092 98bd 4a81 213d
000001b0: 4ea7 ac3d b7a0 7d3d f854 04be 2e05 853d
000001c0: 36a3 053e 17c6 d93d 99be 903c 16aa 91bc
000001d0: 6c9e d33d 2684 833d d75c 06bc fe87 203d
000001e0: 7b63 8ebd 6f16 6ebd 5fc6 4c3d fea4 63bd
000001f0: df1f fdbc e650 ca3d 7cef 813c 41a8 f03d
00000200: 35e8 123d a6a5 06be 3a11 36bc 77da 153c
00000210: 12f1 17bd e9f0 f1bc cf69 86bd 7b09 703d
00000220: 3b81 c0bd ac29 e9bc a1e9 b8bd a2b4 ffbd
00000230: f5c5 053e 72a5 c4bd cf51 3c3d ffd1 1e3e
00000240: 1540 2d3d eb16 8b3d d697 83bd fca1 923d
00000250: 780e 283d b155 1bbe 4de1 4e3d 884d 58bd
00000260: faa1 e93c 6ac1 9f3d 63d6 ad3d b953 2cbd
00000270: ae4b 293d dd57 4f3d 12e8 553d 0265 d2bc
00000280: c594 353d 1fec cabd 1756 bbbd 9106 c23c
00000290: 0612 223c f356 c93d ce33 eebd 384a 92bd
000002a0: 5533 5c3d d692 883d 8fd9 d5bd d719 fabd
000002b0: 5336 fe3c 3b36 9bbc 12cd 9bbc e96c c5bd
000002c0: c551 9abc 0428 f4bd 563c 7cbd fef6 fdbb
000002d0: 22bd 6dbd b110 1f3d 68e2 633d 3447 9c3c
000002e0: 9b97 d33d 9a70 e3bd 2672 f93d 01eb 93bd
000002f0: e777 b7bc d947 033d 9155 403d 591b 813d
00000300: 30e7 ed3c 51fe cb3b 94cf e6bd 28e1 bfbd
00000310: 3bc1 13bc 36b4 363d 0ab2 643a 3b51 783c
00000320: bf94 ae3d 0af8 71bd a32c c63d d8e3 efbd
00000330: ee96 cf3d 3e88 9abd da91 41bb e9e1 693d
00000340: 7714 703d f761 26bd 1912 01be 43a2 223e
00000350: b5ca 3abd f089 92bd 041d 353e f0d4 c3bd
00000360: e749 943d 3a14 84bd 0ecc 0dbe e45b 1abd
00000370: 4122 a0bc a90c c23d 08ef f73c 892a 9f3d
00000380: f40e bbbd 6d47 fa3b b0e8 cd3d 4cac 843d
00000390: 23eb 73bc 7372 0cbd e447 00be 40c0 993d
000003a0: c72f bc3d 1629 62bd e5b9 ecbc 96ae e23c
000003b0: a82c a73d 26a6 01be 9d7d 2c3d 60ab 03be
000003c0: 9194 b9bd a0eb 9abd 8a87 b83d 9307 0f3e
000003d0: 1e3e b83d a059 1e3d 7113 d9bd a33e 813d
000003e0: fea3 bb3d 57d3 62bd ddf0 01bd 7b10 77bd
000003f0: e549 6e3a 5b9a e43d bb31 03be b9a2 3bbd
-0.036950685 0.042842798 -0.07113806 0.12643819 -0.03757154 -0.0508008 0.07938584 -0.06936772
0.1365447 0.12164463 0.07422194 0.05218565 -0.0106374435 -0.039595015 0.04322321 -0.04663674
-0.04880228 0.12537321 0.06591318 0.09797238 -0.04623071 0.08331749 0.04113758 -0.09207664
-0.097533986 -0.042746898 -0.09820081 0.023656007 -0.14389074 0.06723054 0.034807026 -0.044202395
0.054082006 -0.084652744 -0.030620381 0.04072953 0.008570514 -0.0012239072 0.12899412 -0.042176884
0.003739017 -0.056541137 0.08296378 -0.08946418 0.042185906 -0.0019341267 0.06860104 0.11382817
-0.06941282 -0.11229512 -0.058124527 -0.012948257 0.100061074 0.02671933 0.036798432 -0.009766462
-0.020070711 0.047830906 0.098769 -0.060691856 -0.016018907 -0.095127106 0.110191494 -0.02861016
0.107848614 -0.07460806 0.10532321 -0.08617976 -0.11230432 0.097896695 -0.0064426507 -0.031496383
-0.04709838 -0.09407934 -0.0003571866 0.11148439 -0.037359945 0.015742825 0.08658242 -0.024116963
0.10116195 -0.07592944 -0.02787174 0.0440585 -0.043861374 -0.0677331 0.055190444 -0.109544106
-0.078246534 0.1304784 0.1204813 -0.06654335 -0.05802861 -0.0150903845 0.03434168 0.101857655
-0.090260155 -0.06237723 0.02478853 -0.045984354 -0.11972758 0.12994358 0.12633437 0.111576654
0.059282776 0.04046409 -0.074498296 0.03942994 0.08430348 0.061920848 -0.12923038 0.064951286
0.13050541 0.10633486 0.017669009 -0.017781299 0.10332951 0.0642169 -0.008200846 0.039192192
-0.06952568 -0.058126863 0.04999387 -0.05557727 -0.030898986 0.098787114 0.015861265 0.11750842
0.03586598 -0.13149127 -0.011112506 0.009146324 -0.037095137 -0.02953382 -0.0656315 0.05860279
-0.09399649 -0.028462254 -0.09028936 -0.12485625 0.13063796 -0.09601869 0.045976456 0.15509795
0.04229744 0.06791481 -0.06425445 0.07159802 0.041029423 -0.15169407 0.050507832 -0.052808315
0.02851962 0.07800563 0.08488157 -0.04207203 0.04133194 0.050620902 0.052223273 -0.02568293
0.04433133 -0.09908318 -0.0914728 0.023684772 0.009891992 0.09831037 -0.11630975 -0.07143062
0.05375989 0.06668632 -0.10441887 -0.1221196 0.031031763 -0.018946758 -0.019018684 -0.096399136
-0.018837819 -0.11921695 -0.06158098 -0.007750391 -0.0580417 0.038834278 0.05563584 0.019076921
0.10331651 -0.111054614 0.12179975 -0.07222558 -0.022396041 0.03205094 0.046956602 0.06304044
0.029040903 0.0062253852 -0.11270061 -0.09369117 -0.009018238 0.044605456 0.00087240397 0.015156086
0.08524465 -0.05907444 0.096764825 -0.117133796 0.101362094 -0.075455174 -0.0029536397 0.05710021
0.058613267 -0.04062077 -0.1260456 0.1588221 -0.045603473 -0.07155216 0.1768685 -0.09562099
0.07240658 -0.064491704 -0.13847372 -0.03768529 -0.019547584 0.09475071 0.030265346 0.07771785
-0.091337115 0.007637909 0.10054147 0.064781755 -0.014887604 -0.034288835 -0.12527424 0.07507372
0.091888 -0.055214964 -0.028897235 0.02767114 0.081628144 -0.12661037 0.04211198 -0.12858343
-0.0906154 -0.07564473 0.09010227 0.13967733 0.08996223 0.03865969 -0.10599411 0.06310775
0.091621384 -0.05537733 -0.031723846 -0.06031845 0.00090899906 0.111622535 -0.1281194 -0.04580948

conv.1.update_fn.fc.0.bias f4 [64]
00000000: 4ee7 9abd dde0 8c3c 36d3 dd3d 5925 80bd
00000010: 59b5 963d 8aa4 1bbd 1d12 8abd a817 75bd
00000020: 7f8b c9bd 1478 8f3d d8fa c03c 04c5 24bd
00000030: 05e2 8bbd 84ea 72bd 4bc0 b7bd 11ec a0bd
00000040: c0a9 d83d 8042 253d 9f83 94bd 9b7b 4bbd
00000050: f51b 76bd 2266 a53b dcc2 5abd 439f a13c
00000060: bb17 87bd 246a 963d 4ea9 87bd 6940 68bd
00000070: 9a34 843d f92b 05bd 7614 403d ada7 babd
00000080: d491 a13d edc1 12bd 8fb1 133d 5f49 883d
00000090: 418c 8fbc 91bd b13d 4ffd 42ba 1620 6f3c
000000a0: 44aa 66bd 5763 83bd 35ef b13d 3f53 f9bd
000000b0: f0da 7c3c f341 303c ebb8 d5bd 9dfd 1c3d
000000c0: e819 b03d 3635 f43d 2eb1 eb3d 5379 7a3d
000000d0: 7011 eb3d 0866 e5bd 8935 a5bc cb05 a03d
000000e0: d542 633d 4e80 58bd 2452 e13d 34be 4fbb
000000f0: 96e7 a8bc bfc6 f13d e8fe c93d 7610 dabd
-0.07563649 0.017197067 0.10831301 -0.062571235 0.07358808 -0.037998714 -0.06741736 -0.059837013
-0.0984106 0.07005325 0.023557112 -0.04022695 -0.06830219 -0.059305683 -0.08972224 -0.07857526
0.10579252 0.040346622 -0.07251667 -0.049678426 -0.060085256 0.0050475756 -0.05340849 0.019729262
-0.06596323 0.073444635 -0.06624089 -0.05670205 0.064553455 -0.03251264 0.046894513 -0.09114013
0.07889143 -0.035829473 0.036058005 0.066546194 -0.017522933 0.08678735 -0.00074382586 0.014595052
-0.05631472 -0.06415432 0.08688203 -0.12174081 0.015433058 0.010757911 -0.10435661 0.038327802
0.08598691 0.11924212 0.11508404 0.06115086 0.11477935 -0.112011015 -0.02016713 0.07813605
0.055483658 -0.052856736 0.11001995 -0.0031699063 -0.020618241 0.11805486 0.09863073 -0.10647671

conv.1.update_fn.fc.1.weight f4 [64, 64]
00000000: 7cd9 fbbb a561 c8bc 5e92 593d 2bdc fcbd
00000010: 9580 ad3d bd8a e33d ac50 01be 8e73 04bd
00000020: 680e 683d 69ff 69bd 7351 a0bc a22d 203d
00000030: 4732 0b3d 0f70 4dbd e38c abbd 7e78 95bd
00000040: 0b46 293e 7fb5 c33d 4642 a23d 075e 4dbb
00000050: 8e7d 873d 1d25 953c 585a b13d 19af ca3d
00000060: d7a6 a13c 0c0f f5bc 221e 1abd db7d b13d
00000070: f0e8 d43d 7e3e 42bd 76f1 9a3d db32 c3bd
00000080: 8a55 1fbd 8fd8 c43d 24d5 c0bc b41f e73d
00000090: 231f 7d3d a333 b3bd 64a0 083d 7a93 e43d
000000a0: 0bdc 01bc 276e d43c b2aa c53d 4492 a73d
000000b0: a877 ba3d 0a44 2b3d 3f0a 033d a0c5 cdbd
000000c0: 19bd b7bd 5bed d6bd acae ba3d df91 cebd
000000d0: 9f52 483d afdc 27b9 850f 883d b012 adbc
000000e0: 23f2 6a3d 0fab 083e 443b 8cbd d1db 003e
000000f0: 8c92 5a3d 7b7b e0bd 2f4a 98bd 88c8 fc3d
00000100: 7817 eebc cd92 d5bd d391 8f3d 44d1 41bb
00000110: b601 06be 4683 7abd b25d d8bd 5c48 863d
00000120: 86fd 9b3c 131b 213d b512 ce3d d0e8 943d
00000130: 9f80 e03c 04c5 2cbd 73cb 1b3d ad0c c2bd
00000140: 8daa 9dbd 8245 1f3d 8bd4 dc3c 2164 9abd
00000150: 3901 babd 4f0f 623d 705e 9b3d 094a acbc
00000160: a436 b03d e227 a3bd b10c 6d3d 67de fabd
00000170: 8108 55bd 7371 01be a27c f13d e705 013e
00000180: adac 8c3b 31a2 50bd b8be a3bd b617 00bb
00000190: 3e12 46bd 1991 f1bb bf7f d13d 3c0a babd
000001a0: 97c7 a3bc 7c0c ba3d b111 3a3d ec4a cfbd
000001b0: 2ae4 a33d 86ff 17be 760c 5c3b 63ea 85bd
000001c0: efd3 b33d 0fb7 fc3d 0635 d0bd 8fd3 b1bd
000001d0: 7348 ebbd b491 dc3d e0c0 b43d 03f6 873d
000001e0: 5845 e7bd 1175 b5bd 0ba1 36bd 032c 4e3d
000001f0: ede4 8dbd d1dc b23c 4896 9cbd 7094 473d
00000200: 0410 613d 2743 d5bc c57e 1e3d e839 8ebd
00000210: 3b93 ee3d 0f1d 9f3c 8b0c 99bd 1ec9 84bd
00000220: b06b 9c3d 6b8e 36bd 9562 35bc ceb0 d0ba
00000230: 6a3f f7bb 5f82 b63d fcc1 ce3d 4003 1dbd
00000240: 2741 c83d ca77 bd3d f930 b03d 65ff 8bbc
00000250: e18e bc3d c31b 38bd d635 c33c 42ae ae3d
00000260: 6e8c 4bbc 792f acbd e539 c339 ca62 093e
00000270: f289 97bd 5141 823d 11b4 653d 599d 7ebd
00000280: 15b6 8c3d 3d5b 9b3d 47dd b1bd 47b5 efbd
00000290: 6a69 2b3d 1bea 293d 02c0 b43d 1a2b 69bd
000002a0: 8380 083d 3735 a73c 9e9a 8abc 6f15 8abd
000002b0: c764 49bd c3f6 b2bc 9241 e33d 487b 03be
000002c0: b9cf a33d 20f4 f93d 658e 8cbc 8bd6 dfbd
000002d0: d5fb c83d ae5d 163d 394b 0cbd 9856 0bbe
000002e0: 5681 053d 3c25 ce3b 86a6 adbd da7c 94bd
000002f0: 3a8f c13d 1cc3 063c ca02 c6bc bd84 a3bd
00000300: 5324 c3bd d1dc 37bd 8af9 d63b 7c8f 8d3d
00000310: f199 e13d 0948 263b 28c2 dcbc 8589 46ba
00000320: 3533 5ebc 2e8f 373c 89aa 9c3d 0c4c 113d
00000330: 958a da3d 56cb 00bd 9f8c 02be 192c a9bd
00000340: 83da 8bbd 220b 8e3d c893 883d 824a e1bd
00000350: 384e f2bc 8565 1f3b 2490 1f3e 35a5 03bc
00000360: 785b e73c cb5b ce3d 3447 5b3d 9d8d 12bd
00000370: f0f5 f43d 3adb febd 32c6 41bd 01c1 a1bc
00000380: f09f c0bd fb7c 99bc f422 3c3d 98ff 46bd
00000390: 5843 dd3d 86b8 fe3c 7f5c 6f3d 5ec6 b03d
000003a0: aec4 873a e470 08bb b0b6 bbbc 72b1 803d
000003b0: 2c08 013e fc5b 3f3d 97f4 dcbc c325 aabd
000003c0: cb1c 24bd 8644 dc3d dddb 82bd ead4 ac3d
000003d0: 7109 0e3d 581e 1f3d 76e4 5d3c 5495 79bd
000003e0: 133a d1bd 17aa 553d 5cd6 d0bd 90e1 bfbd
000003f0: eacc f9bd bcd4 2abd 15c0 d53d f63c cb3d
-0.0076858383 -0.024460623 0.053118102 -0.12346681 0.08471791 0.111104466 -0.1262843 -0.032336764
0.056654364 -0.057128344 -0.019570088 0.03910602 0.033983495 -0.050155696 -0.083764814 -0.07298373
0.16530626 0.09556102 0.07922797 -0.0031336562 0.066157445 0.018206174 0.0865981 0.098966785
0.019732876 -0.029914401 -0.037626393 0.08666583 0.10395992 -0.04742288 0.07565586 -0.09531184
-0.038899936 0.09611618 -0.023539133 0.11285344 0.061797272 -0.08750083 0.033356085 0.111609414
-0.0079259975 0.025931431 0.09651698 0.08182195 0.09104854 0.041812934 0.031992193 -0.100474596
-0.089716144 -0.10494491 0.09115347 -0.100864165 0.04890692 -0.00016008572 0.06643585 -0.021127075
0.057359826 0.13346504 -0.068472415 0.12583853 0.053362414 -0.10961052 -0.074360244 0.12342936
-0.029063925 -0.10428391 0.07010236 -0.0029574195 -0.1308659 -0.06116035 -0.10564746 0.0655677
0.019041788 0.03933246 0.10062162 0.07270968 0.027405081 -0.042180076 0.03803582 -0.09475074
-0.076985456 0.038884647 0.026956817 -0.07538629 -0.090822645 0.05519038 0.07586372 -0.021031396
0.08604172 -0.079665914 0.05787343 -0.12249451 -0.052010063 -0.12640934 0.1179135 0.12599908
0.0042930455 -0.050935928 -0.07995361 -0.0019545383 -0.04835724 -0.0073720333 0.10229444 -0.09083983
-0.019992633 0.090844125 0.045427028 -0.10121712 0.08002503 -0.14843568 0.0033576763 -0.06538846
0.087806575 0.12339603 -0.101663634 -0.0868293 -0.11488428 0.10769978 0.088258505 0.0663872
-0.11292523 -0.08860219 -0.044587176 0.05033494 -0.0692843 0.02183381 -0.076458514 0.048725545
0.054946914 -0.026032997 0.038695116 -0.069446385 0.11649176 0.019423036 -0.074730955 -0.064836726
0.07637727 -0.044569414 -0.011070867 -0.0015921833 -0.0075454013 0.08911585 0.10095593 -0.038333178
0.09778052 0.092513636 0.08603091 -0.017089555 0.092069395 -0.04494835 0.023829382 0.08529331
-0.012423618 -0.08407492 0.00037236433 0.13416591 -0.07399358 0.06360114 0.056079928 -0.062161777
0.06870667 0.07585762 -0.086847834 -0.11704498 0.041848578 0.041483026 0.08825685 -0.05692587
0.033325683 0.020411117 -0.01691943 -0.067423694 -0.049168374 -0.02184618 0.11096491 -0.12839997
0.07998604 0.12204766 -0.017157743 -0.10929593 0.09813658 0.036710434 -0.034251425 -0.13607252
0.032594047 0.00629106 -0.084790275 -0.07250376 0.094511464 0.008225229 -0.024171252 -0.07984302
-0.09528413 -0.04488832 0.006560509 0.06912133 0.1101569 0.0025372526 -0.02694805 -0.00075735926
-0.013562013 0.01120357 0.076497145 0.035472915 0.10670964 -0.031443916 -0.12748955 -0.08260364
-0.06828787 0.06935717 0.06668812 -0.11000539 -0.029578313 0.0024321985 0.15582329 -0.008034994
0.028241858 0.10076102 0.0535347 -0.035779584 0.11960971 -0.12444158 -0.047308154 -0.019745352
-0.09405506 -0.018736353 0.04593177 -0.048583597 0.108038604 0.031093847 0.05843782 0.086315855
0.0010358298 -0.0020819241 -0.02291426 0.06283845 0.12600774 0.046718583 -0.026972098 -0.08307984
-0.04006652 0.10755257 -0.06389592 0.08439048 0.034676973 0.038847297 0.013543239 -0.060933426
-0.10216155 0.052164163 -0.10197136 -0.093691945 -0.121972874 -0.041706786 0.10437027 0.09923737

conv.1.update_fn.fc.1.bias f4 [64]
00000000: d7d1 e6bd 26d2 c5bc 4afb a23d 954b 6fbd
00000010: 19b4 01be c416 f33c b0d4 e83d 3861 f23d
00000020: da59 9a3d 7212 d9bd a49e 97bd 117e f5bd
00000030: 5ea4 60bb 986e 883d b553 223d 6285 f73d
00000040: 6df1 933d 8469 bf3d baf1 1bbc 8e4e b93d
00000050: 7ca6 dbbd bf02 f3bd a3d9 cebd 1b1d a53d
00000060: 2b13 fe3c 6a38 68bc b806 203d f741 bdbc
00000070: 7e00 e23b 8cdf e8bc 0f60 d9bd e8a5 883d
00000080: 1473 f53c 0047 c83d 2a77 22bd 94f3 493d
00000090: 6c9a d63c c3ed 80bd e04c a5bd 1329 a73d
000000a0: 77d9 cbbd 8943 613c 6725 f3bd 6146 a2bd
000000b0: 1572 a9bd fc43 8e3d 485a 0d3d 821f 93bd
000000c0: 24bf 8bbd 59dc d2bd b5d6 86bd 321e 5bbd
000000d0: 06b9 b2bc d066 e2bd 2139 6439 890b ac3c
000000e0: 91aa fcbd 66d9 61bc a28c c5bd f81c f53d
000000f0: 73f1 af3c 88c2 9fbd 3951 95bd 9c94 c5bd
-0.112704925 -0.024148058 0.07958086 -0.05842169 -0.12666358 0.029673941 0.11368692 0.11834949
0.07536669 -0.10599221 -0.07403305 -0.11986936 -0.0034277658 0.06661719 0.03963061 0.12085988
0.07223783 0.093462974 -0.009518081 0.09048186 -0.10725114 -0.11865758 -0.10100105 0.08062192
0.031015 -0.014173606 0.039068907 -0.023102744 0.0068970313 -0.028426908 -0.10614025 0.06672269
0.0299621 0.09779167 -0.039664425 0.04930456 0.026196681 -0.062953494 -0.08071303 0.08162131
-0.099535875 0.013749012 -0.11872368 -0.0792358 -0.082737125 0.06946561 0.034509927 -0.07183744
-0.068235666 -0.10295934 -0.06583921 -0.053495593 -0.021816742 -0.11054766 0.00021765057 0.021001594
-0.123372205 -0.013784742 -0.09645964 0.11968416 0.021477437 -0.07800776 -0.072908826 -0.096474856

conv.1.update_fn.bn.0.weight f4 [64]
00000000: 4ffd 803f 87fb 793f b3a9 803f 28f8 843f
00000010: 745d 7e3f e83e 7c3f 5885 803f 7439 7a3f
00000020: 5875 7f3f 037c 813f 9ad3 7d3f db65 803f
00000030: f8e0 813f e27a 7a3f 6ead 7c3f 3ce3 7a3f
00000040: 1efb 843f b8bf 7f3f c9cd 813f ce77 803f
00000050: a91c 823f a667 7a3f 091d 7a3f a9ba 803f
00000060: 5828 823f d0de 7f3f 9c40 7c3f 6adc 7e3f
00000070: 5162 823f 53e0 7b3f 0197 853f cfad 7c3f
00000080: 0ea3 773f 45b1 803f 66d9 793f 26f0 833f
00000090: dd62 733f dccd 7f3f 7055 783f d7a7 803f
000000a0: 41e1 7e3f b8ea 793f 4be5 7b3f e6c2 7c3f
000000b0: 47b8 843f a64f 853f 2726 7a3f 3276 7f3f
000000c0: a565 813f d235 813f a630 833f f029 833f
000000d0: 1eee 7c3f c607 803f 598a 813f a979 813f
000000e0: 6028 7e3f e7a3 803f a0dc 7f3f 6719 823f
000000f0: dae1 7b3f a9e5 7d3f f9d6 813f 8aca 7e3f
1.0077304 0.97649425 1.0051788 1.0388231 0.9936135 0.9853349 1.0040693 0.97743917
0.9978843 1.011597 0.99151003 1.0031084 1.014678 0.97843754 0.9870213 0.9800298
1.0389135 0.99901915 1.0140926 1.0036561 1.0164996 0.97814405 0.97700554 1.0056964
1.0168562 0.9994936 0.98536086 0.99555075 1.0186254 0.98389167 1.0436708 0.9870271
0.96733177 1.0054098 0.9759735 1.0307662 0.9507273 0.9992349 0.9700537 1.0051221
0.9956246 0.9762378 0.9839675 0.9873489 1.0368737 1.0414932 0.97714466 0.99789727
1.0109144 1.009455 1.0249221 1.0247173 0.9880084 1.0002372 1.0120345 1.0115253
0.9928036 1.0050019 0.9994602 1.0164002 0.983915 0.9917856 1.014373 0.995278

conv.1.update_fn.bn.0.bias f4 [64]
00000000: c2e3 873d 88a5 acbc 3e30 c63c e970 843d
00000010: 6df8 d33a 359c d83c f5d5 5ebc 5e3e 9fbc
00000020: 1425 01bb 57e4 fc3c 4434 fc3b a1cb b13c
00000030: 7637 e73c de51 fabb b6c3 f3bb 25c7 d7bc
00000040: b7f5 d63c 8bef 633c e9d5 5f3d d7c1 92bb
00000050: 6eb5 7a3c fc9b b9bc 241d d1bc 1b47 073d
00000060: 1e26 4e3c 4757 453c 5b3a a4bc b55f 1e3b
00000070: 9df3 083d 260f 7dba 3789 8c3c 2754 d5bc
00000080: 891a d6bb dd92 1b3d 0a2c 613c e1b0 533b
00000090: ddfa 1abd 494d 77bc a20c 513b a2bd 5c3c
000000a0: 86bc f1bc e04e 01bc 4a0a cd3b bd37 0ebc
000000b0: b5fc af3c 7745 c53c a35b ba3c d195 69bb
000000c0: cbbd fbbb 1c9a 7e3c 467a 2c3d 9ffb 343c
000000d0: 6048 80bc 7c32 f8bc 95e3 f33c ec68 8a3c
000000e0: c6e4 5a3c 3ff4 f23c 5daf d6bb 4262 663c
000000f0: 01f6 a93b 083b 49bc c97b 333c 38bf 253c
0.06635238 -0.021075025 0.024192926 0.064668484 0.0016172059 0.026441673 -0.013600816 -0.019438919
-0.0019705938 0.0308706 0.0076966602 0.021703543 0.028224688 -0.007639154 -0.007439102 -0.026340077
0.026240213 0.013912092 0.05464736 -0.004478674 0.015302045 -0.022657387 -0.02552659 0.033026796
0.01258233 0.012044734 -0.020047357 0.0024165933 0.033435453 -0.00096534414 0.017155273 -0.026041104
-0.006533925 0.037981857 0.01374341 0.0032301473 -0.037836898 -0.01509411 0.00318984 0.013472946
-0.02950884 -0.00789234 0.00625733 -0.008680281 0.021482805 0.024080975 0.022748774 -0.0035642276
-0.007682537 0.015539672 0.042108797 0.011046319 -0.015659511 -0.03029751 0.029771606 0.016895734
0.013360208 0.029657481 -0.0065516667 0.014061512 0.0051867967 -0.012282141 0.010954806 0.010116391

conv.1.update_fn.bn.0.running_mean f4 [64]
00000000: a712 1940 3037 8a40 f711 aebf d49c 413e
00000010: 03b5 7a40 323b 6640 d352 01c0 5c7f 863f
00000020: 1a84 b2c0 497e 1240 cbe4 3ebf becb 2041
00000030: 4e0e 65c0 497a 833f 1f51 22c0 f50c 68c0
00000040: 8935 fc3f 56bd ae40 e523 55c0 2c3f 0641
00000050: f75f b7bf d331 ac40 a650 b5bf 89f8 87bf
00000060: 6222 01c0 e509 4e40 4e3a d1bf eecc 72c0
00000070: 9c77 ecc0 e0cc 6f40 ba39 3dc0 e09f cf3e
00000080: cd1b 2840 ae26 ba3f 53c1 a6bf 1bd3 06c0
00000090: d856 efc0 7e54 dc3f c3d7 b73f 6dd0 cfc0
000000a0: 8452 de40 0c97 dcbe 723f e5c0 714b c53f
000000b0: 6faf 7cbf 6a90 4ec0 888f 90c0 37e2 8ac0
000000c0: 7257 a4c0 6336 90bf 727a d23f b507 d4bf
000000d0: 837f 7f40 c36c 28bf 0f4f 9f3f 1902 bfc0
000000e0: 0d14 5640 e7e5 d0bf da0e fa3e 450b 67c0
000000f0: 152b 5f40 3146 a540 7d92 c7be d2c8 5d40
2.3917634 4.3192368 -1.3599232 0.18907481 3.917298 3.597363 -2.0206802 1.0507617
-5.5786257 2.2889578 -0.7456786 10.049742 -3.578998 1.0271693 -2.5362012 -3.6257908
1.9703838 5.4606123 -3.3303158 8.390423 -1.4326161 5.381082 -1.4165237 -1.0622722
-2.0177236 3.219354 -1.6345918 -3.793758 -7.3896008 3.7468796 -2.9566483 0.40551662
2.6266968 1.4543054 -1.3027748 -2.1066349 -7.479351 1.7213285 1.436272 -6.4941926
6.9475727 -0.4308399 -7.163995 1.5413648 -0.9870519 -3.2275643 -4.517521 -4.340114
-5.1356745 -1.1266598 1.6443617 -1.6564852 3.9921577 -0.6579096 1.2446002 -5.969006
3.3449738 -1.6320161 0.48839456 -3.6100628 3.4870045 5.1648183 -0.3897895 3.465382

conv.1.update_fn.bn.0.running_var f4 [64]
00000000: d6c6 0f42 83a4 2f42 3746 1642 5dac 8941
00000010: c930 4742 cc09 dd41 7b89 1342 820b 8e42
00000020: 27b1 5a42 e8c0 bc41 0e6f 9041 0af7 1e43
00000030: 2c4d 4042 0fcc c441 17ba 4e42 e965 8142
00000040: 5e05 ec41 f493 4e42 10ee af41 c23f 1243
00000050: 56b7 0842 6dc9 3f42 8f2b 6a41 9dd6 cb42
00000060: 6eb7 4142 df01 bb41 736f 0642 f164 0742
00000070: 7292 8f42 d869 8342 27b3 4f41 2cd6 1042
00000080: 4ebc 4542 3803 b442 01e0 3f42 6c73 9d42
00000090: 1da6 a242 6d7e 9742 999a d241 0db6 8042
000000a0: 1502 a042 9461 5e42 076a 5e42 9e00 4842
000000b0: bd70 8e41 854f 6041 28f1 7542 c831 5142
000000c0: f4cb 9b42 a951 1342 8264 4f41 541b eb41
000000d0: 3447 0542 3f5c 0e42 b423 b241 798e 8a42
000000e0: 09a6 7f42 3aaa 3042 8a04 0542 cedc c941
000000f0: 5691 ca42 2a82 9942 000f 0342 25e6 2a42
35.944176 43.910656 37.56857 17.209162 49.79764 27.629784 36.88426 71.02248
54.673 23.594193 18.054226 158.965 48.075363 24.599638 51.68173 64.69904
29.50262 51.644485 21.991241 146.24905 34.17904 47.946705 14.635634 101.91917
48.42913 23.375914 33.608837 33.848576 71.786026 65.706726 12.981238 36.209152
49.43389 90.00629 47.968754 78.72543 81.32444 75.746925 26.325487 64.35557
80.00407 55.59529 55.603542 50.000603 17.805048 14.019414 61.485504 52.298615
77.898346 36.829746 12.962038 29.388344 33.319534 35.590084 22.267433 69.27827
63.912144 44.166237 33.254433 25.232815 101.28386 76.75423 32.76465 42.72475

conv.2.update_fn.fc.0.weight f4 [64, 64]
00000000: b023 05be 1f86 5cbd 0f9d 75bd 6f80 73bd
00000010: 8b3b 00be ebef 1fbd e8ac 943d 49b5 63bd
00000020: e621 1c3d 1155 263d 4ea3 8ebd 4b5d aebc
00000030: 4970 3a3d b563 b8bd e190 703d 4839 c13d
00000040: 6c90 ae3d bb2e 833d 8c2f d6bd 83d0 0ebd
00000050: 37e8 8cbd 8910 a13d 53f1 38bd 5ffb 993d
00000060: 524e fb3d 4d1d e1bc cf1f d5bd b5aa 9abd
00000070: e2f1 ebbc dfda 9e3d 72b7 03be aa65 6f3c
00000080: fb83 a53d 5480 16be 4a8b 9d3d bcd4 053d
00000090: e1fc cdbc fe68 3cbd 4707 4c3d fae2 fe3c
000000a0: d56a 013e cfd9 a03d ccc7 a43d 9b3a 12be
000000b0: 5b42 953c e2f5 bb3b 7d07 debd 52b9 1d3d
000000c0: 33c6 203d 27a6 a0bd 381c 1f3d 671c 6c3c
000000d0: 32dc e43c bba8 27bc 6c52 a8bd aba3 89bd
000000e0: c7ac 2cbd b477 c3bd a2ea da3d 4873 023e
000000f0: d824 9fbd d965 3cbd 2e58 d6bd 7e90 233c
00000100: fde1 8a3d f204 49bd 7d46 b13c a546 cabd
00000110: 9ba9 203d 9f92 723d 1612 46bc a9fd 163d
00000120: be09 473c c333 e33d 0aa7 a53d f28d 81bd
00000130: a3d8 e3bd 27f3 99bd 0d91 00be df4d d6bd
00000140: 7590 703d 92e9 4e3d 731f 30bd 069a c23d
00000150: 91ae 6abd e3de d83d 6c78 a93c f2a3 62b9
00000160: 7ff8 c23b f706 4c3d 99a3 623d 181d 6b3d
00000170: 35ed 1c3e b39a 5b3d f3a8 ef3d 36c9 703d
00000180: ec5e abbd 39a9 ecbd b005 163c b6bc 39bc
00000190: c752 083d f572 973d eed4 543d 0020 fc3d
000001a0: b970 8cbd 6a86 83bd 64c8 09bd 471b 133e
000001b0: 2a73 b9bb 3248 e03d fc85 083e 6449 2a3d
000001c0: d7f1 353d 546c 993d b80f 963d c175 ecbb
000001d0: 780c a2bc 1b92 debc e018 93bd 709f ed3d
000001e0: e851 e5bd f712 3fbd 4ab5 87bd 6651 febd
000001f0: 292f aa3d 9b3a bf3d d27a a63d 8ab1 2fbd
00000200: 5ecb b9bd 547b 3ebd 4236 3e3d d0fe dbbd
00000210: 9d65 6ebc d950 c4bd f445 ee3d 564a c8bd
00000220: b280 53bd 766b 003e 6bf9 d9bd 2d15 bd3d
00000230: b70b 95bd afb3 f73d ba47 e03d fe52 bd3d
00000240: c07f ec3c f980 d53d 688d b43d 2987 e3bb
00000250: 2cf7 ea3c 52d1 513d 5e25 99bd eec4 1fbd
00000260: 915e 81bd e5e7 adbd 547e fabd 892f 49bd
00000270: a663 f73b c8bd b73d 26ab b0bd cde4 b13d
00000280: 9b40 e3bc b1b3 9abd bdb6 74bd 5119 3a3d
00000290: 1265 363d c2a4 973c 2cb3 a1bd 1ffa cbbd
000002a0: fd7b fc3d 66d8 9a3c 3ef9 b33d af01 863d
000002b0: 8034 e1bd ec20 98bd baed c63c 168d a8bd
000002c0: 3f6a 2ebc 3d09 9c3d 7dbd b53d ad46 833d
000002d0: bd74 3d3d 1097 02be fec7 ca3d 8d29 96bc
000002e0: 824d 053e feb4 c53d ebae a9bd ddb0 853d
000002f0: 3ee6 893d 92c7 9cbd 3b73 9dbd 8ae9 01bd
00000300: 668d a03d 01f5 ddbd a8f8 09bd 98c9 eabd
00000310: df2e 1abe 4c8f cd3c bfbf d4bd a52d e8bd
00000320: ff00 d03d 47d7 f6bd 5465 87bd da8e 5abd
00000330: c5c3 f1bd 1e7f 9dbd f545 1ebd 0c0d 83bd
00000340: 68f9 9f3c 05e6 fdbc 1dad e83d 030e da3d
00000350: 9372 6ebd ba4f 01bd ab90 a63d 86c5 8cbd
00000360: 2d5c a3bd 3536 8dbc a4b7 003c 5d25 883d
00000370: 9e62 b33d 7711 7a3c 6da9 dd3d f7e9 e53c
00000380: f63b 2ebd a7c4 cebd e2cd 0e3d 26dc 12be
00000390: dbdc 403d 1efc 833d fcc0 fabd 841a 4dbb
000003a0: 5f6c b53c 6555 ac3c 5dfc 9e3d 5c95 97bd
000003b0: 2856 b13d c354 8fbd 5ede f5bb d52d d73a
000003c0: 3b2f 14bc 5e1b 733d a573 8c3d 7426 983c
000003d0: c6e9 843d 6473 abbd c6fc 11ba a98c 433d
000003e0: 4da7 c3bc 21d3 1c3d 4a88 c6bd 173f 1c3d
000003f0: e400 6cbc 4249 b8bd 7b79 de3c 1944 8bbd
-0.13001895 -0.053838845 -0.059964236 -0.059448656 -0.12522714 -0.039047163 0.07259542 -0.05559281
0.038118266 0.04060847 -0.06964742 -0.02128472 0.04551724 -0.090033926 0.058731917 0.09434754
0.0852364 0.064053975 -0.104582876 -0.03486682 -0.06880229 0.07864482 -0.04515202 0.07518648
0.12270798 -0.027479792 -0.10406458 -0.07552091 -0.028801862 0.0775659 -0.12862948 0.014611641
0.08081814 -0.14697391 0.07692583 0.032673582 -0.025144996 -0.045998566 0.049811628 0.03111409
0.1263841 0.07854044 0.08045921 -0.14280169 0.018220117 0.0057360986 -0.10841272 0.038506813
0.039251518 -0.07844191 0.03884527 0.0144110685 0.027937029 -0.0102331 -0.08218846 -0.0672067
-0.04215696 -0.09544316 0.10689284 0.12739289 -0.07770699 -0.045995567 -0.10466038 0.00998318
0.06781385 -0.04907698 0.021640057 -0.098767556 0.03922425 0.05922186 -0.012089273 0.036863003
0.012148319 0.11093857 0.08088501 -0.06325902 -0.111253045 -0.07517081 -0.12555332 -0.104640715
0.058731515 0.05051572 -0.042998742 0.09502034 -0.057295386 0.10589387 0.020687304 -0.00021614114
0.005950033 0.04981133 0.0553318 0.057400793 0.15324862 0.05361433 0.117021464 0.05878564
-0.08367714 -0.11555714 0.009156629 -0.011336496 0.033282068 0.07394973 0.051960878 0.12310791
-0.06857438 -0.06422122 -0.033638373 0.14365874 -0.0056594806 0.1095127 0.13332361 0.041573897
0.04442009 0.07491365 0.07327217 -0.007216186 -0.019781336 -0.027169278 -0.07182479 0.11602676
-0.11197263 -0.046648946 -0.06626375 -0.12417869 0.08309776 0.0933735 0.08128895 -0.042893924
-0.09071992 -0.046504334 0.046438463 -0.10741961 -0.014550594 -0.09585733 0.11634436 -0.097798035
-0.051636405 0.12540993 -0.10643276 0.092325546 -0.07277625 0.12094819 0.10951181 0.09244345
0.02886951 0.1042499 0.088160336 -0.0069436026 0.028682314 0.051225014 -0.0747783 -0.039006166
-0.06316865 -0.08491496 -0.122311264 -0.0491176 0.007549721 0.08971745 -0.08626394 0.086862184
-0.027740767 -0.07553805 -0.059744585 0.0454343 0.044529982 0.01851118 -0.078955024 -0.09959816
0.123283364 0.018902015 0.087877735 0.0654329 -0.10996342 -0.07428154 0.024283279 -0.08230035
-0.010645448 0.076189496 0.08874033 0.06409965 0.04625391 -0.12752938 0.09901427 -0.01833036
0.13017848 0.09653662 -0.08285316 0.065278746 0.06733368 -0.076552525 -0.07687994 -0.03171686
0.078394696 -0.108377464 -0.033684403 -0.11464232 -0.15056942 0.025092743 -0.10388135 -0.11336831
0.1015644 -0.1205278 -0.06611124 -0.05335889 -0.11804918 -0.07690261 -0.038640935 -0.06398973
0.019528106 -0.03099347 0.11361144 0.10647204 -0.058214735 -0.031570174 0.08133062 -0.06873612
-0.079765655 -0.017237762 0.007856283 0.066477515 0.08759044 0.015262953 0.10823331 0.028065665
-0.042537652 -0.10096102 0.034864314 -0.14341792 0.047085624 0.06444572 -0.1224384 -0.0031296322
0.022146402 0.021036813 0.07762978 -0.07401535 0.08659011 -0.06998589 -0.007503315 0.0016416857
-0.009044464 0.05935227 0.06857995 0.018573023 0.06489901 -0.083716184 -0.0005568977 0.047741566
-0.023883486 0.038287286 -0.09693964 0.038146105 -0.014404509 -0.08998348 0.027157536 -0.06800098
