datasets/bioinformatics/PROTEINS/backups/results/temp/7/GSN_sparse/checkpoints/checkpoint.pth.tar (torch, 496034 bytes, 142 tensors)

conv.0.update_fn.fc.0.weight f4 [64, 81]
000000 d2 42 e3 3d a2 9d 73 3c 52 e6 9c 3d 47 3c a9 3c
       0.11096729 0.014869126 0.076611176 0.020658625
000010 dd bd 0b bc 25 09 f0 3c 39 67 56 bd c0 03 1a bd
       -0.008529154 0.029301235 -0.052344535 -0.037601233
000020 d6 1c 4a bd 5b e3 b0 bd 91 e4 76 bd ab 02 3c bc
       -0.049343906 -0.086371146 -0.06027657 -0.0114752455
000030 ee 22 19 3e 27 a0 a2 3d 8e 54 ef bd 47 08 03 3c
       0.14954731 0.07940703 -0.116860494 0.007997579
000040 60 20 01 bd 31 a0 42 bd 0b 8d 8d 3d ea 76 ef 3c
       -0.031525016 -0.04751605 0.069116674 0.029231507
000050 f5 fb c0 bd 67 62 bf bd 55 db 5a bd bc 85 db 3d
       -0.09423057 -0.09344941 -0.053431828 0.10718867
000060 11 23 91 bd ac 19 77 bd f4 87 cf 3c 94 26 e0 bd
       -0.070867665 -0.060327217 0.025333382 -0.10944858
000070 61 76 51 bd 04 a7 ab bd cc 87 c4 3c a2 1c 1a 3e
       -0.051138286 -0.08381465 0.023990534 0.15049985
000080 04 5e 69 3d 0f 6d 21 3e f1 6a 0d bd ad b6 44 bd
       0.056974426 0.15764259 -0.034525815 -0.048025776
000090 d1 75 59 bc 16 22 04 3d 45 a5 23 bd 40 cb 65 3d
       -0.0132727185 0.03225907 -0.039952535 0.056102037
0000a0 bd 7b 05 3d d6 4f 03 3e 15 d3 23 bb d9 f7 07 bd
       0.03258871 0.12823424 -0.002499764 -0.03319535
0000b0 10 f3 b9 bc b7 cb 51 bc 3f ab be 3d 76 4d d6 bc
       -0.022698909 -0.012804917 0.09310006 -0.026159983
0000c0 ad 2f 6c 3e 00 2e f3 3c 43 f9 11 bd c4 6d 4f 3d
       0.23065062 0.02968502 -0.035638105 0.05064179
0000d0 18 6f cb bd 76 5d e9 bb fe 1c b9 bd 43 0a a4 3d
       -0.09933299 -0.007121737 -0.09038733 0.0800977
0000e0 8e d6 f1 bd 1d eb db 3d 8b 3e 6f bd 0d 57 47 bd
       -0.11808501 0.10738204 -0.058409255 -0.048667002
0000f0 08 db ed 3b 0f 3f 1d 3c 48 47 8f 3d 5a 45 07 3e
       0.0072587766 0.009597554 0.06996018 0.1321005
000100 7d 2e bf bd b8 ce 47 bd 55 31 bd 3d e9 74 09 3d
       -0.09335039 -0.048781127 0.09237925 0.03355876
000110 79 22 54 bd a6 b7 91 bd 29 2e 74 3c 55 f7 91 bc
       -0.05179069 -0.07115106 0.014903584 -0.017818132
000120 58 4f 56 3d 4b 4c a7 3d bf 55 d8 bd 8f b8 b0 3d
       0.05232176 0.081688486 -0.1056323 0.08628952
000130 87 cb d6 3d a4 c0 d7 3c 6d 47 45 bd a5 6e 18 bc
       0.104880385 0.026336975 -0.04816382 -0.009303723
000140 ea 02 28 3d 1a a5 b5 3d 90 2d 00 be c1 b8 af bd
       0.041018404 0.08869381 -0.1251738 -0.08580161
000150 5c aa 1e bd 31 f6 99 bd ce db f1 bb f3 c8 dd 3d
       -0.038736686 -0.075176604 -0.007380939 0.10829344
000160 2a a1 20 bd 2d ae a5 3d 78 ee a6 bb 74 90 4d 3d
       -0.039216198 0.08089862 -0.0050943457 0.05018659
000170 a8 55 e0 3d 73 8d 6a bc 60 47 e2 3c cf ef 8c 3d
       0.10953838 -0.014315951 0.027621925 0.06881677
000180 a1 7d b1 3d 77 ca 40 3e 92 3d 26 3e e2 d1 c4 3d
       0.0866654 0.18827234 0.16234425 0.096103445
000190 2c bd 25 bd 56 81 9b bd d8 46 f3 3d 43 be 9b bc
       -0.04046361 -0.07593028 0.11878747 -0.019011622
0001a0 a4 72 21 3d 04 07 cd bc 06 97 2a bd 56 84 76 bd
       0.03941597 -0.02502776 -0.041647933 -0.0601848
0001b0 d4 b3 45 bd 7a b8 d3 3b 05 c5 76 3d a9 bf c0 3d
       -0.0482672 0.0064612003 0.060246486 0.09411556
0001c0 d2 34 19 bc 23 95 8a 3d a6 36 98 bd 0d 54 2c 3e
       -0.009350972 0.06766727 -0.07432298 0.16828938
0001d0 12 e3 9d 39 a0 d9 35 bd 2d c0 f6 3d a1 21 77 3d
       0.00030114554 -0.044396996 0.12048373 0.060334805
0001e0 cc 43 86 3d f9 fa e1 bd c4 0b e7 bd d7 81 f1 3d
       0.065559 -0.11034197 -0.11281541 0.11792343
0001f0 f0 de 99 bc bf 51 8a 3d ba d0 94 3d 23 9e b2 bd
       -0.018783063 0.06753873 0.07266374 -0.087215684
000200 8f 10 e5 3d 72 34 ba 3d 3e ee 08 bc 81 b0 e8 bc
       0.11184799 0.090920344 -0.008357583 -0.028404476
000210 18 ed 14 3d b1 ae 14 3d 22 97 27 3c 14 8b f2 bc
       0.036358923 0.03629941 0.010228904 -0.029607333
000220 13 3f ac 3d 3c 73 eb 3d af 00 84 bd 35 a3 ad 3d
       0.08410468 0.114965886 -0.06445443 0.08478395
000230 30 04 2d bc 52 e8 72 bd 2c 1e 81 bd ce dc bd bb
       -0.01056008 -0.05930359 -0.06304583 -0.0057941442
000240 cc 03 e7 ba ab d3 ca 3d fc ae 92 bd 08 24 62 bd
       -0.0017625033 0.09903654 -0.07162282 -0.055210143
000250 e3 8f 99 3d e1 9b 28 bd 5b b3 99 bd 64 3c d6 bd
       0.07498147 -0.041164283 -0.075049125 -0.10460737
000260 4c 64 8c bd b8 4f ac bd 60 5a b6 3d 34 e9 00 bd
       -0.068550676 -0.08413643 0.089039564 -0.0314724
000270 ef c3 84 3d 5a dd 8b 3c 45 26 e2 bd bd 7e 91 3d
       0.06482684 0.017073322 -0.110424556 0.071042515
000280 99 63 ac 3d c9 68 d2 bc b6 c5 1c 3d 1a 28 c8 3d
       0.08417434 -0.025684731 0.03827449 0.09773274
000290 c7 30 90 bd d9 cd ba bd 8f 7b ab 3d 7d 0a 82 bc
       -0.070405535 -0.091212936 0.08373176 -0.015874142
0002a0 84 64 3d bd b0 f5 3d bd fa 60 01 be 48 d4 25 3d
       -0.046238437 -0.046376884 -0.1263465 0.04048565
0002b0 45 cb 52 3d 4a c6 c9 3c 15 30 90 bb ac 40 96 bd
       0.051463384 0.024630684 -0.004400263 -0.07336554
0002c0 92 27 ca bb ce db 3c bd 0c 15 5d 3c 90 7d 14 3e
       -0.006169268 -0.04610806 0.0134937875 0.14501023
0002d0 04 4a 14 3c aa e1 56 3d 97 e8 30 bb d4 f3 ea bd
       0.00905085 0.052461304 -0.0026994103 -0.11472288
0002e0 c3 61 01 bc 21 bf a6 bd 81 80 3e 3d 9b 71 bc bd
       -0.007896843 -0.08141924 0.04650927 -0.09201356
0002f0 22 fc 9f bd 80 63 7f 3d 29 c1 5d bc 45 80 f8 bd
       -0.078117624 0.06235075 -0.0135348225 -0.121338405
000300 96 53 15 3e 10 9f 98 bd 66 eb 16 bd 43 e3 d9 3d
       0.14582667 -0.07452214 -0.036845587 0.1063905
000310 09 31 9a bb 8b e3 fa 3c c5 48 3d bd 81 f9 e2 3d
       -0.0047055525 0.030626079 -0.046211977 0.11082745
000320 cb f8 80 bc 64 6b 87 3d a1 46 91 3d 4d 0c 06 3d
       -0.015743634 0.0661228 0.070935495 0.032726575
000330 08 3c a2 bd a3 a6 70 3b 14 16 22 3d 57 11 12 bc
       -0.07921606 0.0036720417 0.039571837 -0.008915267
000340 39 22 83 bc 85 25 98 bd f2 e9 c2 3d 27 f7 78 bd
       -0.01600753 -0.07429031 0.09517278 -0.060782578
000350 7f 41 d2 3c b3 20 61 bd bb 58 45 3e e6 ac d3 3d
       0.025665997 -0.054962825 0.19272129 0.10335712
000360 e4 12 80 bb 48 8f 3c 3d e2 4a 2f 3d 9a 9f da bd
       -0.003908502 0.04603508 0.042796023 -0.10674973
000370 70 38 74 bd 58 9a 1e bd d6 9d 9b bd ab cf 5f 3d
       -0.059624135 -0.038721412 -0.07598464 0.054641407
000380 36 60 b0 3d 57 13 ec bd e0 3e 03 3c 87 32 19 bd
       0.08612101 -0.11527126 0.008010596 -0.037401702
000390 40 de 67 bc 64 55 eb bd e3 39 a8 bd 71 23 c6 bd
       -0.01415211 -0.11490896 -0.08214166 -0.09674729
0003a0 6f 7a cc 3c 4c 3e a0 bd 8e 2e 9c bd e6 54 4c 3b
       0.024960725 -0.07824382 -0.07626067 0.0031178533
0003b0 88 65 d6 3d b3 c8 a8 bc 55 52 20 3d 17 1b 90 3d
       0.10468584 -0.020603513 0.039141018 0.07036417
0003c0 92 a4 80 3c 9d b2 34 bd 7a 5e e4 3d f1 68 0f be
       0.015703473 -0.04411565 0.111508325 -0.14004876
0003d0 4f 8f ac 3d 5a fa c5 3d 0e bc 26 3d 2f 08 8b bd
       0.084257714 0.096668914 0.040706687 -0.0678867
0003e0 19 f3 e4 3d 40 cc 9f bd f9 10 b0 bc b2 fa 83 bd
       0.1117918 -0.078026295 -0.021492468 -0.06444301
0003f0 c0 13 7c 3d 2e 29 f5 3c c3 9e c3 3c b8 58 ce 3b
       0.061542273 0.029926863 0.023879414 0.006297197

conv.0.update_fn.fc.0.bias f4 [64]
000000 ca aa aa 3b f2 03 52 3d 5c f9 75 3c ed 3f de 3d
       0.005208348 0.051273294 0.015013065 0.108520366
000010 89 c1 f8 3d d2 be 9f 3d db cd a8 bd 42 75 a3 3c
       0.12146289 0.07800068 -0.08242389 0.019953374
000020 79 f2 a8 3d 37 41 e0 bd ac 97 c9 3d 44 70 ad bc
       0.08249373 -0.10949939 0.09843382 -0.021171696
000030 b1 ba a0 3d 72 f4 7b 3d dc bc 2f bd 23 83 c1 3d
       0.078481086 0.061512418 -0.04290472 0.094488405
000040 91 64 9a 3d 3b ab 51 bd 0d 42 87 3d ff af 99 bc
       0.07538713 -0.05118869 0.06604395 -0.01876068
000050 ad d1 4b 3d 04 e9 2a bc f7 b9 f6 bc 87 7c 82 bd
       0.04976051 -0.010431532 -0.030117972 -0.06371408
000060 d6 57 1d 3d 50 b9 76 3c 18 3d b7 bd cc fd 7f bd
       0.038413845 0.01505883 -0.089471996 -0.0624979
000070 42 f0 ae bd 4a 0c 2c 3d 2d 1f 25 bd 3b 2c ba 3c
       -0.08541919 0.042003907 -0.040312935 0.022726169
000080 e5 ec fa 3c 75 bb 34 3d ea cc 0f 3c 29 bb 78 3d
       0.030630538 0.044124085 0.008776883 0.060725365
000090 36 e2 33 bd d9 98 a0 bd 48 02 31 3c fd 58 e3 3a
       -0.043916903 -0.078416534 0.010803767 0.0017345246
0000a0 e1 e0 ee 3c cc b4 b6 bb e7 9c b1 bb 16 81 69 3d
       0.029159965 -0.005575752 -0.0054203155 0.05700787
0000b0 a5 e8 d7 3d df e6 b7 bd 23 1c c1 bd cb 9a b5 3a
       0.1054242 -0.08979582 -0.09429195 0.0013855336
0000c0 ff 6d 30 bc 2d a7 d6 bd 58 b7 f6 3d 50 db 86 bc
       -0.010768413 -0.10481105 0.12046689 -0.016461998
0000d0 f9 a1 53 3d ec 65 67 3d 71 ae 8e 3d 21 79 4f 3c
       0.05166814 0.056493685 0.06966866 0.012663157
0000e0 1e 94 fb 3c 3c 4a 45 bd 45 91 88 bc 0b f2 47 bd
       0.030710276 -0.0481665 -0.016670832 -0.048814815
0000f0 e2 fd 72 3d 43 06 b6 3d b0 0c d6 bd ed 0e a5 bd
       0.059324153 0.08887913 -0.10451639 -0.080594875

conv.0.update_fn.fc.1.weight f4 [64, 64]
000000 88 84 46 3d 87 c5 9d 3d 36 85 f4 3d fd b9 9e 3c
       0.048466235 0.07703691 0.119394705 0.019375795
000010 98 82 25 bc a9 7b c8 3d c1 92 12 bb 3f 4b 36 bd
       -0.010101937 0.09789211 -0.0022365304 -0.044505354
000020 48 3d 89 3c 68 1b 95 3d 8f da a6 3d df 47 0c be
       0.016752854 0.07280618 0.081471555 -0.13699292
000030 4d 18 96 bd 42 83 91 3d 56 6a b5 3d 2c fc 05 be
       -0.07328854 0.071051136 0.088581726 -0.13084477
000040 7c 91 52 bc 25 57 46 3d 50 3e 03 be 9a 44 a0 bd
       -0.012852069 0.04842295 -0.12816739 -0.07825585
000050 9b 1e e6 3d 21 69 e4 bd 96 80 33 bd 2d db 42 3d
       0.11236306 -0.11152864 -0.0438238 0.047572304
000060 13 b8 3f bd a2 43 22 be f1 99 9c 3d 66 e7 93 bd
       -0.046806406 -0.15846112 0.076465495 -0.0722187
000070 04 e7 b5 bd b3 62 a7 bd b1 ab d8 3d 25 2d 16 be
       -0.08881953 -0.08173122 0.105796225 -0.14665659
000080 42 42 d7 ba 2f 1c 9b 3d 24 1f bf 3d fd 0e 10 3d
       -0.0016422945 0.07573735 0.093321115 0.035170544
000090 97 99 07 3e 29 e1 e0 3d 14 e8 ba 3d 8a 45 71 bd
       0.13242184 0.10980446 0.09126297 -0.05890421
0000a0 72 f0 9e bc 8e fc 75 3d a6 0e 79 3d c2 79 30 3d
       -0.019401763 0.060055308 0.060804985 0.043084867
0000b0 3f a8 93 3d a2 51 89 3d 0a cf 18 3d f6 6c 86 3d
       0.07209825 0.06705023 0.037306823 0.065637514
0000c0 78 2e ba bd 76 84 71 3b ba 33 6e 3d 5f a6 69 3d
       -0.090908945 0.0036852635 0.0581548 0.05704343
0000d0 48 30 3e bd 6b be 9a 3d 46 8a d4 3c 57 51 ce 3d
       -0.046432763 0.075558506 0.02594484 0.10074108
0000e0 ba 37 7e 3c 45 60 c5 3d 99 42 11 bd 59 dc 14 3e
       0.015516216 0.096375026 -0.035463903 0.14537181
0000f0 3e fd 74 bd bf 74 60 3c e6 92 b1 3d 9e f8 7c bd
       -0.059811823 0.013699709 0.08670597 -0.061760537
000100 f4 9c e8 3d c2 92 9c 3d af 26 30 bd 0e bf a8 bc
       0.113580614 0.07645179 -0.04300564 -0.020598914
000110 83 2e 9d 3c 88 3e 22 3d c2 1f 02 3d 57 30 d3 bb
       0.019187218 0.039610416 0.031768568 -0.0064449715
000120 1e c2 e9 3d 3f c1 d4 bd 44 2a 70 3d 3f 3a d9 3d
       0.11413978 -0.10388421 0.058634058 0.10606813
000130 1f 51 18 3d 3e 11 a8 3d 01 07 c1 bd f0 1f d8 3d
       0.037186738 0.08206414 -0.09425164 0.105529666
000140 50 0a cd 3d a1 2c ef 3c 2b 94 1e bd 8f 88 0d be
       0.100117326 0.029196085 -0.038715523 -0.13821624
000150 fc bc 77 3d e7 dc 8b bd 4c 37 d1 3d 9f e1 9e 3d
       0.060482964 -0.06829243 0.10215625 0.077578776
000160 83 35 39 bd 55 6e c2 3d 0d d8 bc bd 02 ec 7c bc
       -0.04521705 0.094937004 -0.09220896 -0.015437128
000170 79 94 d2 bd 46 3f 61 3d 90 81 d0 bd 38 42 7a 3d
       -0.10282225 0.054991983 -0.10180962 0.061098307
000180 06 02 05 bc 3b 24 93 3d ee 09 91 3c ad 50 0d bd
       -0.008118158 0.07184645 0.01770493 -0.034500767
000190 d4 10 57 3c ca 3e ba 3c 1f ba f4 3b 79 0a fc 3a
       0.013126571 0.022735018 0.0074684764 0.0019229195
0001a0 ab 41 02 3e 4e db a1 bd 46 34 11 3d 28 e2 e6 bd
       0.12720363 -0.07903157 0.035450242 -0.11273605
0001b0 d8 b4 34 3c dc f2 5e bd 36 c9 da bd ab 02 5a 3b
       0.011029445 -0.054430827 -0.10682909 0.003326575
0001c0 11 64 c9 3d 7c 5e 1c 3d d8 5d 98 bc 28 77 0a 3e
       0.09833539 0.038176045 -0.018599436 0.13522017
0001d0 61 50 d4 3b eb 2a 1e bb 2f 31 8b 3c ad ba a5 bb
       0.0064793085 -0.0024134468 0.016991226 -0.005057654
0001e0 54 8f cb bc 8f 2d be 3c 21 14 61 3c b1 16 14 3c
       -0.024848618 0.023215083 0.013737709 0.009038613
0001f0 19 e8 9c bd 5c 92 8b bd 60 7c 07 3e 48 fc 4a bb
       -0.076614566 -0.06815025 0.13231039 -0.0030973125
000200 6a f6 b2 3d 47 28 94 bb 30 a4 25 3d 52 46 ad 3c
       0.08738406 -0.004521403 0.040439785 0.021151695
000210 cc 57 64 ba 47 7e 96 3d 0e 9f 63 bd 1e f1 57 3d
       -0.00087105925 0.07348304 -0.05557161 0.05272018
000220 7a 64 ca 3d 3a 54 b3 3d d1 1c 88 bd 60 c9 64 bd
       0.09882446 0.08756299 -0.06646121 -0.05585611
000230 7d f9 27 bd 54 17 69 bd b3 d8 a9 3d 17 56 b3 3d
       -0.041009415 -0.056907013 0.08293285 0.08756655
000240 2b 67 3a bb fd bd 5e bb b3 1a b1 bd 25 5a bb bd
       -0.002844284 -0.0033987754 -0.086476706 -0.09148053
000250 50 33 f8 3d 76 4c 36 3d 8b 52 48 bd 38 3c a8 3c
       0.12119162 0.044506513 -0.048906844 0.020536527
000260 d3 48 c7 3d 07 15 09 be d3 3c b8 3c bb 3b d2 bd
       0.09730687 -0.13386928 0.02248994 -0.10265299
000270 bc 0b b5 3d ab 40 c0 bd 17 ef 6a 3d 34 37 ba bd
       0.08840129 -0.093873344 0.05735692 -0.090925604
000280 1d b6 8d bd 15 6a 1a be 71 0b bc bd 39 58 05 bd
       -0.06919501 -0.1507953 -0.0918187 -0.03255484
000290 7a ad 2a 3d 7e 39 0e bd 06 18 9e bd 14 03 1a bd
       0.041669346 -0.034722798 -0.07719426 -0.03760059
0002a0 c6 a4 47 3c 81 b8 5d bd 1c 18 e2 3d fe e1 f8 3d
       0.012185281 -0.054131035 0.11039755 0.121524796
0002b0 19 62 fc 3d 8b 81 6c 3d d1 35 9f bc 31 0c 14 3d
       0.12323398 0.05774073 -0.019434841 0.03614444
0002c0 41 83 89 3d 03 2f e7 bd b3 7d 1f 3d b5 59 dc 3d
       0.06714488 -0.11288264 0.038938235 0.10759298
0002d0 ec 8e 66 3d 63 11 5a bd 39 f7 ac 3d 14 a8 93 3d
       0.056288645 -0.053239238 0.084455915 0.07209793
0002e0 5b da 3a bd 35 b0 d6 3c bc d7 ac 3d a8 34 b9 bd
       -0.045618396 0.026207069 0.084395856 -0.090432465
0002f0 a8 af 6d 3d 4a bb 30 3e e7 e1 04 3d 24 64 a5 bd
       0.058028847 0.17258945 0.032442 -0.08075741
000300 35 31 f5 bd 32 ab 65 bd bb 8c 9b 3c 84 12 07 3b
       -0.11972276 -0.056071468 0.018988004 0.0020610401
000310 7c 81 6f bd b2 39 f6 3c bb 4d 51 3d c1 c4 a9 bd
       -0.058473095 0.030056808 0.05109952 -0.08289481
000320 83 a2 f1 bc d6 01 0f be 0e c2 3f 3c 82 30 b7 3d
       -0.029496437 -0.13965544 0.011703981 0.08944799
000330 85 86 ac bd 20 85 c9 3d 9c 90 d4 3d 6a 40 16 bd
       -0.08424095 0.09839845 0.103791445 -0.036682524
000340 08 9d 54 bd 23 4d 47 3c 87 00 24 be b7 20 4a 3d
       -0.05190757 0.012164387 -0.16015826 0.049347606
000350 1f 60 f0 3d f9 dd 2b 3d 49 f1 5c bd e3 c3 75 bd
       0.11737084 0.041959736 -0.053941045 -0.060001265
000360 d7 e0 c2 bd d7 01 8f 3d 99 bd 09 3c f8 a9 76 bd
       -0.09515541 0.06982773 0.00840702 -0.06022069
000370 03 f4 50 3d 05 21 90 bd 2a e4 22 bc 8a 0f 9c 3d
       0.051013958 -0.07037548 -0.009942094 0.07620151
000380 65 75 92 bd 89 43 d4 3c d3 d9 c5 bd 49 42 a6 3d
       -0.071512975 0.02591111 -0.09660687 0.08118112
000390 12 2c b6 3d 9b 41 88 bc 46 96 5b 3b a8 c9 20 bd
       0.088951245 -0.016632846 0.0033506318 -0.039254814
0003a0 ae 8d b6 3d 26 23 fa bd e4 90 84 bd f4 07 3f bd
       0.08913742 -0.12213735 -0.06472948 -0.046638444
0003b0 e8 bc 36 3d 2c ec 0c bd 0b bd c2 3d 5c 52 0f 3e
       0.04461375 -0.03440492 0.09508713 0.13996261
0003c0 12 fb 19 3d 34 07 a4 3c 22 f8 5c bc c2 db 7b bd
       0.037592955 0.020022966 -0.013486894 -0.061488874
0003d0 a3 2a 12 bd bb 1e 78 bd e1 80 a8 bd 28 60 65 3b
       -0.035685193 -0.06057618 -0.08227707 0.003499994
0003e0 3b f2 25 bc 29 d1 37 3c 93 af 1b be de f0 b6 bc
       -0.010128553 0.011219301 -0.15203695 -0.022331651
0003f0 ec 03 08 3d c3 2f a4 3d 2c e6 74 3c 16 b2 c3 3d
       0.033206865 0.08016922 0.014947455 0.095554516

conv.0.update_fn.fc.1.bias f4 [64]
000000 4b b5 4f 3d 9d f0 ea bd 51 ba a6 3b 62 46 51 3c
       0.050710004 -0.114716746 0.0050881286 0.012773128
000010 21 a2 84 3c a3 24 17 3d d0 d2 a9 bd c5 21 08 be
       0.01619059 0.036900174 -0.082921624 -0.13294132
000020 52 50 3e 3d 47 f0 2b 3c e6 a1 f8 3d 30 85 eb bc
       0.04646332 0.010494298 0.12140255 -0.028750032
000030 b6 8e cf 3d 4f 0f 06 bd ef 07 80 ba db 71 ed bc
       0.10134642 -0.032729443 -0.0009767989 -0.028984955
000040 38 32 ce bc 48 0b 45 3d d1 1a ea bd 66 0c 86 3d
       -0.02517043 0.04810646 -0.11430896 0.065453336
000050 d0 73 6b 3c a7 f6 92 bd 3a 8d bd 3d 6c 12 dd bc
       0.014370874 -0.071759515 0.092554525 -0.026986323
000060 4b 04 21 bd dd bf 1d bb 8f b0 c0 bc f6 93 59 3d
       -0.039310735 -0.0024070658 -0.02352169 0.053119622
000070 b7 c7 10 bc 7c c1 fb 3d 45 0a b3 bc 37 93 9e bd
       -0.008836678 0.122927636 -0.021855483 -0.07742923
000080 c5 92 b3 3d 7f 83 d4 3d e6 24 ac 3b fd 13 03 3e
       0.087682284 0.103766434 0.005253422 0.12800594
000090 21 fc 4c 3c 0d 39 a6 bc c3 65 39 3d 45 9d 72 bd
       0.012511284 -0.020290876 0.045263063 -0.059232015
0000a0 df 6c 40 3d 11 83 94 bc ff 57 d0 bd 4e f9 ec 3d
       0.046978828 -0.018128904 -0.10173034 0.115709886
0000b0 13 89 cb bd f9 00 3a bd a6 02 c9 3d a3 30 2c bd
       -0.09938254 -0.045411084 0.09814958 -0.04203857
0000c0 2c 76 b4 3d 97 a5 6e bd fc 54 10 3c 33 0e 81 bd
       0.08811602 -0.058263388 0.008809324 -0.063015364
0000d0 51 58 02 bd 98 65 65 3d f2 e1 6e 3d 73 1e 90 3d
       -0.031822506 0.05600509 0.058320947 0.07037058
0000e0 59 43 f5 bc 86 74 1d 3d 64 0d df 3d ff 85 05 3d
       -0.02993934 0.038441204 0.10891226 0.03259849
0000f0 99 a5 1a be 01 03 3d bd d6 73 28 bd 11 dd 00 be
       -0.15102233 -0.046145443 -0.041126095 -0.1258433

conv.0.update_fn.bn.0.weight f4 [64]
000000 bd d2 7d 3f 1a f6 83 3f 0a 4b 7d 3f 56 d8 7e 3f
       0.99149686 1.0309479 0.98942626 0.9954885
000010 14 b6 83 3f 96 07 82 3f b8 dd 79 3f c0 b0 7e 3f
       1.0289941 1.0158565 0.9760394 0.9948845
000020 f4 b6 7d 3f 4d de 84 3f c3 47 81 3f f8 cf 83 3f
       0.9910729 1.0380341 1.0100025 1.0297842
000030 46 d3 7d 3f 19 13 81 3f fa 70 78 3f 5f 0c 85 3f
       0.991505 1.0083953 0.9704739 1.03944
000040 ec 7d 76 3f 72 68 84 3f 85 5e 81 3f d5 af 83 3f
       0.9628589 1.0344374 1.010697 1.0288035
000050 a8 2c 7c 3f 78 5d 7d 3f fe 4d 7b 3f ef e8 80 3f
       0.9850564 0.98970747 0.9816588 1.0071086
000060 72 a8 7e 3f 12 46 84 3f 4b 41 81 3f c3 e3 80 3f
       0.9947578 1.0333884 1.0098051 1.0069507
000070 8a 8e 7f 3f c4 98 72 3f d3 b0 82 3f d3 76 7f 3f
       0.9982687 0.9476435 1.0210212 0.99790686
000080 78 23 7f 3f 3d 6f 7d 3f 4e 3d 74 3f 1d 05 7b 3f
       0.99663496 0.9899786 0.95406044 0.9805468
000090 69 c3 74 3f 6c b8 82 3f 95 ce 7d 3f 05 81 86 3f
       0.9561067 1.0212531 0.99143344 1.0508124
0000a0 c2 8b 7d 3f 06 1f 83 3f 86 6c 81 3f 7f 7d 7f 3f
       0.9904138 1.0243843 1.0111244 0.99800867
0000b0 dc a9 7d 3f 65 ef 76 3f 81 8d 87 3f b6 f8 83 3f
       0.9908731 0.9645904 1.0590059 1.0310276
0000c0 9a 5d 79 3f 31 75 7d 3f dd d9 84 3f 27 77 7c 3f
       0.9740845 0.99006945 1.0378987 0.9861931
0000d0 6c 8e 7f 3f 24 29 7b 3f 9e ff 7a 3f 79 c9 80 3f
       0.99826694 0.9810965 0.9804629 1.0061485
0000e0 49 0a 81 3f f3 e4 75 3f 2f 29 79 3f 24 e5 80 3f
       1.0081264 0.96052474 0.97328466 1.0069928
0000f0 5e 4f 7d 3f 77 2b 7c 3f eb 25 80 3f 23 80 79 3f
       0.9894923 0.9850382 1.0011572 0.97461146

conv.0.update_fn.bn.0.bias f4 [64]
000000 be 3e a9 bb c8 3a f1 bc 1a e3 81 3c 45 49 00 bd
       -0.00516495 -0.029446974 0.01585536 -0.031319875
000010 cf df 36 3d 09 ca 9e 3c 41 8c 34 bd 03 9d dc bc
       0.044647034 0.019383447 -0.04407907 -0.026930338
000020 2c 2a 1c bd a2 d9 20 3c d6 0b a9 bc 8d 4e c6 3a
       -0.038126156 0.009817513 -0.020635527 0.0015129611
000030 f4 68 53 bc 0b f6 3d bd 94 8e 88 bd 78 72 1e 3d
       -0.012903441 -0.046377223 -0.066678196 0.038683385
000040 32 0c 52 bd 6c 3b b1 3c 81 3c b2 ba 8e ae 02 3c
       -0.05128116 0.02163478 -0.0013598354 0.007976187
000050 43 b0 2c bc d7 b2 71 bc 15 7b 6e bd af df fa 3c
       -0.010540071 -0.014752111 -0.05822285 0.030624239
000060 85 27 48 bc 19 61 99 bc c9 34 8d bc fb c7 3e bc
       -0.012216453 -0.018723058 -0.017237084 -0.011644359
000070 39 69 6a bd 7c ff e5 bc 91 9d 7d bd 06 7e d3 bc
       -0.057229254 -0.028075926 -0.061917845 -0.025816929
000080 ff 58 a9 bb 97 17 27 bd 17 6c 96 bd c9 33 51 bd
       -0.00516808 -0.04079398 -0.07344835 -0.051074777
000090 ac 22 4c bd 38 6a 7f 3c 2e 02 21 3c 0f 7a 5f 3d
       -0.049837753 0.015589289 0.00982718 0.054559764
0000a0 96 45 2a bb e0 b0 00 bd b4 03 a3 bc d4 4d 0c bd
       -0.0025981418 -0.03141868 -0.019899227 -0.03425391
0000b0 0b 08 91 bd 5a 02 40 bd a9 2c 28 bb df a1 2c bd
       -0.07081612 -0.046877243 -0.0025661385 -0.04214656
0000c0 1e 18 c6 bc 74 d1 02 bb d8 eb fa 3b c1 c9 4b ba
       -0.024181422 -0.001996127 0.0076575093 -0.0007773899
0000d0 f7 6e 5e bc 86 e4 9e 3b c0 e2 f1 3b f1 6d 87 bc
       -0.013576261 0.0048490195 0.007381767 -0.016531916
0000e0 a4 6e 0a 3c a0 7a b5 bc bc e3 ac bc a2 44 9b ba
       0.00844923 -0.022153199 -0.021104686 -0.0011846016
0000f0 19 b3 82 bc 03 9d 19 bc 4a 9d d6 bc 89 82 e7 3c
       -0.015954541 -0.009375813 -0.026198048 0.028260486

conv.0.update_fn.bn.0.running_mean f4 [64]
000000 ef 30 82 3f 45 ce e7 bd d0 eb 8a bf 42 45 39 bd
       1.0171183 -0.1131864 -1.0853214 -0.045232065
000010 1e dd b0 3f c6 d1 39 3f 59 3c 0c bf 7c 6f b8 3c
       1.381748 0.72585714 -0.54779583 0.022514097
000020 d9 3c 1b bd e8 73 23 3f 2e 6f 08 bf 3e fc 0e bf
       -0.037899826 0.63848734 -0.53294647 -0.5585364
000030 93 98 30 bd bc 42 11 bf 86 4a 5b bf eb 59 c5 bf
       -0.043114256 -0.56742454 -0.8566059 -1.5418066
000040 8e 61 f4 3e 43 3a b6 3f 5e 48 49 3f 28 57 14 3f
       0.47730678 1.423653 0.7862605 0.5794549
000050 4c b3 ba be 58 09 31 bf a2 75 8b be 3d 21 50 3e
       -0.36464918 -0.6915488 -0.27238184 0.2032518
000060 e5 dc 80 be cc f5 e0 bd 92 a5 9c 3f ff 80 4f bf
       -0.2516853 -0.10984382 1.2238028 -0.8105621
000070 e6 79 0d 3f 1e ca 75 bf 00 c0 31 bf 15 d9 46 bb
       0.5526413 -0.9601153 -0.69433594 -0.0030341793
000080 6c 5d 5f 3e ed 9c d3 bd 14 21 13 3e 04 ee fe 3b
       0.21812981 -0.103326656 0.14368087 0.0077798385
000090 e4 08 5e bf ff d7 44 3f 5e b9 81 3f 3e 53 b2 be
       -0.86732316 0.76892084 1.0134695 -0.34829134
0000a0 a8 d7 08 3e f8 8a b9 3e 32 25 25 3f 6a f7 c1 bf
       0.13363516 0.36238837 0.6450988 -1.515363
0000b0 15 2c 94 3e 47 4c fa be b8 fb e0 bf 8b 92 a5 bf
       0.28939882 -0.4888632 -1.7576818 -1.2935346
0000c0 47 fa f8 be 0e de 73 3d 1c 4d 4c 3f 24 d0 6e 3f
       -0.48628446 0.05953794 0.7980516 0.9328635
0000d0 8d 3d 8e be 7b f8 61 3f 81 e5 29 be 3d c7 1d 3e
       -0.27781335 0.88269776 -0.16591455 0.15408035
0000e0 7c 5c 8f 3e be a0 02 bf 53 96 76 3f 20 2f 01 bf
       0.28000247 -0.51026523 0.96323127 -0.5046253
0000f0 07 92 51 bf ef 5e 7f bd 85 b5 ec be f6 52 e1 bd
       -0.81863445 -0.062346395 -0.46232238 -0.11002152

conv.0.update_fn.bn.0.running_var f4 [64]
000000 cd f5 51 3f d2 fc d0 3e be 2a d7 3e ae a4 61 3e
       0.8201569 0.40817887 0.42024797 0.22035477
000010 66 6b 7b 3e d0 6f 05 3e ce e4 00 3e f9 04 14 3e
       0.24552688 0.13030934 0.12587282 0.14455022
000020 ef da 12 3e 10 a0 8a 3e fa 3f ac 3e d7 93 b7 3e
       0.14341329 0.27075243 0.3364256 0.3585498
000030 1a 7e 50 3e a0 dd 7f 3e 6c 6a 3d 3e d5 89 55 3e
       0.20360604 0.24986887 0.18497628 0.2085336
000040 36 5f b6 3e 86 64 07 3f eb da 0c 3f 06 40 3a 3e
       0.35619515 0.5288776 0.5502154 0.18188486
000050 43 b8 97 3e d5 7d 18 3f 73 21 7d 3e df a7 5a 3e
       0.29632768 0.59567004 0.24719791 0.213531
000060 2c 51 51 3e 98 c3 09 3e 1a 86 3c 3f c2 0d 91 3e
       0.20441121 0.1345352 0.7364212 0.2833081
000070 f5 62 b7 3e e0 52 b4 3e e5 03 28 3e 44 0e 2d 3e
       0.35817686 0.3521948 0.16407736 0.16899973
000080 89 a1 3e 3e f6 51 48 3e e3 f1 17 3f 3e 79 17 3e
       0.18616308 0.19562516 0.59353465 0.14792344
000090 45 59 ac 3e fa 4c 49 3e 46 b5 42 3e e1 e5 89 3e
       0.33661857 0.1965827 0.19014463 0.26933196
0000a0 36 7e 59 3e 82 cc e5 3d d6 fb f1 3d 76 5b 57 3e
       0.21239552 0.112206474 0.11815612 0.21030983
0000b0 fa 1e 60 3e 98 a1 a4 3e 62 70 79 3e ba de 7a 3e
       0.21886817 0.32154536 0.24359277 0.24499026
0000c0 86 16 32 3e 43 2b 12 3f ce 04 a6 3e 5e c9 11 3e
       0.17391405 0.5709726 0.3242554 0.14236972
0000d0 c6 e3 27 3f 43 69 37 3f 2b 9a 77 3e 91 06 9d 3e
       0.6558193 0.7164499 0.24179904 0.30669072
0000e0 7a 4a 7f 3e 3a d8 8d 3f 50 7f 10 3f bf ef da 3e
       0.24930754 1.1081612 0.56444263 0.42761037
0000f0 b9 a6 78 3e 1a 3f 99 3e 97 ea 4f 3e 6e a6 c7 3e
       0.2428235 0.29930955 0.20304333 0.38994163

conv.1.update_fn.fc.0.weight f4 [64, 64]
000000 e6 1f c3 bd cc 91 03 be a0 ed 97 3d 05 1a f9 bc
       -0.095275685 -0.12848586 0.0741837 -0.030407915
000010 a4 b7 11 3e 27 e8 12 3d a2 18 0d be a5 ad 91 bd
       0.1423021 0.03586593 -0.13778928 -0.07113198
000020 7e 5f 19 3d 5d ba d2 3d 20 d6 ed 3c 23 a1 f3 3d
       0.037444584 0.10289452 0.029032767 0.11895969
000030 3c a1 e0 3d bb 31 a3 bd 14 e2 24 3e d6 97 c9 bc
       0.10968253 -0.0796847 0.16101867 -0.024608534
000040 78 80 53 bd 53 dd b0 3d f7 f5 b7 3d c4 83 85 3d
       -0.05163619 0.08635964 0.08982461 0.06519273
000050 a7 b4 f7 3c 6b ea d1 39 5e a6 73 3b 12 e1 fb bd
       0.030237509 0.0004003824 0.003717802 -0.12298788
000060 d6 cf 6f 3d 71 2b b1 bd 5a a4 a7 bd 38 62 86 bd
       0.058547817 -0.08650864 -0.081856444 -0.065617025
000070 46 cc d7 bb 54 33 2c bd 48 3b b7 3d 5d 52 ce bd
       -0.0065856306 -0.042041138 0.08946854 -0.10074303
000080 4e 43 92 bd fd d1 4f bd 81 7b fd 3d ff 2b 93 bd
       -0.071417436 -0.05073737 0.12377072 -0.07186126
000090 57 7d 02 bd ea ad 4f 3d 9a 97 10 3d 55 61 44 3d
       -0.031857815 0.050702967 0.03530083 0.047944386
0000a0 50 d4 9a 3d d1 ff 14 3d 6f 74 be 3d 83 47 b4 3d
       0.07560027 0.036376778 0.09299552 0.08802702
0000b0 ad c3 39 bd 77 52 2b bd 2d 60 9b 3d 9c 6a 51 3d
       -0.045352627 -0.04182669 0.075867034 0.05112706
0000c0 31 c8 c9 39 c6 be 01 3e 7f b4 3c 3d 3c 6d 02 bd
       0.00038486862 0.1267043 0.046070572 -0.031842455
0000d0 cd 5b 9c 3d 3c c4 1a bd d2 64 9a bd 87 28 ad 3d
       0.07634697 -0.0377848 -0.07538761 0.084549956
0000e0 9f 07 70 3d ac d1 14 bb 45 08 5e bd 0e 3d c7 bb
       0.058601018 -0.0022707982 -0.054207105 -0.0060802763
0000f0 22 2a 58 3d e0 9e 01 bd e9 58 a5 bb 6c 46 b3 ba
       0.052774556 -0.031645656 -0.0050459993 -0.0013677604
000100 25 fd 9b bd e9 4a 0d 3c 37 a7 f4 3d 4d bc 0f bd
       -0.07616643 0.008623817 0.11945956 -0.035091687
000110 c2 37 24 3d cd 3c f2 bd 29 e5 eb 3c 85 b2 95 3d
       0.040092237 -0.11828003 0.028795796 0.073094405
000120 5a 07 1e 3d aa 28 d7 bc 2c 0b 70 3d ff 55 84 3c
       0.03858123 -0.026264507 0.058604404 0.016154287
000130 58 27 35 3c 35 9e 50 bd c4 0d 24 bd 90 de 2d 3d
       0.011056744 -0.050932128 -0.04005219 0.04244858
000140 e2 9e 61 3d 62 e6 84 bd 93 e1 3c bd 05 43 b8 bd
       0.055083163 -0.064892545 -0.04611356 -0.08997158
000150 3e 72 c2 3c 56 1b 88 bb 5f 8a 4d bd 7c ab 29 3e
       0.023736116 -0.0041536493 -0.05018079 0.16569322
000160 cf 02 f3 3d 53 39 03 be e2 d5 ce 3b be 32 11 3d
       0.1186577 -0.12814836 0.006312118 0.035448782
000170 1f 8e dd bd 83 c1 dd bd b2 51 0d 3e d7 03 21 3d
       -0.10818123 -0.10827925 0.13800696 0.039310303
000180 3a 56 6c 3c 1b ce c4 bd 3b f8 e1 3b bf 15 15 3e
       0.014424855 -0.09609624 0.0068960465 0.14559077
000190 de 3a 14 3d f0 de a8 3c 8a f7 0d 3e 80 8d c9 3c
       0.036188953 0.020614117 0.1386396 0.024603605
0001a0 38 6b 64 3d 48 49 9d 3d 79 22 1a 3c 7c 67 81 bc
       0.055766314 0.07679993 0.009407633 -0.015796416
0001b0 6d 3f 33 bd c1 13 1c 3d ad 6f 08 be 1b c8 03 be
       -0.04376166 0.038104776 -0.13323851 -0.12869303
0001c0 ab d0 c7 bd ca 1f c2 3d c1 26 38 bd 0b 2f d7 3d
       -0.09756597 0.094787195 -0.044958834 0.105070196
0001d0 4c a1 29 be 7e 6d ac 3d 8f 6b 6f bd 95 ae 84 3c
       -0.16565436 0.084193215 -0.058452185 0.016196528
0001e0 e5 4a df 3d 90 07 b2 bc 78 19 b2 bd 43 cf 9d 3c
       0.10902957 -0.021732122 -0.08696264 0.01926387
0001f0 e0 08 d7 bd 2e a1 bb 3d a3 30 72 bd e7 77 c2 bc
       -0.1049974 0.09161602 -0.059128415 -0.023738815
000200 3c 48 67 bd fd 92 e8 bd 52 98 24 bd bc 8e 51 3d
       -0.056465372 -0.11356161 -0.040184326 0.051161513
000210 f0 9f 03 3d b7 4a 4a 3c d1 64 1a bd b8 38 af bd
       0.03213495 0.012346915 -0.037693802 -0.0855574
000220 7f bd 95 bd d4 8f 39 bc 84 54 94 bd 52 eb 74 3d
       -0.07311534 -0.011325795 -0.072426826 0.05979473
000230 67 04 3e bd 26 57 57 3d fb ed 81 bd a6 a3 bb 3d
       -0.046390917 0.052573346 -0.06344219 0.09162073
000240 5f 25 28 be 72 e9 35 3d 93 2c 9f ba 03 e2 c0 bd
       -0.16420506 0.044412084 -0.0012144021 -0.09418108
000250 9d 07 91 bd 90 00 88 bd c2 e2 82 bd 56 39 d5 bd
       -0.0708153 -0.06640732 -0.06390907 -0.104113266
000260 a6 fd d1 3d 38 bd 0e 3d ee b0 96 bd cc dc 0c 3d
       0.10253458 0.03484842 -0.073579654 0.034390256
000270 ac 2e 6a 3d 94 03 0a bd b3 da 92 3d 93 71 8d bd
       0.057173416 -0.03369482 0.0717062 -0.06906428
000280 16 1a ad bd da 91 dd bd d4 93 9a bd 52 c0 3e be
       -0.08452241 -0.108188346 -0.07547727 -0.18628052
000290 cf a7 c9 bd be c6 b5 bd e7 6e 95 bd 4e bd 0a be
       -0.0984646 -0.08875798 -0.072965436 -0.13548777
0002a0 61 27 58 3d 99 8e 1f be 12 3d 08 3c 6b bc b7 3d
       0.05277193 -0.1558174 0.008315342 0.08971485
0002b0 ed 3b 84 bc 52 5a 9d 3d 2b 6c 72 bc 36 81 e0 3d
       -0.016141856 0.07683243 -0.014796297 0.10962145
0002c0 7c 9b 0e 3c 51 1e 73 bd 2b 2c 03 3e a2 05 10 bd
       0.008704063 -0.059355084 0.12809817 -0.035161622
0002d0 16 2e 90 bd 49 c6 d9 bd 15 69 21 bd 7f bc a2 3d
       -0.0704004 -0.10633523 -0.039406855 0.07946109
0002e0 0a 07 7e bc 1e 52 8b 3d ec 69 ca 3d 17 1e 36 3d
       -0.015504608 0.06802772 0.09883484 0.04446229
0002f0 80 59 01 be f1 d1 b3 bd cb 0a 47 bd f3 ee 16 3d
       -0.12631798 -0.087802775 -0.048594277 0.036848973
000300 f8 0e a0 bc 8c f6 d4 3b fe f6 bb 3d 49 95 8a bd
       -0.019538388 0.0064991172 0.091779694 -0.06766755
000310 b7 d4 dd 3d 92 0c a7 bd 54 60 de bd cc 40 8c bc
       0.10831588 -0.081566945 -0.10858217 -0.017120741
000320 79 1f 1b bd 94 96 85 3d 3a 7c ac bd 31 69 32 3d
       -0.03787181 0.06522861 -0.08422132 0.04355735
000330 a0 cb 06 3e 2c d0 b3 bd a1 1c ea bd 06 d0 d4 bb
       0.13163614 -0.0877994 -0.11431242 -0.006494525
000340 a8 2c 79 3c 68 85 0b 3e 0e 70 9e 3c f2 8e f7 bb
       0.015208401 0.13625109 0.019340541 -0.007554882
000350 17 2f c1 3c 8e e9 16 bd 23 ac 9b bb 63 3c c5 3d
       0.023582024 -0.03684383 -0.004750745 0.096306585
000360 ec 15 2a 3d 13 55 34 bd 7b 63 6b 3d 87 1d d6 3d
       0.041524813 -0.044026446 0.05746792 0.10454851
000370 e4 4e 8a 3d 38 23 d5 3d 51 1f ac 3c 9d 13 0c 3d
       0.067533284 0.10407108 0.021011027 0.034198392
000380 98 25 c6 bc 17 ce 63 bb 12 f5 c9 3d de d6 c7 3c
       -0.024187848 -0.003476029 0.098611966 0.024394449
000390 88 e9 f5 3d fb d4 c0 3d f9 3f df 3d 7b fa 4f 3d
       0.12007433 0.09415623 0.10900874 0.050775986
0003a0 87 09 6c bd 92 bb a5 3d 86 20 f7 bd ce ba 30 3a
       -0.057626273 0.08092417 -0.1206675 0.0006741703
0003b0 8c 84 84 bd 17 ee b0 bd 85 a4 06 be 50 b0 53 bd
       -0.06470594 -0.08639162 -0.13148697 -0.051681817
0003c0 6f 38 f4 3d f1 ee 80 bd 1c 27 cf bd 66 91 c2 3d
       0.11924826 -0.062955745 -0.101148814 0.09500389
0003d0 05 4a eb bd ae bc 8b 3b 02 ef f3 bd 70 2a 84 3c
       -0.114887275 0.0042644357 -0.119108215 0.016133517
0003e0 7d 1b d7 bd 06 59 81 3d a8 2e c8 ba 84 15 87 3d
       -0.1050329 0.06315808 -0.0015272694 0.06595901
0003f0 a1 bb 3d 3d 89 a7 39 bd 6d 2a f8 3d c9 26 30 bd
       0.046321515 -0.04532579 0.12117467 -0.04300574

conv.1.update_fn.fc.0.bias f4 [64]
000000 9f cd d0 bd e2 ba 47 bd 6a 10 a8 3d 9d b9 1f 3d
       -0.10195469 -0.04876221 0.08206256 0.038995374
000010 52 50 88 3d 93 3e 96 3a b0 78 c3 bd 60 91 49 3d
       0.06655945 0.001146274 -0.09544504 0.049210906
000020 e7 f7 eb 3d b3 8b 1f 3c 15 a4 01 bd 45 4a fc 3d
       0.11521893 0.009737897 -0.03165062 0.12318853
000030 dc 60 b7 3d f8 3a e3 bc 6a 97 94 3d f2 f7 92 3b
       0.08954021 -0.02773808 0.072554424 0.004485124
000040 45 2e 93 bd b8 31 22 3d b5 bd cc bd 43 65 f1 3d
       -0.071865596 0.039598197 -0.09997121 0.11786892
000050 e5 66 fa bb c3 fd 7e bd d0 4f 7b bc e9 e0 9a bd
       -0.0076416605 -0.062253725 -0.015338853 -0.075624295
000060 90 5f 5a bc ef 42 96 3d 74 3b f4 bd e9 d9 a5 bd
       -0.013328448 0.07336985 -0.11925402 -0.08098204
000070 b8 ee f2 3d 66 e6 9f bd a5 f2 91 bc 7a b2 49 bd
       0.11861938 -0.07807617 -0.017815897 -0.049242474
000080 1a a6 c0 3c c4 c4 f8 bd 21 6d c3 bd b7 c1 99 3d
       0.023516703 -0.12146905 -0.09542299 0.07507651
000090 6b ec 08 bd 27 fc 8d 3c 3b b1 72 3d f4 64 b5 3d
       -0.03342859 0.01733215 0.05925105 0.08857146
0000a0 04 68 d5 3d 78 79 a1 bc fe 82 da 3d 8f 7c 83 3d
       0.1042023 -0.019711241 0.10669516 0.06420242
0000b0 42 61 50 bd a1 0a 91 3d 7f 5e 47 3d ac f4 ad bd
       -0.050874002 0.070821054 0.048674103 -0.08493933
0000c0 f5 f7 ae bd 1b 0a 90 bc ed 5c a2 bd 21 08 71 3d
       -0.08543388 -0.017582944 -0.079278804 0.058845643
0000d0 3c 8f a9 bc 0b 33 27 bd ee 8e 0c 3d dc cd 33 3d
       -0.020698182 -0.040820163 0.034315996 0.043897495
0000e0 ee 39 80 bd dd 45 fd 3d 8a d9 f2 3c a9 3e e0 bb
       -0.06261049 0.12366841 0.029644746 -0.006843407
0000f0 1a f0 16 3d 28 0b 87 bc 85 e8 fe bd de 90 5b 3d
       0.036850072 -0.016484812 -0.12446693 0.053604953

conv.1.update_fn.fc.1.weight f4 [64, 64]
000000 16 61 4b 3c 1d 12 ff 3c f6 b9 ec 3c b1 ce a8 bd
       0.012413284 0.031136567 0.028897267 -0.08242548
000010 61 f6 d2 3c 1a c1 79 3d a8 a3 43 bd e1 24 a6 3d
       0.025752248 0.06097517 -0.047763497 0.08112503
000020 0d e9 3a 3d 6d e9 9a 3c 4e f7 ad 3b a5 41 78 3d
       0.04563241 0.018910134 0.005309022 0.06060948
000030 fb 08 e1 bd 82 b3 32 bd 3a b4 7f 3c 2a 04 ce 3c
       -0.10988041 -0.043628223 0.015606934 0.02514847
000040 f5 95 af 3d 52 79 8b 3d fa 49 fe 3c 79 ea 04 be
       0.08573524 0.068102494 0.031041134 -0.12980069
000050 3d 40 f0 3d db 24 b7 3d 6e ef 53 3d e0 da d3 bd
       0.117310025 0.089425765 0.05174201 -0.103444815
000060 de eb 0d 3e 51 24 43 3d bc f2 bd bc d6 3a 50 bd
       0.13859507 0.047642056 -0.023187034 -0.05083736
000070 e3 62 ae 3d 6d 67 02 be fe cb 41 3e 9c 49 c6 3d
       0.08514955 -0.12734766 0.18925473 0.096820086
000080 08 0b a2 bd e5 a0 ad bd 2b 99 9e bd ce 56 50 bd
       -0.0791226 -0.08477954 -0.07744058 -0.050864033
000090 da 52 6c bd 6d 25 3c bd cb 0d ea bb c4 7d f0 bd
       -0.0576962 -0.04593413 -0.0071427575 -0.11742738
0000a0 1d 3d 7f bd da 9f 2b 3d 8d 8b 36 be de ff a4 bd
       -0.06231414 0.041900493 -0.17826672 -0.08056615
0000b0 b4 37 a4 3d 95 14 ea bd 2b bb 9f 3d 97 3f b0 bd
       0.08018437 -0.11429707 0.07799371 -0.08605879
0000c0 d2 92 09 be 20 97 b7 3d 29 ea 04 3c 9e 5a 4e bc
       -0.13434914 0.08964372 0.008112469 -0.012594847
0000d0 97 d1 bd 3d 63 16 c2 3d f9 75 27 bd 24 27 1e 39
       0.09268492 0.09476926 -0.040883992 0.00015082635
0000e0 8d fe 16 bd 47 6f d7 3d 58 2a e2 3d dc ee dd bd
       -0.036863852 0.10519271 0.11043233 -0.108365744
0000f0 b7 ba cf bd 1f 61 a0 3d b4 4e aa bd 71 fe bc bd
       -0.10143035 0.078310244 -0.08315793 -0.09228218
000100 08 52 d1 3d 57 96 f6 3d 77 0e 80 3d ef ea 84 bc
       0.10220724 0.12040394 0.06252759 -0.016225306
000110 c9 35 30 bd e1 96 cc bd 63 3b 14 3d df 3d 24 3d
       -0.043020044 -0.09989715 0.036189448 0.040098067
000120 79 23 ff 3c 9d 2b bd 3d 6f b0 b8 bd 21 29 5e bd
       0.031144844 0.09236834 -0.09018027 -0.054238442
000130 b5 03 20 3d 6a 64 29 3c 5c 92 df 3d 1b ab 90 3d
       0.039066035 0.010338882 0.10916588 0.07063886
000140 d5 f6 d9 bb 8e 22 ab 3d 69 e5 dd 3c ff be a2 3d
       -0.006651739 0.083562 0.02708693 0.07946586
000150 7c 6b 68 bd d5 19 cd 3d c9 65 f2 3d 5c 05 c8 3d
       -0.05674313 0.10014693 0.1183582 0.09766647
000160 30 51 b8 bc 31 06 cd 3c ae e5 91 bc c0 b2 c1 bd
       -0.02249965 0.025027366 -0.017809715 -0.09457922
000170 91 e4 95 bd 34 98 6f 3d 92 54 27 3c 7a f9 f1 3d
       -0.07318986 0.05849476 0.010213034 0.11815162
000180 6c 59 88 bd 09 41 9c 3d a3 f6 8a 3d f7 f8 2b bb
       -0.06657681 0.07629592 0.067853235 -0.0026240924
000190 e9 0e 41 bc 22 a2 5f 3d 98 01 1b 3d e7 80 69 3d
       -0.01178334 0.05459798 0.037843317 0.057007696
0001a0 a9 e3 ca 3d fd 62 d5 3d 86 7d ff 3d 0c 42 6a 3d
       0.09906704 0.10419271 0.124751136 0.057191893
0001b0 61 26 4b 3d a2 66 24 3d 0c 12 d7 3d f7 f1 81 bd
       0.049597148 0.04013694 0.10501489 -0.06344979
0001c0 16 5d b2 3d 30 24 4d 3d 52 de 29 3d e0 41 cc 3c
       0.08709161 0.05008334 0.041471787 0.024933755
0001d0 29 2b ba bd 96 36 52 3c 2d c3 22 bc 4a 49 7f bd
       -0.090902634 0.012830397 -0.009934229 -0.062325753
0001e0 99 86 93 bc 07 47 75 3c 5f f6 79 bd 88 eb 16 be
       -0.018008517 0.0149705475 -0.061025973 -0.14738286
0001f0 c1 85 25 3c 3d d1 be bd 3d f7 62 3c c3 b5 df bd
       0.01010269 -0.09317253 0.0138528915 -0.1092334
000200 01 fa ba 3d 37 2b 0e be 43 9c e4 3d 76 29 46 3d
       0.09129716 -0.13883673 0.11162617 0.048379384
000210 b9 00 05 bd 02 8d 5c bd c5 f2 b6 bd 06 fe e0 3c
       -0.032471392 -0.053845413 -0.08933023 0.027464878
000220 e3 bb cb bd 74 aa 21 be e8 c1 7f bc dd cf 19 bc
       -0.09947946 -0.15787679 -0.015610196 -0.009387937
000230 80 4f a2 3d 98 d4 fd 3d 33 fb 6e 3d 21 0f 84 bd
       0.0792532 0.12394065 0.05834503 -0.06448198
000240 18 cf a6 3d 93 ae e3 bd 0e be b5 3c 3b cf 51 bd
       0.08144969 -0.11117282 0.022185352 -0.05122302
000250 32 88 dd bd 4e bd 6d 3d cf 39 59 bd 3e cb 87 bc
       -0.10816993 0.058041863 -0.053033646 -0.016576406
000260 5c 08 7a bd c1 7b ab bd 81 97 c3 bc 6d f8 b3 bd
       -0.06104313 -0.083732136 -0.023875954 -0.08787618
000270 30 bb 39 3d 5b 68 fb bd 32 68 f5 bd 07 67 43 3d
       0.04534453 -0.122757636 -0.11982764 0.047705676
000280 14 67 1e 3d 64 fa ae bd 52 a3 c6 bd 17 bc 8f 3d
       0.03867252 -0.08543852 -0.0969912 0.07018297
000290 b4 d7 ff 3d 42 eb 7f 3d ed 89 64 bd ca e8 ab bd
       0.12492314 0.06248022 -0.0557956 -0.0839401
0002a0 86 17 9c 3d 4f 23 8c bd 5f 77 f3 3d 95 5a 0b bd
       0.07621674 -0.06842672 0.118880026 -0.034021933
0002b0 77 60 6c 3d f3 c6 83 bd b4 f2 58 3d 21 20 cf 3d
       0.057709184 -0.06434431 0.052965835 0.1011355
0002c0 ce 7a 9b bd f2 1f c8 bc 03 f4 94 bc 4e 1a af bd
       -0.075917825 -0.024429295 -0.01818276 -0.08549939
0002d0 fa 22 eb 3d f2 e1 d7 bd d6 05 c9 3d 31 76 f3 3d
       0.114812806 -0.105411425 0.09815566 0.118877776
0002e0 83 b0 fb bd 27 f3 5a ba 48 22 0b be 8c 1b d6 bb
       -0.12289526 -0.00083522726 -0.13587296 -0.0065340456
0002f0 a6 d3 6e bd 32 ae 22 bd cb c9 35 bd 51 38 0a bd
       -0.058307312 -0.039716907 -0.044381898 -0.033745114
000300 44 9c e3 3d a3 ed 99 bd 63 54 9c 3d 41 57 aa bd
       0.1111379 -0.07516029 0.07633283 -0.083174236
000310 32 78 bf 3c 6c a8 f9 bd 00 25 97 bd a6 51 0a be
       0.023372743 -0.12190327 -0.07380104 -0.13507709
000320 64 00 13 bd 69 31 c6 3c ff 30 e3 bd f1 9a 42 3d
       -0.035889044 0.024193482 -0.1109333 0.047511045
000330 47 35 78 3d a8 41 39 3d 47 24 7f 3d 69 c2 61 3c
       0.060597684 0.04522863 0.062290456 0.013779261
000340 1c cc 2f be 93 6d aa bd b7 97 d2 bc 41 30 26 3d
       -0.17167705 -0.08321681 -0.025707109 0.040573362
000350 55 02 83 3a fc 3b d4 bd bf d5 29 bd ef a8 a2 bc
       0.0009995202 -0.103630036 -0.04146361 -0.019855944
000360 66 ec e9 bc 75 87 e6 bd 3a 04 f3 bc 18 0c 0d 3e
       -0.028555106 -0.11256305 -0.029665101 0.13774145
000370 0f cb 9c 3d 78 a6 17 3d 74 2b e4 bc f9 df a3 3d
       0.07655918 0.03702399 -0.027852751 0.08001704
000380 76 83 06 bc 26 b4 cd 3d f4 c1 4c bd 65 49 8d bb
       -0.008210054 0.10044126 -0.049989656 -0.004311728
000390 2a 39 d3 3d cb 30 ae 3c d0 05 a9 3d 19 b2 75 bc
       0.103136376 0.0212635 0.08253062 -0.014996075
0003a0 40 f1 ad 3d 99 84 d5 bb de 87 09 3d e0 4d 96 3d
       0.084932804 -0.006516051 0.03357684 0.07339072
0003b0 3f 2c 3e bd 5b c8 e2 bd da fc 0d be 71 44 00 bd
       -0.046428915 -0.11073371 -0.13865986 -0.03131527
0003c0 1f 52 3a bd fd 1c 09 be f5 ff af bd 16 df b0 3d
       -0.045488473 -0.13389964 -0.08593742 0.086363
0003d0 0b 0c 66 3d 1b 2c 84 3d 09 19 90 bd 50 3b 79 3d
       0.05616383 0.06453725 -0.07036025 0.06084758
0003e0 bc b9 2c bd ca c3 93 ba 1c 1f 98 3d 43 9c 50 bd
       -0.042169318 -0.001127356 0.07427809 -0.050930273
0003f0 89 72 f2 bd 31 ba 05 bd e5 71 60 bd 3e d2 18 3d
       -0.11838252 -0.03264827 -0.05479612 0.037309878

conv.1.update_fn.fc.1.bias f4 [64]
000000 81 86 92 bd 18 87 d1 bd b9 3a cd bc 16 27 47 3d
       -0.07154561 -0.10230845 -0.025052415 0.04862126
000010 2e 6f d3 bd 96 3e ad 3d 18 ab 78 3d da 83 a5 bd
       -0.1032394 0.08459203 0.060710043 -0.08081789
000020 c7 03 ce bd 9e 3f cb 3d 15 e7 c9 3d 64 3d ab bd
       -0.10059314 0.099242434 0.098585285 -0.08361319
000030 e0 2e db 3d d4 8a 4f 3d 20 92 b7 3d 1d 7a dc bd
       0.107023 0.050669506 0.08963418 -0.10765479
000040 02 9c 64 bb 44 cb e3 3c 31 9a 6d bd b0 79 02 3e
       -0.0034883027 0.027806886 -0.058008377 0.12741733
000050 bb 24 32 3c 78 35 f0 3d f5 64 e9 bd c4 fa fd 3d
       0.010873015 0.11728948 -0.11396209 0.12401345
000060 5a 06 11 bd 0e 0b d6 bd 65 53 f3 3c 0a 89 08 3d
       -0.035406448 -0.10451327 0.029702852 0.033333816
000070 ee 97 84 bd 70 ef 91 3d db ed a5 bd 21 f4 99 3d
       -0.06474291 0.07125747 -0.08102008 0.07517267
000080 40 39 c5 3b 38 e3 b9 bd b9 aa 8f 3d 24 65 a3 3d
       0.0060187876 -0.09076542 0.07014985 0.079782754
000090 d6 f3 a0 bc 4c 3d b4 bd 9b b8 49 3d 39 04 9d bc
       -0.01964752 -0.08800754 0.04924832 -0.019167053
0000a0 f4 6a f3 3d ab fa e2 3d ad 49 cb bd 79 14 2e bd
       0.11885634 0.11082967 -0.09926162 -0.042499993
0000b0 8d e1 2f bd 3a 2f d7 3c b4 37 a5 bd 61 d4 a4 bd
       -0.04293971 0.026267637 -0.08067265 -0.080483206
0000c0 4b 18 f1 bc 98 4c b1 bd bf 69 af 3d ad f5 32 bb
       -0.02943053 -0.08657187 0.08565091 -0.0027307079
0000d0 7d 41 63 bd fd 57 99 bc 18 63 c6 3d 97 a5 63 3d
       -0.055482376 -0.018718714 0.096868694 0.05557784
0000e0 7f f5 93 3b 1c c3 69 bd 08 4d c8 3c c6 47 c9 bc
       0.0045153494 -0.057070836 0.024450794 -0.024570357
0000f0 af 29 32 3d 77 45 8f bc a9 a7 c0 3d c3 70 b5 3d
       0.043496784 -0.017489178 0.09406979 0.08859398

conv.1.update_fn.bn.0.weight f4 [64]
000000 0e 64 80 3f 3d a6 80 3f 82 1e 82 3f 21 83 78 3f
       1.0030534 1.0050732 1.016556 0.97075087
000010 42 df 81 3f 1d 66 7d 3f d7 62 76 3f dd 1d 84 3f
       1.0146258 0.9898394 0.9624457 1.0321614
000020 53 79 79 3f 06 3d 82 3f 2e 96 7c 3f ff 2a 7d 3f
       0.9745075 1.0174873 0.98666656 0.9889373
000030 61 cd 77 3f e7 42 82 3f 1e 9d 7d 3f 08 2c 7b 3f
       0.9679776 1.0176667 0.99067867 0.9811406
000040 0a 2d 81 3f 47 28 84 3f 06 0d 80 3f 3e ee 80 3f
       1.009187 1.0324792 1.0003974 1.0072706
000050 8e 54 80 3f ec 71 7c 3f 0f 54 7e 3f b2 7c 7b 3f
       1.0025804 0.9861133 0.99347013 0.98237145
000060 67 7b 84 3f 47 09 7f 3f 8b f0 83 3f 2e be 84 3f
       1.035016 0.9962353 1.0307783 1.0370538
000070 eb 3e 7b 3f 33 99 7a 3f 3c 77 87 3f 95 b2 7f 3f
       0.9814288 0.97890013 1.0583262 0.9988187
000080 f8 42 7c 3f e8 53 7f 3f d4 89 83 3f de d0 7a 3f
       0.98539686 0.99737406 1.0276437 0.97974956
000090 f0 53 7a 3f 89 9a 7e 3f bc 32 7e 3f f5 e3 7d 3f
       0.9778433 0.9945455 0.99296165 0.9917596
0000a0 27 76 84 3f bf 7a 78 3f d3 32 83 3f 06 a3 75 3f
       1.0348557 0.97062296 1.0249885 0.9595188
0000b0 73 b9 71 3f 69 6d 78 3f 37 7a 80 3f e2 0e 81 3f
       0.944236 0.97041947 1.0037297 1.0082667
0000c0 f5 c2 83 3f 45 8e 80 3f 59 74 77 3f 3d 28 82 3f
       1.0293871 1.0043417 0.9666191 1.016853
0000d0 f5 80 81 3f 3e e7 7c 3f c6 79 84 3f cb 8c 7c 3f
       1.011748 0.9879035 1.0349662 0.98652333
0000e0 82 4a 80 3f 8d 77 7f 3f bb a6 80 3f e7 82 80 3f
       1.0022738 0.99791795 1.0050882 1.0039948
0000f0 a0 4e 84 3f 3a fc 78 3f f9 ef 78 3f ea 09 81 3f
       1.0336494 0.9725987 0.9724117 1.008115

conv.1.update_fn.bn.0.bias f4 [64]
000000 35 de b8 bc a3 c6 95 bc d2 92 22 3d 3e a7 32 bd
       -0.022566894 -0.018283194 0.0396908 -0.043616526
000010 8c 92 f0 3c 7b d1 a9 bc b3 bb 82 bd a9 3f 6e 3c
       0.029366754 -0.02072977 -0.06383457 0.014541545
000020 ab 9c 2b bd 51 79 6e 3d 9d 80 a4 bc 3a db 98 bb
       -0.041897457 0.058221165 -0.020080859 -0.0046648057
000030 ab 18 79 3c ac a1 14 3b 6a b8 96 3a 79 9f 23 bd
       0.015203635 0.0022679372 0.0011499051 -0.039947007
000040 95 d8 d5 3c 56 0b 54 3c 35 8b 1b bc a5 f5 b4 bc
       0.02610425 0.012942156 -0.009493639 -0.022089789
000050 23 13 d7 bb 11 c4 93 3a 62 eb 0b bd b9 2a 7b bd
       -0.0065635606 0.0011273642 -0.034160025 -0.06132004
000060 39 a0 14 3d 74 89 90 ba 91 21 e4 bc 37 7b f0 3c
       0.036285613 -0.0011027292 -0.027848037 0.029355628
000070 f7 df ce bc c3 71 37 bd 74 1c b8 bc f1 f5 ff 3b
       -0.02525328 -0.044786226 -0.022474505 0.007811301
000080 79 6d 46 bc 9f cc d3 bb 74 0f a5 bc cc a9 a8 bb
       -0.012111061 -0.0064636017 -0.02014897 -0.0051471945
000090 07 59 53 bb 2e df 9f bd 12 8a a7 3c 4b 4c 27 bd
       -0.003224911 -0.0780624 0.02045158 -0.040844243
0000a0 3f 8d 8e 3c a2 c8 80 bd 2f 77 06 3c ec 5d 92 bd
       0.017401336 -0.06288268 0.0082071265 -0.071468204
0000b0 60 28 77 bd ac 96 6a bd 16 0b aa 3c fd 84 b9 3c
       -0.06034124 -0.0572726 0.02075724 0.022646422
0000c0 95 62 08 3c 5f 22 56 bc dd ed 0f bd bd e8 1a bc
       0.008324285 -0.013069718 -0.035138953 -0.009454903
0000d0 be eb ad bc e8 0d 3e bc 7d 2a 75 3d 34 85 c8 3c
       -0.021230575 -0.011599995 0.059854973 0.024477579
0000e0 81 16 7c bc 3f 5b b4 bb e7 39 2d bd 16 75 10 bc
       -0.015386225 -0.0055040414 -0.042291548 -0.008816978
0000f0 31 aa 4a bd b8 d3 2d bd 97 8c 41 3c 4b ce 63 3b
       -0.049478713 -0.04243824 0.011813304 0.0034760411

conv.1.update_fn.bn.0.running_mean f4 [64]
000000 8a 78 88 3f 4c 00 b9 3e 67 86 3e c0 ff e5 77 3f
       1.0661786 0.3613304 -2.9769533 0.9683532
000010 4c 4c e0 3d 8d 9c d4 bf e2 51 90 bf 5e ed bb bf
       0.109520525 -1.6610276 -1.1274989 -1.4681814
000020 84 fb a1 bf 3d d9 2e 3e 62 08 16 bf 48 be 77 3f
       -1.2654881 0.17075057 -0.5860654 0.9677472
000030 71 7f 54 40 72 3c fa bf 26 ea 35 c0 af fb 55 3f
       3.3202784 -1.9549696 -2.8424163 0.83587164
000040 6c c8 5c c0 4e 8c 2e 3f da df 47 40 83 86 8b 3f
       -3.4497328 0.6818284 3.1230378 1.0900425
000050 dd ce 94 3f 54 87 c3 bf 38 2f 12 c0 e9 d0 60 3f
       1.162563 -1.5275674 -2.284132 0.8781877
000060 0b d1 02 be e8 ab 88 bf b8 e0 f3 3e 1e f4 7b 3f
       -0.12775056 -1.0677462 0.47632384 0.9841937
000070 22 3d 62 be 69 3c 45 3e 17 2c 8b bf cf cc 19 be
       -0.22093633 0.19261326 -1.087283 -0.15019535
000080 1e 4c bc 3d 53 52 ec bf 47 bd 35 bf 7c fe 0d 3f
       0.09194206 -1.8462623 -0.7099194 0.5546644
000090 8e c3 b0 be 9e df 26 40 ac 03 f0 3f 8e f0 ff bf
       -0.34524196 2.6073985 1.875112 -1.9995286
0000a0 af b9 2e bf be 6a 7e bf d6 35 4e c0 90 e2 8a 3f
       -0.6825208 -0.99381626 -3.222036 1.0850391
0000b0 ad 41 bd bf 7d 12 e0 3e 80 39 11 c0 6b d0 75 bf
       -1.4785668 0.43764105 -2.2691345 -0.96021146
0000c0 f3 f0 a4 3e ad da f9 3e 66 86 0e c0 d4 02 bd bf
       0.3221508 0.4879965 -2.226953 -1.4766488
0000d0 ca ae c4 bf 6f 84 f5 bf 1f 09 02 40 cc 21 d8 be
       -1.5365841 -1.918104 2.0318067 -0.42213285
0000e0 d3 99 d0 be c1 f6 c0 3f 61 e4 55 bf 9e a1 0d bf
       -0.4074236 1.5075303 -0.83551604 -0.55324733
0000f0 eb b2 fc 3e 81 d9 c0 3d 99 e4 3a bd 82 6d a6 3c
       0.49355254 0.094164856 -0.045628164 0.02031589

conv.1.update_fn.bn.0.running_var f4 [64]
000000 bc c2 3c 40 14 1f 47 40 ee 0f 96 40 82 0a de 3f
       2.9493856 3.1112719 4.6894445 1.7346957
000010 3a 06 95 40 3f b2 4d 40 17 cf 1a 40 7f 18 e2 3f
       4.65701 3.2140043 2.4188898 1.7663726
000020 43 7c 0d 40 b9 da 0c 40 93 f7 19 40 a3 b2 30 40
       2.2107093 2.2008498 2.4057357 2.7609031
000030 49 75 87 40 87 6b 60 40 e5 5b 9b 40 a7 d5 1c 40
       4.233067 3.506563 4.8549676 2.4505403
000040 93 48 a9 40 69 9b 1e 40 77 e2 6c 40 5d 8a 0a 40
       5.290109 2.4782355 3.7013223 2.164695
000050 cb ef 31 40 22 0b 81 40 df 35 0a 40 56 1d 0e 40
       2.7802608 4.032609 2.159538 2.2205405
000060 a9 9c b5 3f 89 7f f4 3f 50 c2 12 40 18 d7 19 40
       1.4188434 1.9101421 2.29311 2.4037533
000070 ec 1d 85 40 df 7a c4 40 a7 67 b0 3f 8f 6c cf 3f
       4.1599026 6.139999 1.3781632 1.6205004
000080 55 35 93 3f 6e ca 2e 40 3e 58 c4 3f ba b2 47 40
       1.1500651 2.7311053 1.5339429 3.1202836
000090 3d ac 0c 40 3e ab ee 3f 18 22 dc 3f db 58 66 40
       2.1980126 1.8646009 1.7197905 3.5991733
0000a0 19 d9 86 40 1b ca 00 40 b5 16 08 40 14 90 89 40
       4.214001 2.0123355 2.126386 4.2988377
0000b0 2d 56 06 40 7b 73 15 40 04 80 1d 40 9d 58 21 40
       2.0990098 2.3351734 2.4609385 2.5210335
0000c0 95 ca 68 40 5c 28 fb 3f cc 3d 2b 40 f3 5e d7 3f
       3.6373646 1.9621692 2.6756468 1.6825851
0000d0 50 4d da 3f 74 b0 ce 3f 4e 89 30 40 57 04 ed 3f
       1.7054844 1.6147599 2.7583804 1.851695
0000e0 89 6d 00 40 28 77 57 40 da 01 31 40 2c f7 1a 40
       2.0066855 3.3666477 2.765738 2.4213362
0000f0 4d e0 c9 3f c4 24 08 40 34 07 e4 3f e8 1d d8 3f
       1.5771576 2.127244 1.7814698 1.6884127
