datasets/bioinformatics/PROTEINS/backups/results/temp/9/GSN_sparse/checkpoints/checkpoint.pth.tar (torch, 496034 bytes, 142 tensors)

conv.0.update_fn.fc.0.weight f4 [64, 81]
00000000: b5b5 6d3d 620a 523c 68c0 633d 69f3 1cbd
00000010: 27dd cc3c 41da f8bd 0443 90bd f84d 163d
00000020: 09aa 8cbd 2179 c93d fa56 9b3c 4f80 2c3d
00000030: 6f3d 363d 97e9 da3d 39a1 903d f6c0 11be
00000040: 5f22 c43d cf39 383e 8ac0 d3bd f110 cabd
00000050: 70cb 0e3c ae6b e5bc 67d8 353c 1118 9d3d
00000060: 9b92 c0bd c137 093e c992 aebd 7cf4 83bd
00000070: 76ee 573d 7e14 31bc 7d98 f0bd e7c5 093e
00000080: 054e e3bd 0f8f adbb 5ca0 9c3d 8262 f03d
00000090: 7545 68bd 5a39 49bc 36d7 a1bd 8cba 733d
000000a0: d06d 4a3c 9fe3 53bd a02f 2dbb 7a69 c83d
000000b0: aac0 9abc ca99 b93d 3a0d 34bd 7810 6c3d
000000c0: 30cd 70bd fde4 f43c 9e25 7a3c ad47 a0bd
000000d0: c82d a93d 4bdc ab3d b1ca 03be fd26 a33d
000000e0: 86d9 143d 4845 be3d b8ca 8cbd b0c5 00be
000000f0: b690 32bd d53d 18bc 2cce 873d ea65 afbd
00000100: 0b9e c03d f7ca 93bd 1fdc 3abc f04a b9bd
00000110: 2632 ca3a a71d e1bb 4f92 263d 2bf0 95bd
00000120: 864f e53d 9c19 58bd 7afa 2d3d 15be 90bd
00000130: f0ed 833d 73fa cbbc c43c 053e 4f98 003d
00000140: caa0 7cbc 8910 9fbd 8abe d2bd 5f1f 7f3d
00000150: 5557 6dbb b6ac 61bd 9fd1 103e 7b14 9abd
00000160: 50e4 eabd 6053 f43c 11fb 553d 20f2 d9bd
00000170: 3a28 503d 5012 2ebd faea 85bd 5261 da3d
00000180: 7753 babd c579 34bd c72e e3bd 0b9f afbd
00000190: 6944 4a3c fb7e 5fbd ccaa 0e3d 00bf 8abd
000001a0: 42b9 353b e109 c93d d5e7 34bc 3d99 cdbd
000001b0: ea35 06bc c6e9 453d 043e 63bc 8140 6739
000001c0: e5e4 bc3d b749 c43d eb06 96bd 4911 00be
000001d0: a226 99ba 2b59 e03d 8b55 6fba 7b93 a8bd
000001e0: e3e2 df3c bc14 4a3d b327 db3d 5ef3 953d
000001f0: 944e e8bd d2d9 b0bc 3364 99bd e2fe eabd
00000200: d63b c03c 0faa 7dbd 188e 933b 3c6c 06bd
00000210: 0865 8cbd a368 b5bd 6c69 b1bd 0b03 d23d
00000220: f525 ea3d 0b66 b2bc c33b 90bd d351 4d3b
00000230: 9b49 973d 49d9 eb3d dd1b a7bd 8dee aabd
00000240: d0f7 bbbd a25a 813d 0582 73bc b5e5 9bbd
00000250: 9762 11bd 95a4 dd3c cabc 8ebd 59cf b13c
00000260: afed 16bc a9a6 733d 4fd7 14bc a410 c3bd
00000270: c4b2 573a 5323 383b 3748 e7bd 88d2 82bc
00000280: 6676 cfbd 7c74 13bd 3d9d f63d 76b5 1abe
00000290: 7f0e b63d da0e b9bd 1980 94bd b3be a5bd
000002a0: 15fa 7fbd 92c3 5bbd 3913 0ebe f96d dabd
000002b0: 55e5 e63d b059 043e c029 fcbd b64c bdbd
000002c0: 70b6 83bd f23e b73d a7da 163e 724e d03c
000002d0: 59ef 5b3d f85f 83ba 6548 a8bd bdb4 513d
000002e0: d0da 413c 7697 f2bc de17 663d 13c4 723d
000002f0: 5eb7 823d c28a b7bd a78a 113e 5558 033e
00000300: 105b 8cbd e631 703d e59a debd 990f b63d
00000310: 3bf7 1e3e 1e0a 77bc fb4a c33d 801c 19bd
00000320: 8c44 39bd 91a2 e9bd b586 f73d a66d af3d
00000330: a308 c33d a841 e9bc 146f 0bbb 46e9 1e3a
00000340: 760b 3dbd d048 f53c 6f02 53bc a68d 453d
00000350: 7ed1 eabd 31fa 68bd 223c f83d f88e 9f3d
00000360: 11d5 e03d 9af8 9b3d c7bd cb3d ad12 993d
00000370: 0be3 a23d 0a12 a6bd 2c3e 813c 090f 9b3d
00000380: 9295 74bd 4bcf b73d e1e5 683d d442 853c
00000390: 1751 a93a d370 4dbd 2310 eb3d 3a42 823c
000003a0: 750e a0bd 3746 d83d 41bd 323b 39a2 ddbb
000003b0: ce6d fabc f26a 8e3c 6a62 803d ef7b bdbd
000003c0: 3399 e7bd 940c 67bd 617d e13d afab b3b7
000003d0: d5f1 6bbd 9a6a 3fbd f568 c23c e980 56bd
000003e0: 0403 e7bb b642 ba3d fc14 bbbc c121 aa3d
000003f0: 96eb 38bd 6420 00bd 85b3 873c 30ca 653c
0.058034617 0.012819858 0.055603415 -0.03831807 0.025007797 -0.12151004 -0.07044032 0.03669545
-0.06868369 0.09837557 0.018962372 0.042114552 0.04449218 0.10689085 0.07062001 -0.14233765
0.09576868 0.17990802 -0.10339458 -0.098665126 0.0087154955 -0.028005447 0.011098958 0.07670606
-0.09402963 0.13400175 -0.08524091 -0.06443116 0.05271765 -0.010808108 -0.11747835 0.134544
-0.110988654 -0.005296595 0.076477736 0.11737539 -0.056706864 -0.01228174 -0.07902376 0.059504077
0.012355283 -0.05173075 -0.0026426092 0.09785743 -0.018890698 0.09062536 -0.043957926 0.057632893
-0.058789432 0.029894346 0.015267758 -0.07826171 0.08260685 0.08391627 -0.1287029 0.07966421
0.03634026 0.09290558 -0.06874603 -0.12575412 -0.04359504 -0.009292086 0.06631121 -0.085643604
0.09405144 -0.07216447 -0.01140502 -0.09047496 0.0015426322 -0.00686999 0.040666874 -0.07321199
0.111968085 -0.052758798 0.0424752 -0.07067505 0.06441867 -0.024899697 0.13011461 0.031395253
-0.0154191945 -0.07766826 -0.10290249 0.062285777 -0.0036215384 -0.05509635 0.14142464 -0.075234376
-0.114693284 0.029824913 0.05224139 -0.10641885 0.050819613 -0.042497933 -0.06538959 0.106630936
-0.09097951 -0.04406144 -0.110929064 -0.08575257 0.012345412 -0.054564457 0.034830853 -0.067747116
0.002772883 0.098163374 -0.011041601 -0.100389935 -0.008191565 0.048318647 -0.013869766 0.00022053906
0.09223346 0.095843725 -0.07325538 -0.12506594 -0.0011684487 0.109545074 -0.00091298734 -0.08231255
0.027329868 0.04933618 0.107009314 0.07321809 -0.113431126 -0.02158824 -0.074898146 -0.11474396
0.023466032 -0.06192976 0.004503023 -0.032818064 -0.06855208 -0.088578485 -0.08662686 0.10254487
0.11433021 -0.021777174 -0.07042649 0.0031329289 0.07387086 0.11516053 -0.081596114 -0.08346281
-0.09178126 0.06316115 -0.014862542 -0.076121725 -0.035494413 0.027056018 -0.069696024 0.021705316
-0.009211942 0.05948511 -0.009084537 -0.09524658 0.0008228237 0.0028097227 -0.11293071 -0.01596953
-0.101300046 -0.03599976 0.120417096 -0.15108284 0.08889484 -0.09036036 -0.07250995 -0.080930136
-0.062494356 -0.053653307 -0.1387452 -0.10665507 0.1127421 0.12924838 -0.12312651 -0.09243147
-0.064312816 0.08947553 0.14731847 0.02542803 0.053695057 -0.0010023108 -0.08216933 0.051197756
0.011831954 -0.029613238 0.056175105 0.059269022 0.06382631 -0.08962013 0.14213048 0.12826665
-0.06853306 0.058641337 -0.108693875 0.08889694 0.15523998 -0.015078096 0.09535786 -0.037380695
-0.045231387 -0.1140796 0.1208624 0.08565836 0.09523132 -0.02847369 -0.0021275925 0.0006061982
-0.046153508 0.029941946 -0.012878998 0.04823079 -0.11465739 -0.056879226 0.121208444 0.07790941
0.10978139 0.07615776 0.099483065 0.07474265 0.07953461 -0.081089094 0.015776716 0.07571227
-0.059712954 0.08975085 0.056859855 0.016267218 0.0012917843 -0.050156426 0.11477687 0.01590072
-0.078152575 0.105602674 0.0027273449 -0.006763723 -0.030569937 0.01738498 0.06268771 -0.09252154
-0.11308517 -0.05640848 0.11010242 -2.141841e-05 -0.057603676 -0.046732523 0.023731688 -0.052369032
-0.00704992 0.09094755 -0.022837155 0.08307219 -0.045146547 -0.03128089 0.016565094 0.014025256

conv.0.update_fn.fc.0.bias f4 [64]
00000000: 2770 403b bc69 3e3d ac93 7abd d62e 993c
00000010: 59e6 903d 28af ac3d 8cef 87bd 00b0 923c
00000020: b3d4 a6bd 0a93 c7bd edfb 303c 00b0 ffbc
00000030: ced9 9a3d 17e2 b0bc 8e75 cbbd 400e 1e3d
00000040: 02ee 8cbd 8add bb3c d5d0 6b3d b8ce 0b3d
00000050: 29c3 debc 27cf 1f3d 05af a0bd 45bf b03d
00000060: c39d 3f3c 86f7 afbb 4f39 9c3c 1bc8 67bc
00000070: 5b88 633d ae8c a23d 7349 6fbd c654 043d
00000080: 8e2e 7fbc a91d 523d 7ab3 903d eae3 8f3d
00000090: c3c1 bb3d 70dd ca3d b73a e03d 9f9e 773c
000000a0: 47cd 933d 58e1 c13c f7bd fdbd f9f2 e1bc
000000b0: 2a19 ddbd d0ce 72bd 95b1 87bd 987b c73a
000000c0: 2e3a 77bd 7ed0 9c3d 725d aebd 8603 0bbd
000000d0: 8525 02bd 8140 cabd 06d7 bb3d c20f 933d
000000e0: bcfd 8ebc 8511 563d 68e9 a83d b29e 0fbd
000000f0: 5b7d 43bd 2e61 263d 6aa0 cb3d 103b f13c
0.0029363723 0.046487555 -0.061175987 0.01869909 0.07075185 0.08431846 -0.06637487 0.017906189
-0.08146038 -0.09744842 0.010802251 -0.031211853 0.07561074 -0.021592183 -0.09934531 0.03858781
-0.06881334 0.022932786 0.057572205 0.03413269 -0.027192669 0.039015915 -0.07845882 0.08630232
0.011695328 -0.0053700833 0.019070296 -0.01414683 0.05554996 0.07936989 -0.058419656 0.03230741
-0.015575064 0.051297817 0.070654824 0.07025893 0.091678165 0.09905517 0.10948699 0.015113502
0.07216888 0.023667023 -0.123897485 -0.027581679 -0.10795815 -0.059279263 -0.06625668 0.0015219329
-0.06035822 0.07656954 -0.08513917 -0.033938907 -0.031774063 -0.098755844 0.09171872 0.0718074
-0.017454974 0.0522628 0.08247644 -0.035063453 -0.04772697 0.04062002 0.09942706 0.029447109

conv.0.update_fn.fc.1.weight f4 [64, 64]
00000000: 0fcf 2cbd 2d0c 8abd bd0c cf3d 3bb0 263d
00000010: 7acb 0cbe ba91 633d 1b11 2b3d cd6c 083e
00000020: d5f3 25bd 1dc1 8d3c 5716 453d e9e1 8d3b
00000030: e947 03be 5d30 093e 523e a43c 9615 a83d
00000040: a756 bb3d 5f38 963d 0f66 4cbc 8719 b9bd
00000050: 8089 e6bd 87cb 923d d161 c7bc 0c4b 03bd
00000060: 8635 03be 6692 5fbc 8813 e13d acc4 cd39
00000070: d0e5 c13d d112 e6bd 5468 04be 46b3 18bd
00000080: e1c7 78bd dfaa 9cbd 7cc8 1c3d b089 8e3c
00000090: 7ef1 073b 5506 f2bd e5c2 84bd e7ff babd
000000a0: a6c3 ce3d 0d0f 4b3d 481a 32bd d68d 703b
000000b0: be3e 86bd 7b2b 2bbd 8597 49bc 0310 cc3b
000000c0: e4f4 f1bd 9aad c23d 0801 51bc 6eca afbd
000000d0: 9966 8dbd f990 e43c 4b94 09be 57ba 6ebd
000000e0: fb71 73bd 9fb6 863c 10bd 893d a898 d8bd
000000f0: e12d c43d 0655 923d 0fc5 9ebc 2f57 0bbe
00000100: ab43 0b3c 449a 8abd 8b13 46bd 6e88 e53c
00000110: 3e31 bf3c 47b9 aa3d 5aef 7b3c 4974 c23b
00000120: b2c2 04bd fe82 86bd 0db2 3ebd 9134 86bd
00000130: 42d9 15be 87e0 3fbd 4b4b d23c a619 03bd
00000140: 9b24 673d 59e0 c7bd 5345 b5bd a3dd 303c
00000150: f28d c13c ceea 14bd f2a2 e7bd a119 a9bb
00000160: f7ec 1cbd 2058 a53d 8d33 133e b539 f1bd
00000170: 8665 793d 2136 2a3d d0a7 1cbe 149d c5bd
00000180: 9e06 1ebc f905 a9bb 3f9d c3bd 755e c13c
00000190: 62fd a2bd dddb 373c 9a70 3d3d 27c0 1a3e
000001a0: 47ce 0c3d d551 5abc 654c f6bd 36be 143d
000001b0: 7940 d5bc 02b5 4bbd 6e0c e9bc 2928 44bd
000001c0: 2702 8f3d 8f30 ac3d bdd2 0bbd e560 ac3d
000001d0: 639c c73d 4171 edbd 3728 8a3d 701f c53c
000001e0: 1b9c adbd 9bf2 c33d 7a36 dc3d 1a05 4f3d
000001f0: b00b c3bc 779b d73c 9d07 243d 5099 003d
00000200: ca89 c7bc a825 b7bd 6aee 043e 81c6 debb
00000210: 19b9 753d be09 8c3d e07a e73d b9c7 debd
00000220: ce5f fd39 81a2 eb3b bc0a 90bc 88cc 8c3d
00000230: b4d2 ccbd 29f2 c9bd a131 8dbd 9c5a bc3d
00000240: b2a0 5abd 4c75 15bd 7071 73bd 2bca 953d
00000250: b293 bebd 719c c43c e688 743d ea73 cf3c
00000260: 5840 4f3d 2925 b6bd 69e4 04be 1aea f8bc
00000270: 79bd 9abc ce1e 813d 16df 093e def3 9cbc
00000280: 0c68 cdbc 6749 9b3d 52dc c73d 1cf3 0c3c
00000290: 056a df3d 671a 3f3d 27a3 6eba 17c2 ebbd
000002a0: 227b ba3d 017f 4039 4e10 12be 6d31 8e3d
000002b0: 4056 e0bd c52c c2bd 617b 1bba 6fa8 0e3b
000002c0: b726 9abd 7397 5abd bdfe 57bd d4a5 9d3d
000002d0: 97d1 83bd 64c5 28be e75d 5c3c bee8 aebd
000002e0: 33bf 063e 79cc 163d df93 503d f8e8 bcbd
000002f0: a794 6cbc f48e 23bd e886 3ebd 162a 38bd
00000300: c772 463c 0ed5 91bd b47b 8a3d b489 99bb
00000310: ac9f a53d 90ec babd 68f3 11be 1119 f3bc
00000320: 83b4 9cbd 8191 f2bc 809f c63a 0adf 13be
00000330: 3e6b e0bd 0aeb c53d be62 033e d652 aebd
00000340: 650c 60bc e99d 42bd 9911 84bc 853e 34bd
00000350: 083a 6b3d ad66 0dbe 0a73 d1bd 25ee c63c
00000360: 89da a5bc f315 a23d 0a9b 51bc 064f 193b
00000370: dd4b 013e 9154 a9bd 72ce d43c c977 d9bd
00000380: 63e1 6fbd d148 a2bd c71c fdbc 5df4 d4bb
00000390: 9b7d d2bc 8d24 4f3d f44d 8abd f998 ea3d
000003a0: 9a87 3e3d 8d6e b73d 35c4 ddbc 3b9b b43d
000003b0: 1c55 443c 3bdd bc3d 52c3 c8bd 2586 8bbc
000003c0: 0625 763d e62c b23c 7475 abbd 035b 92bc
000003d0: 9d64 edbc 3037 553d 607c 3abd 87e0 d43d
000003e0: 6def f9bc c971 333d 8e34 0abd 22a6 00be
000003f0: dc0c 66bc 6666 2fbe 2e07 a1bd f0aa 10be
-0.042189654 -0.067406036 0.101098515 0.04069541 -0.13749495 0.055558898 0.04176436 0.13322754
-0.04051574 0.017303998 0.048117008 0.004329909 -0.128204 0.13397355 0.020049248 0.08207242
0.09147387 0.07334971 -0.012475505 -0.09038072 -0.11256695 0.07167726 -0.024338635 -0.032053992
-0.12813386 -0.013645744 0.109900534 0.0003924718 0.094676614 -0.11234058 -0.12930423 -0.037280343
-0.060737494 -0.076497786 0.038277134 0.017399639 0.0020743306 -0.11817614 -0.06482486 -0.09130841
0.10095911 0.0495749 -0.043482095 0.0036705635 -0.06554936 -0.041789513 -0.0123041915 0.0062274947
-0.11814287 0.09505768 -0.0127565935 -0.08583532 -0.069043346 0.02790116 -0.13435476 -0.058283176
-0.059434872 0.016444502 0.06725514 -0.10575992 0.09579063 0.07145123 -0.019381074 -0.13607477
0.00850002 -0.06767705 -0.04835848 0.028019156 0.02333891 0.0833612 0.01537689 0.0059342724
-0.03241224 -0.065679535 -0.04655652 -0.06552995 -0.14633659 -0.046844985 0.025670668 -0.032006882
0.056431394 -0.09759588 -0.08851113 0.01079503 0.023627255 -0.03635674 -0.11310376 -0.005160526
-0.038311925 0.08073449 0.14375134 -0.11778585 0.060887836 0.041555528 -0.1529839 -0.09649101
-0.009645132 -0.0051581827 -0.09551477 0.023604611 -0.07958485 0.011221853 0.046249963 0.15112363
0.03437641 -0.013325174 -0.1202629 0.03631421 -0.02603172 -0.04973317 -0.02844831 -0.047889862
0.069828324 0.08407699 -0.034136523 0.08416919 0.09746625 -0.11593867 0.067459516 0.024062842
-0.084770404 0.09567758 0.10752578 0.050541975 -0.023809284 0.026319249 0.040046323 0.03139621
-0.024357695 -0.08942729 0.12981573 -0.006798566 0.059990976 0.06837796 0.113027334 -0.10877938
0.000483273 0.007191003 -0.017583244 0.06874949 -0.10001126 -0.098606415 -0.068942316 0.0919697
-0.053375907 -0.036488816 -0.059434354 0.07313951 -0.093055144 0.024000378 0.05970087 0.025323827
0.050598472 -0.088938065 -0.12977757 -0.030385066 -0.018889176 0.06304704 0.13464007 -0.019159254
-0.025074027 0.0758236 0.0975882 0.008602884 0.109088935 0.04665604 -0.0009103291 -0.11511629
0.09105517 0.0001835786 -0.14264032 0.06943021 -0.10953951 -0.09481195 -0.00059311657 0.0021767875
-0.075269155 -0.05336709 -0.05273317 0.07697645 -0.064364605 -0.16481549 0.013450122 -0.08540486
0.13158874 0.036816094 0.05092227 -0.09224123 -0.014439738 -0.039931253 -0.046515375 -0.04496201
0.012112326 -0.07120715 0.06761876 -0.004685605 0.080870956 -0.09127152 -0.14253008 -0.029675039
-0.076516174 -0.029610397 0.0015153736 -0.14440551 -0.10957955 0.09663971 0.12830636 -0.085118935
-0.01367483 -0.047513876 -0.016121672 -0.044004936 0.05742839 -0.13808699 -0.1022702 0.024283478
-0.020245807 0.07914343 -0.012793312 0.002339305 0.12626596 -0.08268083 0.025977347 -0.1061855
-0.058564555 -0.07924045 -0.030897511 -0.006498857 -0.025694659 0.050571967 -0.0675315 0.114549585
0.04651604 0.08956633 -0.027071098 0.0881867 0.011983182 0.09221884 -0.098028794 -0.017031739
0.060093902 0.021749925 -0.08372012 -0.017865663 -0.02897864 0.052054584 -0.04552877 0.10394388
-0.030509675 0.043809686 -0.033741526 -0.12563375 -0.014041152 -0.17128906 -0.078626975 -0.14127707

conv.0.update_fn.fc.1.bias f4 [64]
00000000: eba9 0d3d a657 04bd f22b fd3d cd29 e23b
00000010: 50d9 51bd e889 dbbd 4125 83bc dc4d 75bd
00000020: 29f3 d43d 50b7 de3d fe7c a53d 4c46 6dbd
00000030: 3e23 bdbd cfd4 d53d eba4 c83d a354 d33c
00000040: c842 093d 4b1a 863d 7d55 13bd d079 903c
00000050: 774b 633b 1a76 30bd 1641 f4bd 192c 873c
00000060: 8ae5 bcba f76f aa3d 65ef ec3d e7a0 c93d
00000070: ddf3 7d3d 4d4b 70bb d4f2 c53d 62af b73d
00000080: e437 58bc 7927 353d 9005 d4bc 2afb 7b3d
00000090: d018 32bc 987e 873d c964 e13d e7d4 ab3d
000000a0: ae8a d0bd 81ba 993d 151f ee3c aca9 07be
000000b0: 406e 943c 7de0 00bd ef93 213d dccd 133d
000000c0: bdee 00be 9b34 773d b24b 6a3d f777 27bc
000000d0: a0ae c23d b549 973d a6b9 ad3d a335 35bd
000000e0: 8ce0 063d 5024 c23b f5a0 d93c 8053 8f3d
000000f0: eb48 873a 3af3 dfbd 163d e4bc 2d89 07bd
0.034585875 -0.03231015 0.123618975 0.0069019557 -0.051232636 -0.10719663 -0.016008975 -0.059888706
0.103979416 0.10874808 0.08080481 -0.05792837 -0.092352375 0.10440981 0.097970806 0.025797194
0.033510953 0.06547984 -0.0359702 0.01763621 0.0034682432 -0.04308138 -0.11926477 0.01650052
-0.001441167 0.08322137 0.115690984 0.09845143 0.062000144 -0.0036665977 0.096654564 0.089689985
-0.013196919 0.044227097 -0.025881559 0.061518826 -0.010870174 0.06615943 0.11005551 0.08390217
-0.10182701 0.07506276 0.029067555 -0.13248318 0.018118978 -0.03146409 0.03944772 0.036084995
-0.12591071 0.060352903 0.057201095 -0.010221473 0.09505963 0.073871054 0.08482675 -0.044240605
0.03292899 0.005924739 0.026566008 0.06998348 0.0010321414 -0.10935064 -0.02786116 -0.033089805

conv.0.update_fn.bn.0.weight f4 [64]
00000000: 2bc1 7a3f eacd 7e3f c6f1 823f 8cd2 7a3f
00000010: 6fbd 7b3f 6857 7c3f 0a4f 7a3f 9c74 823f
00000020: 91fa 813f 6312 883f 6001 823f 744a 813f
00000030: 3576 883f 01b2 7b3f 07c4 813f abac 7f3f
00000040: 391e 803f a7c0 7c3f de55 803f 7eb9 833f
00000050: b3b2 843f 7f68 783f 0719 803f 3357 783f
00000060: 216a 783f f8b4 833f 9b65 823f dbd4 823f
00000070: e08b 803f 1f61 763f 8eb5 8d3f 2a31 813f
00000080: 44fa 763f 10df 7a3f a2a6 803f 7f1f 7b3f
00000090: b7eb 7c3f 5bab 7f3f 8d39 7a3f ae19 823f
000000a0: 0155 833f f92a 793f b8fa 823f 156d 753f
000000b0: 3006 823f 2159 7c3f ad75 753f 53ae 7c3f
000000c0: 0e5c 803f e812 803f 2d7d 833f f552 833f
000000d0: 5403 7a3f b348 843f 2701 823f e678 813f
000000e0: 38f9 7d3f 7e18 813f 29d6 6e3f dcf1 7b3f
000000f0: 6087 7e3f 942f 7f3f 3ea5 7b3f 1125 803f
0.97951 0.9953295 1.0230033 0.9797752 0.9833593 0.9857087 0.97776854 1.0191836
1.0154592 1.0630611 1.015667 1.0100846 1.0661074 0.9831849 1.0137948 0.99872845
1.0009223 0.98731464 1.0026205 1.0290983 1.0367035 0.9703445 1.0007638 0.97008055
0.9703694 1.0289602 1.0187258 1.0221208 1.0042686 0.96241945 1.1071031 1.0093129
0.96475625 0.97996616 1.0050852 0.98094934 0.9879717 0.9987084 0.97744066 1.0164087
1.0260316 0.97331196 1.0232763 0.9586957 1.0158138 0.985735 0.95882684 0.987035
1.0028093 1.000577 1.0272576 1.0259691 0.9766133 1.0334686 1.0156602 1.011502
0.992084 1.00856 0.9329553 0.98415923 0.99425316 0.99681973 0.98299015 1.0011312

conv.0.update_fn.bn.0.bias f4 [64]
00000000: 64fb 2fbd fe8f 39bc 08d5 2b3c b53c fcbb
00000010: 4b52 7cbc e170 093d aadc 3dbd 17ce bd3b
00000020: d644 07ba 3e34 1c3c 4a69 403c 7b9b f63c
00000030: 0290 8a3d d9ec 0cbd 20d7 11bc fc04 f6bc
00000040: 0443 093d f5d4 d43a 0c41 b23b 04e5 b33c
00000050: 8ff2 46bc 0500 3fbd 4fb5 15bd 46fb cbbc
00000060: 07d1 abbd 3eb5 df3b 2ec1 80bc b03d 883c
00000070: 49cb 87bc 43ca a1bb 4fa8 6e3d 139e 93bc
00000080: be19 e2bb 010f fabc 1b7a 0fbc 7557 51bd
00000090: 0cfa dfbb 57a3 bdbc 482a 84bd 6545 18bd
000000a0: 10e5 ea3c 5ee2 90bd f0fe a6bb 2826 14bd
000000b0: 4135 80bb 9694 223c 4c7e 71bd f0b5 c4bc
000000c0: 5abb a33a 9a5a cebb 19d5 e6bc 45c2 203c
000000d0: 64c4 373a e047 8cbb b431 0dbd e84d 18bd
000000e0: 40b0 03bd 4c1e 84bc f515 59bd 7f4e edbc
000000f0: 7689 12bd 275e 9bbc 424e 1dbd 0164 f6bc
-0.042964354 -0.011325834 0.010487802 -0.0076976665 -0.01540048 0.033554915 -0.04635302 0.00579239
-0.00051600987 0.00953394 0.011743853 0.030103436 0.067657486 -0.034405563 -0.008901387 -0.030031674
0.033511177 0.0016237783 0.005439883 0.02195979 -0.012142791 -0.046630878 -0.036549862 -0.02490009
-0.08389478 0.0068270257 -0.015717115 0.016630977 -0.016576426 -0.0049374416 0.05826598 -0.018019712
-0.0069000414 -0.030524733 -0.00875714 -0.051108796 -0.006835228 -0.023149176 -0.06453377 -0.037175555
0.028673679 -0.07074426 -0.005096309 -0.0361692 -0.0039125984 0.009923121 -0.058958337 -0.024012536
0.0012491748 -0.0062974216 -0.028177785 0.009811942 0.00070101605 -0.004281029 -0.03447123 -0.037183672
-0.032150507 -0.016127728 -0.052999455 -0.028968094 -0.035775624 -0.018965794 -0.03840471 -0.030076982

conv.0.update_fn.bn.0.running_mean f4 [64]
00000000: 9757 9cbd ea15 60bf 0fe6 163f 8649 07bd
00000010: f3ee 683e c944 70bf cf67 60bf 46f5 fbbe
00000020: 1cfd a0bd a262 843e d6c0 38be 8c44 193f
00000030: 1ee9 52bf f9d6 303e 8dc3 c13d 200e f93e
00000040: ac15 8dbe e5c8 1abf 5dd3 3e3e b6a1 6f3f
00000050: 3549 b2bd c2dc bbbe f76a 7a3f 0d64 a93e
00000060: 8ee0 e5bf 639a ac3e 240d 33bf 8b2a 2bbf
00000070: a6d3 b4bf 6c73 cbbd f798 a13f 205d 9ebf
00000080: fde6 733d 14e0 123f b665 143f 0569 b3be
00000090: b5ea b73e acc6 95be 0a29 e03e 34b5 4f3e
000000a0: e232 5ebf 52ad b13e cf93 d5be b5d8 6cbe
000000b0: e448 293e 9877 473f 1991 b33e 13ff e63e
000000c0: 5bed 0cbd f457 cfbf 13ab a5bf 0a7b f93f
000000d0: 439a 73be b21c 9ebf 32fa 523f 08ae 533f
000000e0: d2b4 963f 9c8f 45bf 6c4c 0d3d d2b1 023e
000000f0: f639 4cbf 77b8 82be e03d 5d3f feee 9b3e
-0.07633894 -0.8753344 0.5894479 -0.0330291 0.22747402 -0.9385496 -0.876584 -0.49210566
-0.07860777 0.258565 -0.18042311 0.5987022 -0.8238696 0.17269506 0.094611265 0.4864359
-0.27555597 -0.6046279 0.18635316 0.93606126 -0.087053694 -0.36691862 0.97819465 0.33084145
-1.7959154 0.33711538 -0.69941926 -0.6686179 -1.412709 -0.09934124 1.2624806 -1.237217
0.05954646 0.57373166 0.579677 -0.3504106 0.35921255 -0.29253137 0.4378131 0.20283967
-0.8679639 0.34702545 -0.41714332 -0.23129542 0.16531712 0.7791686 0.35071638 0.4511648
-0.034406047 -1.6198716 -1.2942833 1.9490674 -0.23789315 -1.2352507 0.8241302 0.82687426
1.1773932 -0.77172256 0.03449671 0.12763146 -0.7977594 -0.2553136 0.8642254 0.30455774

conv.0.update_fn.bn.0.running_var f4 [64]
00000000: 6128 7a3e 8e71 9e3e 97b4 c73e a4d9 0d3e
00000010: 4153 323e 6c69 763e a7bc 463e 78a2 433e
00000020: b391 0f3e 8a25 1e3e 11af 203e 9f8b 813e
00000030: 4c16 8f3e b8c0 893e fa99 c53e a83e 633e
00000040: f2e9 403e 1c4e 003f a0e3 7f3e 78d3 8d3e
00000050: e88f 243e 9e95 243e 0219 9c3e ee86 d33e
00000060: c144 543f 5126 863e 2889 5e3e d7c7 423e
00000070: 91a7 9e3e ec6c 783f a86e 423e 334c 053f
00000080: 05b0 cb3e fa10 113e 7833 4e3e 4b7d 863e
00000090: 8536 843e 7a00 133e 9c9c 203e 85b5 423e
000000a0: 9852 713e 5207 343e 296c 2d3e 9518 5f3e
000000b0: cddb 473e 6585 e93e 281b 7c3e 7be6 2e3f
000000c0: f49e 823e 1637 453f 816b 203e 7da0 b73f
000000d0: a06b 123e 23a1 733e 186a 603e 3efc 323e
000000e0: 80d1 803e 177a 1a3e f380 e13e 3059 693e
000000f0: b2e7 893e 41a3 503e d8aa cd3e 4b79 573e
0.24429466 0.3094601 0.39004967 0.13852555 0.17414571 0.24063653 0.19407903 0.19104946
0.14020424 0.15444008 0.15691783 0.25301835 0.279467 0.26904845 0.38594037 0.2219187
0.18839243 0.50119185 0.24989176 0.277004 0.16070521 0.160727 0.3048783 0.4131388
0.8291741 0.26201108 0.21732008 0.19021545 0.30987218 0.970412 0.18987525 0.52069396
0.3978273 0.14166632 0.20136821 0.26267466 0.25822845 0.1435565 0.15684742 0.19014557
0.23566663 0.17580917 0.16935791 0.21786721 0.19517441 0.45609584 0.24619734 0.68320435
0.25511897 0.7703718 0.1566601 1.4345852 0.14298868 0.23791938 0.21915472 0.17479035
0.25159836 0.15085636 0.44043693 0.22787929 0.26934582 0.20374776 0.40169406 0.21042363

conv.1.update_fn.fc.0.weight f4 [64, 64]
00000000: c929 68bd 61c4 553c b195 873d 0ba1 743d
00000010: e781 c73d a4e6 cf3d b5e1 c63d 80ca df3d
00000020: e40d bdbd 4b30 85bd 7e8b 2fbd 03e5 a53c
00000030: 1095 54bd bebe c6bd bf19 7d3d 680d 50bc
00000040: c2cb 8e3d 4b6c 8f3d 288a 563d 04ce 913d
00000050: 59a5 98bd 9584 c13d e3b7 8ebd 34d4 983c
00000060: 8cde 8f3d f1a7 0c3e b5a1 32bd 6e35 e3bd
00000070: 71ed 723d 6480 ab3c fd91 2c3d 2650 18bd
00000080: 32a8 c8bd 5f0a b3bd 6da3 423d 068a 2cbd
00000090: 1cc6 10b9 a43e ac3d 763d a93d f5b4 0fbc
000000a0: 3c0e d43d 60fa 37bd 4597 c23d 484b 0a3e
000000b0: 1ad6 933d 7ae3 99bc 90b2 a4b9 3da1 c2bc
000000c0: b042 213d 2c12 7fbc b9f6 b03a d811 7cbc
000000d0: 38a4 53bd f4e1 333c 19c4 3c3d e61b 17bc
000000e0: 4f11 f93c e1d0 063d 51b7 33bd da43 19be
000000f0: 0e01 81b9 6537 af3d 5b3c 53bd b0df 313d
00000100: 3103 b0bd 503d 0b3c 4552 483c 2e2e a43b
00000110: 8315 b9bd 18d4 e7bb f768 7b3d 4331 03bd
00000120: f69d aabd 3766 60bd c9f7 97bd 5100 a4bd
00000130: 7f04 77bd e609 473c 9adc e2bd 4cc3 b5bd
00000140: e7a6 45bd 4383 4b3d 83c7 7f3d c8c0 3cbd
00000150: fdfe b8bd e785 713c f920 11be 09df 173c
00000160: ebe7 af3d 09ce 88bd e003 91bd 3b1e dbbd
00000170: b8cd 1bbd f289 01be f8e5 e73d 2323 863d
00000180: 7e99 613d 9ed0 81bd 98a7 ff3d 106f 7abd
00000190: 30c2 813d ea4e 953d 1c4e c53d 34f9 acbd
000001a0: 2100 b13d 25f2 3fbc 5455 093e 2b87 92bb
000001b0: d09b 2b3d fe40 a43d a72d bfbd e361 e9bd
000001c0: 56ef ab3d 7d90 b03d 43be d6bd 7910 54bd
000001d0: 5049 903d 74c3 fe3c 3e6c c93d a346 6abd
000001e0: b4a6 153d 3778 d93d 6708 aa3d 3f64 be3d
000001f0: a4cc 883d fe92 e33d f6a2 05bd 70a4 993d
00000200: 1014 3a3c e12b 0e3d c719 7b3d 24cf 073e
00000210: b8bc 73bd 8342 9abd 64d4 843b fc60 11bd
00000220: 97f6 d43d e9d9 afbd 75c7 5e3c 5e74 f3ba
00000230: 5ceb f03c ac9e 4bbd 9bca 17be 03ec 903d
00000240: 517f 573c fef3 083e b18e b93d ef47 113d
00000250: 2b27 903d 1ef4 efbb 1481 a53d 3fd9 473d
00000260: 9a15 9d3d 4aea f4bd 8a56 e73d f624 92bd
00000270: ed77 8e3b 3310 8dbd d509 78bd df5f a13c
00000280: 629c acbc 3360 683d 93fe 693c fedb 173d
00000290: 947e 123e 0e82 27be a9dd f73d 2157 97bd
000002a0: d3c8 c93d 44c9 43bd 4474 453d f94b 8d3d
000002b0: 93ef 52bd 32c4 35bd 2334 8ebd 2dcb 31bd
000002c0: 5ac7 063e f307 81bc a32b 993d 47ba dd3d
000002d0: 6e40 83bc cdd4 a63d df38 12bd b034 c83d
000002e0: 5d93 cc3d 21e3 313c 830e 5e3d b78e 10be
000002f0: 1d83 843d d80d ec3c 5a59 a23d 8fd9 b6bc
00000300: 32d5 163d 0122 4dbc 58c3 dcbd 6703 9abd
00000310: 66f4 ba3d 3189 993c 6323 cebd 4867 dbbb
00000320: 3339 04be 37b8 423d 83d9 1dbc 28bf 9f3c
00000330: 5fc3 1c3e 4471 13bd 42d2 c1bd ab0d 0c3e
00000340: 004b 9cbc 6a16 3dbd e9af 90bd e958 d33c
00000350: b3fa 2c3d b2ca ee3d e290 f33d e33c 13bd
00000360: 73bb 55bc f957 513d 5348 8c3d 3dc9 9fbc
00000370: c201 a8bd 190c 8cbd 3455 3e3d 8822 35bd
00000380: 3665 723d f334 abbc f79b b63d 6a34 c83d
00000390: 2216 3e3d b72a 12bd 501e be3c a120 ae3d
000003a0: 0a75 323d be64 0bbd 9fee 9fbd 033f d63d
000003b0: f998 6b3d f02e 3cbc 294d ba3d 7419 963d
000003c0: 7d54 fabd a4a6 d2bd 6367 8abd 020f 92bd
000003d0: 145e b63d 446c 15be 201b 8d3d 5f25 b73d
000003e0: e876 14bc 7fbb 6fbb f382 603d 65b3 b5bd
000003f0: d452 d6bd 125f 4e3d e6f8 b8bd 1e07 82bd
-0.056680474 0.013047309 0.06620348 0.059723895 0.09741574 0.10151413 0.09711019 0.10927296
-0.09231165 -0.06503352 -0.04285764 0.020250803 -0.05189997 -0.0970435 0.06179213 -0.012698509
0.069724575 0.07003077 0.05237785 0.071193725 -0.074534126 0.09449116 -0.06968667 0.018655874
0.07024869 0.1373594 -0.043611247 -0.11094175 0.059308473 0.020935245 0.042131413 -0.03718581
-0.09797706 -0.087422125 0.047519136 -0.042123817 -0.00013806712 0.08410385 0.08263676 -0.008771171
0.103542775 -0.04491651 0.095015086 0.1350528 0.07218571 -0.018785227 -0.00031413557 -0.023758525
0.03937024 -0.015568297 0.0013501263 -0.015385114 -0.051670283 0.010979164 0.04608545 -0.00922296
0.030403761 0.032914046 -0.043875996 -0.1496729 -0.00024605583 0.085554875 -0.05157123 0.043426216
-0.08594359 0.008498505 0.012226646 0.005010388 -0.09037306 -0.007074844 0.0613794 -0.0320294
-0.0833091 -0.05478498 -0.07420308 -0.08007873 -0.060307022 0.012148356 -0.11077233 -0.088751405
-0.048254874 0.049685728 0.06244613 -0.046082288 -0.0903301 0.014741397 -0.14172734 0.009269484
0.08589157 -0.06679923 -0.07080817 -0.106991254 -0.038037986 -0.12650278 0.1132316 0.065496705
0.055078022 -0.06338619 0.12483138 -0.061141074 0.063358665 0.07290442 0.09634039 -0.08445969
0.08642603 -0.011715447 0.13411456 -0.0044716797 0.04189664 0.08020209 -0.09334879 -0.113956235
0.08395259 0.08621309 -0.10485508 -0.051773522 0.07045233 0.031099059 0.09835099 -0.05719627
0.036535934 0.10618632 0.08302384 0.09296464 0.06679657 0.11112021 -0.032626115 0.07502067
0.011357322 0.034709815 0.06130388 0.13262612 -0.059506148 -0.07532217 0.0040536392 -0.035492882
0.10398596 -0.08586485 0.013597359 -0.0018574109 0.029409103 -0.04971187 -0.14823382 0.07076266
0.013152913 0.13374326 0.09060419 0.03546899 0.07038721 -0.007322802 0.0808126 0.048791166
0.07670136 -0.119587496 0.11295803 -0.07135956 0.0043477924 -0.068878554 -0.06055625 0.019699035
-0.021070663 0.056732368 0.014281887 0.037075035 0.14306098 -0.16358206 0.12102825 -0.073896654
0.09852757 -0.047799364 0.048206583 0.06899256 -0.051498007 -0.04437656 -0.06943538 -0.043406654
0.13161984 -0.01575086 0.07479026 0.10826545 -0.016021933 0.08146057 -0.035698768 0.09775674
0.09989045 0.010857374 0.05421306 -0.14116941 0.064703204 0.028815195 0.07927199 -0.022320537
0.036824413 -0.012520314 -0.10779446 -0.0752018 0.091286466 0.018742176 -0.10065343 -0.0066956617
-0.12912445 0.047538962 -0.009634378 0.01950033 0.15308903 -0.03599669 -0.094639316 0.13677089
-0.019078732 -0.046163954 -0.07064802 0.025799232 0.042231273 0.11659755 0.118928686 -0.035946738
-0.01304518 0.051109288 0.06849732 -0.019505138 -0.0820346 -0.06838245 0.046467975 -0.044222385
0.059178554 -0.020899272 0.08916467 0.09775622 0.046407826 -0.035685267 0.023207814 0.08502317
0.04356865 -0.034031622 -0.07809185 0.10461237 0.057518933 -0.0114858 0.090967484 0.073290735
-0.12223146 -0.102856904 -0.06758001 -0.07131769 0.08904663 -0.14592081 0.06889939 0.08942675
-0.009061553 -0.0036580262 0.054812383 -0.088721074 -0.10465017 0.050383635 -0.090318486 -0.06349014

conv.1.update_fn.fc.0.bias f4 [64]
00000000: ae8a 4f3d c23b 9abd add3 94bc b111 afbd
00000010: 5e56 9c3d e2ca 9abd 5036 fbbd 3d8c 2a3d
00000020: 41ed b1bd 566b a63c 9fca d93c 6307 d2bc
00000030: a440 94bd 9101 113d 0360 033d 0377 883d
00000040: 762e 30bc 1636 c3bd 4c01 633c ed88 c3bd
00000050: 9c45 963d f492 103d 0c53 93bd 2053 13bd
00000060: 644e 903c 7b65 d53d 7750 edbd 3e21 e8bd
00000070: 5116 ac3d 80c5 f7bd 59cb 68bd 6ee8 6ebc
00000080: 8731 e3bd d09f 963c 4f4e fabc f9ab 313c
00000090: 5d90 75bd c0e7 8abc 029d dfbd ad56 33bd
000000a0: 3cc9 b9bb de0e 8cbd 4fd1 f1bd 39fe cf3d
000000b0: e9a8 9abd 98ed 753d 2c2b ecbd 1313 ea3c
000000c0: 534e b5bd 5563 dabd a1e4 ca3d e0f6 d4bd
000000d0: 293d d53d 3158 ab3d 3387 70bd 3322 303d
000000e0: 9d2a 4abb 7c36 3d3d 81a0 11bd e86a e6bc
000000f0: 67d8 2d3d afdd 0b3c 8039 ccbd 0871 583d
0.050669365 -0.07530929 -0.018167341 -0.08548296 0.07633661 -0.07558228 -0.12266219 0.041637648
-0.08687831 0.020314854 0.026585875 -0.025638288 -0.07238892 0.035401884 0.032073986 0.06663325
-0.010753265 -0.095318004 0.01385529 -0.09547601 0.07337496 0.035296395 -0.07193574 -0.035967946
0.017615505 0.104197465 -0.11587613 -0.113344654 0.08402694 -0.12098217 -0.056834552 -0.014581783
-0.11093431 0.018386751 -0.030554919 0.010844224 -0.05995213 -0.01695621 -0.10918619 -0.043783832
-0.005669741 -0.06838773 -0.118075006 0.10155911 -0.07551748 0.06004104 -0.11531672 0.028573548
-0.0885283 -0.10663477 0.09906889 -0.1039865 0.10412056 0.083664306 -0.058722686 0.043001365
-0.0030848153 0.04619454 -0.03555346 -0.028127149 0.042442705 0.00853674 -0.09971905 0.05284217

conv.1.update_fn.fc.1.weight f4 [64, 64]
00000000: 9778 45bd b5bb c13d a0ac 8a3d bee0 843d
00000010: ee3d e23d 8e46 4cbc 260f dcbb 0c67 12bc
00000020: d187 54bd 979d e1bd c935 0fbd 81ac a6bc
00000030: cf05 9ebd 7961 2b3d e1a9 93bd bfcf 01bc
00000040: 62a8 5f3d ba4b c2bd 4d9c 993c 7d2d e63d
00000050: 30cd 893c fc65 90bd c6e6 b03d cba2 743d
00000060: 7c2e 91bd 177a 1e3e 4225 a43c 7095 073d
00000070: bf6d 003d 1437 fabd 6449 f63d 42a4 863d
00000080: 06fb 27bd 06b4 9d3c e041 dd3d 5440 1b3e
00000090: df91 083d fb12 debd 531d 53bc 6750 b93c
000000a0: ca02 52bd 059a cf3d 96d4 e7bd 1510 d6bd
000000b0: 7a88 343b 6fd2 2fbd 535e 9a3d ee27 eebc
000000c0: 12ca 95bb 7741 43bd d467 4c3d 43ec 94bd
000000d0: bfef de3d b90c 013e 9136 1fbb ac77 1abd
000000e0: 5ef2 a83d e4e1 e73d cab9 3fbd ec53 3bbb
000000f0: 6b66 dabc 2ea4 96bd c1da 873d 669c f3bd
00000100: 73c5 4d3d f765 fbbd 1fa3 4dbd a689 073d
00000110: b145 a53d 32a0 8abd 4000 57bd 2be2 fdbc
00000120: 2085 003d 3991 853d 6c6d dfbd 2f74 033c
00000130: 9c6d 72bd 1536 7d3d 99ae 4e3c 7fbe 1dbe
00000140: 111b 4cbc 2494 4e3c 0ce0 ba3d 0326 98bd
00000150: dc38 d8bc 4bb7 4dbd c2ab 5c3c 2db3 e3bc
00000160: b4a6 9ebc 0f56 df3c 9092 b4bc 5b60 d1bd
00000170: 5355 873d fde2 c33d 14dc 483d f1ad 03bd
00000180: cb33 dcbd 7ff3 ddbd 84a4 263d 633a 943c
00000190: 0b73 99bd 7683 8b3c 1f3f 0e3c 3afb 293c
000001a0: 646e cfbc 2bab 21bd 98c9 40bd 7520 d0bd
000001b0: b02c 08be a9b7 06bc 5023 953d fa93 ee3d
000001c0: 8e0a d7bd ce15 543d 4f46 5bbd 3051 e73c
000001d0: 5b6d edbc 16a5 0d3e 0782 82bd 2069 04be
000001e0: 35cd fc3d f68f 96bc b8eb a2bd 4d23 673d
000001f0: eeaf 353d 2d4b 493d f286 0ebe 755e e33c
00000200: 4fb5 2a3d 0fda 713d fe6a c03d 9d4e 50bd
00000210: 963d 273d bb00 5b3d 56a2 0d3d 1d99 0dbe
00000220: 2510 12bd 8181 253d 5d5c b3bd 9d7f 8bbd
00000230: 5a07 a5bc 63de d1bd e899 ad3d a33f 8fbc
00000240: cd20 a93c 2e89 ed3d e32f 2a3d 85cc 583d
00000250: 7b46 d73c bbf7 2fbd 56f9 a8bd 2d2a d23d
00000260: 4dc5 09be 44e5 4fbd c2e3 3fbd 8844 f33d
00000270: 182e dc3c 3085 50bd e4e6 19be 293c 98bd
00000280: 4ba3 81bd 8750 d5bb a782 083d e891 6dbd
00000290: 91f7 cfbd dcf6 aa3d 2524 d73d f28d 063e
000002a0: 2e93 b13b 3524 c7bd 1e80 d6bd 8fae 1abc
000002b0: 109e d7bc 5250 033d 0769 aa3d 2176 a5bc
000002c0: d871 a83d b4a7 1fbd eb05 bf3d af67 94bd
000002d0: cd8f dc3d 52c0 ac3d 0c9b 8f3d c302 bd3d
000002e0: 4c70 99bc 5821 8ebd 326f a3bd bfa3 153e
000002f0: 35cb 01be ee2c 903c 430b 25bd 73cf 533d
00000300: 396d a2bb bc68 263d 86e3 fd3d 0001 b2ba
00000310: 0092 563d 9746 44bd 708e acbc 362b e8bd
00000320: e4ee ebbc 6963 e13d eef3 383b 5a5b c13d
00000330: ca5d 7c3d 7114 cd3d 0445 a5bc 46e2 b8bd
00000340: f923 d5bd f355 b3bc 39b0 86bd 7968 06bd
00000350: 9e93 17bd 12a6 aebd b12f cb3c f950 a13c
00000360: 858f 0bbd 1900 d73d 02e7 b23d bae0 a7bd
00000370: a2c7 d2bd 1088 ca3d dbdf 09bd 1ebc 17be
00000380: 0600 e5bd 104b d13d bde0 643d 74dd 01bd
00000390: f7f4 9d3d 4f0d 9ebd 741c afbd e8dd 243d
000003a0: ef7a 01be 868e 683d f828 9f3d 3c83 c43d
000003b0: 90d5 b3bc 10d4 acbd a02e 963d 4f74 b0bd
000003c0: 5386 ebbc 7c6c fa3d da3d f83d bcf7 613d
000003d0: b42a 253d d0f1 b03c e9cb 9cbc 491c 9d3d
000003e0: 9e46 59bd 75d9 6e3d e825 c8bc c8c7 8dbd
000003f0: 1e76 dbbc 4cd4 a03d 0f7c d6bc a847 d83d
-0.048210707 0.094596304 0.06771207 0.06488179 0.110469684 -0.012467993 -0.006715673 -0.008935701
-0.051887337 -0.11016386 -0.034963403 -0.020345928 -0.07715952 0.041841004 -0.07210136 -0.007923066
0.05460394 -0.094871 0.018751288 0.11239145 0.016821474 -0.07050702 0.086377665 0.059725564
-0.07088944 0.15476261 0.020037297 0.0331015 0.031354662 -0.122175366 0.12025717 0.065742984
-0.04101088 0.01925088 0.1080358 0.15161258 0.03334224 -0.10843464 -0.012885409 0.022621347
-0.05127219 0.10136799 -0.113198444 -0.10452286 0.0027547167 -0.042925294 0.07537522 -0.029071774
-0.004571208 -0.047669854 0.049903706 -0.07271626 0.10885572 0.1260251 -0.0024293999 -0.037711784
0.08249353 0.11322382 -0.04680804 -0.0028583957 -0.026660165 -0.073555335 0.06633521 -0.11895065
0.05023713 -0.122753076 -0.050204393 0.033090256 0.08069933 -0.06768836 -0.052490473 -0.030991634
0.031376958 0.0652184 -0.109095424 0.008023306 -0.059186563 0.061819155 0.0126148695 -0.154047
-0.012457625 0.012608562 0.09124765 -0.07429125 -0.0263943 -0.05022363 0.013468685 -0.027795399
-0.0193666 0.027262716 -0.022042543 -0.102234565 0.06608071 0.09564779 0.049038008 -0.032148305
-0.10752066 -0.10837459 0.040684238 0.018094247 -0.07492646 0.017030459 0.008682041 0.0103748385
-0.025321193 -0.03946988 -0.047067255 -0.10162441 -0.13298297 -0.008222499 0.07282126 0.11649318
-0.1050006 0.051778607 -0.05353385 0.028236955 -0.028982809 0.13832507 -0.06372457 -0.12930727
0.12343828 -0.018379193 -0.07955116 0.05643015 0.044357233 0.04914396 -0.13918665 0.027755002
0.041676816 0.059045848 0.09395407 -0.05085622 0.040830217 0.053467494 0.034578644 -0.1382794
-0.035659928 0.040406708 -0.08757851 -0.0681145 -0.020145107 -0.10247495 0.08476621 -0.017486399
0.020645523 0.115984306 0.041549575 0.05292942 0.026278725 -0.042960864 -0.08250682 0.10261951
-0.1345417 -0.050755754 -0.046848066 0.11878306 0.026877448 -0.050908267 -0.15029484 -0.0743335
-0.06329974 -0.0065098437 0.033327725 -0.058000475 -0.101546414 0.08347866 0.10504941 0.13140085
0.0054191565 -0.09723703 -0.10473655 -0.009441032 -0.026320487 0.03205902 0.083208136 -0.02019793
0.08224839 -0.038978294 0.09327301 -0.072463386 0.10769615 0.0843512 0.07011995 0.092290424
-0.018730305 -0.069399536 -0.07980193 0.14613245 -0.12675174 0.01759955 -0.040293943 0.05171151
-0.004956868 0.040627226 0.12396912 -0.001358062 0.05238533 -0.047918882 -0.021064013 -0.11336367
-0.028800435 0.11005289 0.0028221565 0.09441252 0.06161288 0.100136645 -0.02017451 -0.09027533
-0.10407252 -0.02189157 -0.065765806 -0.032814477 -0.037006013 -0.08527769 0.024803014 0.019691931
-0.034072418 0.104980655 0.087354675 -0.0819716 -0.10291983 0.09889233 -0.03366075 -0.14817855
-0.11181645 0.10219395 0.05587839 -0.031705335 0.07712739 -0.07717382 -0.08550349 0.04025069
-0.12644552 0.056776546 0.07771486 0.095953435 -0.02195242 -0.08438885 0.07333112 -0.08615934
-0.028750574 0.12227723 0.12121172 0.0551679 0.040323928 0.02159968 -0.0191402 0.076714106
-0.05304586 0.058312852 -0.024432138 -0.06922871 -0.026789721 0.078529924 -0.026182203 0.10560542

conv.1.update_fn.fc.1.bias f4 [64]
00000000: 74b2 cf3d 2026 90bd 2bdf e53d 0ac7 c7bd
00000010: 5186 4d3d 6c10 d03d fbd3 c73d c340 d93d
00000020: 959c 94bd ada3 bebd d2d6 abbd 1222 663d
00000030: 4d1c 853d 7ba0 e2bc 3cd2 1c3d 1c32 b6bc
00000040: b4b5 c4bc b00f e4bb d18e 9c3d 56cb eb3b
00000050: e3f1 2c3d 6080 1abd df19 09bd 3cbb c0bc
00000060: 97b8 d1bd ecfe 643d 26b3 f73d cdb6 99bc
00000070: 4918 d43d 152d 2abd f9f4 50bd 190b b2bd
00000080: 1cc0 d7bd 0c19 85bd 9a13 cf3d 2beb 15bd
00000090: b3d4 f83d ab3a cf3d c7c8 3fbd b82a 74bd
000000a0: c3e7 5e3d 93f4 dabc 85b5 16bd 0f4f 64ba
000000b0: c1fe 67bb 5a7e cfbc 178b 003c d01b c33d
000000c0: a800 5abd 71a8 9fbc d92c 013d 07e8 813d
000000d0: 7d59 c73d 0251 2dbd 66d3 eb3d ab39 713d
000000e0: 3d38 e5bd b4ee a83d a8a4 c3bb 3c6c e93d
000000f0: 1b10 52bd 852c 1a3d 2997 f03d 4ce9 e3bc
0.10141459 -0.07038522 0.112242065 -0.097547606 0.050176922 0.10159382 0.09757229 0.106080554
-0.07256428 -0.093085624 -0.08390583 0.056184836 0.064995386 -0.027664414 0.038286433 -0.02224069
-0.024012424 -0.006959878 0.076444276 0.0071958704 0.04222287 -0.037720084 -0.03347194 -0.02352678
-0.10240286 0.055907175 0.12094717 -0.018763924 0.103561945 -0.0415469 -0.051014874 -0.08693523
-0.10534689 -0.06498918 0.101111606 -0.036601227 0.12149944 0.10118612 -0.046822336 -0.059611052
0.054420244 -0.02672795 -0.036794204 -0.00087092904 -0.0035399648 -0.025328804 0.007845662 0.09526789
-0.053223282 -0.019489499 0.03153691 0.06343084 0.097338654 -0.042313583 0.115149304 0.058892887
-0.11192367 0.08248654 -0.0059705563 0.11397597 -0.05128489 0.037640113 0.117475815 -0.027821206

conv.1.update_fn.bn.0.weight f4 [64]
00000000: fe5d 7e3f 7746 743f b1e4 843f fbfe 7d3f
00000010: c5ff 823f 1945 813f 3bed 743f b96c 853f
00000020: 946d 763f 849b 823f b9d3 7d3f fe56 7c3f
00000030: 08bf 7f3f 254f 833f 3d4b 7d3f 10d3 793f
00000040: e7b5 7f3f 5446 7a3f 0a9d 803f 3552 823f
00000050: ca0f 823f a763 793f 61d0 833f 280a 7a3f
00000060: aedf 803f 1698 813f b16c 7e3f af10 853f
00000070: b911 7e3f ba00 803f 4e16 843f d548 7e3f
00000080: ba7f 803f ae3b 843f f5f0 7e3f 0b89 833f
00000090: 454c 823f 95a0 833f 14d6 803f f1a6 7f3f
000000a0: d3e7 7d3f 465a 803f caa8 7e3f caf8 813f
000000b0: bc15 7e3f 036c 723f 0fc9 803f ab5d 833f
000000c0: 223b 7a3f f2a8 783f e175 7f3f 5e4c 7d3f
000000d0: e2aa 7d3f 68f6 743f 9311 833f 139e 7c3f
000000e0: 3d9a 7f3f f4c5 863f b104 7b3f 667d 823f
000000f0: b567 823f 3929 7e3f 1104 773f c746 7c3f
0.9936217 0.9542002 1.0382291 0.99217194 1.0234305 1.0099212 0.95674485 1.0423805
0.9626095 1.020371 0.9915119 0.9857024 0.99900866 1.0258528 0.9894293 0.9758768
0.99886936 0.9776356 1.0047925 1.0181338 1.0161068 0.9741768 1.0297967 0.9767175
1.0068262 1.0124538 0.993846 1.0395716 0.9924579 1.0000222 1.0319307 0.9932988
1.0038979 1.0330713 0.9958642 1.0276197 1.0179526 1.0283381 1.0065331 0.9986411
0.9918186 1.0027549 0.994763 1.0154049 0.99251914 0.9469606 1.0061358 1.026296
0.9774648 0.9713279 0.99789244 0.9894465 0.9908887 0.95688486 1.0239738 0.986787
0.99844724 1.052916 0.98054034 1.0194519 1.0187899 0.9928165 0.9649058 0.985455

conv.1.update_fn.bn.0.bias f4 [64]
00000000: befc 603b 4d0a 86bd fa4e 7d3c 7e7a babc
00000010: 8b6b 733d 54e2 0fbc 5882 1bbd ae45 1d3d
00000020: c7a2 1cbd 9d2b 1abd 9edc 92bc f276 3abc
00000030: cf31 3dba 2105 3e3c e4f9 eabc 2e1c 4bbd
00000040: ba1c 42bc 64b9 2b3b 7e4d a63c 9d67 4ebc
00000050: 8c50 21bc 36d9 bcbc 1211 99bc aede d9bc
00000060: 5957 b23b aa2f 57bc 4550 b9bc 4b3c c5bc
00000070: d2c5 98bc 5ba0 a6bc e60f 49bc 6d13 06bc
00000080: b4d9 2cbc 9fde 7b3b 4d43 f8bc 1526 373b
00000090: 059f 053c 8936 3e3b 2d23 d6bc 4eed 69bc
000000a0: af00 e03c c7af edbc 3d69 09bd 5dd8 bebb
000000b0: 0d66 b9bc bf91 9ebd f3db b6bb 5d1c 803b
000000c0: d6f6 513b b739 08bd aab6 9cbc 3a9e 11bd
000000d0: 28f6 9ebc 8ff4 85bd 9497 0b3c bdc4 54bd
000000e0: d072 0538 e450 0d3c a3bb 13bd c464 ba3b
000000f0: 4b61 21bd c4c7 e4bc c012 f7bc 9bbb 2f3c
0.0034330334 -0.065449335 0.015460724 -0.022763487 0.059428733 -0.008781988 -0.037966102 0.03839653
-0.038241174 -0.03763925 -0.017927464 -0.011380898 -0.00072172 0.0115979025 -0.02868361 -0.04958742
-0.011847669 0.002620303 0.020300623 -0.0125979455 -0.009845864 -0.023052793 -0.018684898 -0.02659544
0.0054425416 -0.013133923 -0.022621283 -0.024076601 -0.018649016 -0.020340135 -0.012271857 -0.008183342
-0.010549951 0.0038432253 -0.030305529 0.0027946283 0.008155589 0.0029024205 -0.02613982 -0.014277769
0.027344076 -0.029014481 -0.03354763 -0.0058241324 -0.02263167 -0.077426426 -0.005580419 0.003909631
0.0032037995 -0.033258166 -0.01913007 -0.035551287 -0.019404486 -0.065407865 0.008520026 -0.051945437
3.18166e-05 0.008625243 -0.036067616 0.0056882817 -0.039399426 -0.027927287 -0.030160308 0.010725881

conv.1.update_fn.bn.0.running_mean f4 [64]
00000000: b856 f03f 2970 3b3e 03d7 0640 0784 703e
00000010: 7cf7 a8bf 92c4 833f ba26 8bbf 007c d6bf
00000020: 43a6 e8be b02c 6b3f a4c2 03c0 f31b 17c0
00000030: 0705 71bf 0eeb 95bf e232 d53f ab51 c4be
00000040: 35c3 7fbf 6ce6 1c3f 2721 813e a924 9ebf
00000050: 7f08 a8bf 1715 45bf c3e7 7e3f 24c9 2740
00000060: 244c 993f 480e fc3f aad7 69bf a140 0240
00000070: 086a b4bd c45e b4be 2e74 00be 54b5 a9bf
00000080: 2bc1 863f dc43 543f d1f3 40bf dc35 63bf
00000090: 4d5b e3bf 74d4 0b3e 30eb 863f 76b2 89bf
000000a0: ca3c de3f 2f8a 25c0 cb73 843f 4300 37bf
000000b0: 93a2 d4bf c79e 0ac0 64a8 84bf 802d 2fc0
000000c0: 6a0c 86be 787c e4bf 6df3 1140 7e4e f6bf
000000d0: 949f e03d bf1b 4ebf b23d 1d3f e346 223f
000000e0: 4316 c0bf 9be9 613e 95b8 f3bf a544 ebbe
000000f0: 548b 78be 4cdd dbbc 34b5 953e 345d 05bf
1.8776464 0.18304504 2.1068733 0.23487864 -1.3200526 1.0294363 -1.0871193 -1.6756592
-0.45439348 0.9186506 -2.058755 -2.361081 -0.94148296 -1.1712358 1.6656153 -0.38343558
-0.9990724 0.61289096 0.25220606 -1.2354938 -1.3127593 -0.76985306 0.9957239 2.6216516
1.1976361 1.9691858 -0.913447 2.0351946 -0.08809286 -0.3522855 -0.12544319 -1.3258462
1.05277 0.82916045 -0.75372034 -0.8875406 -1.7762238 0.13655263 1.0540524 -1.0757587
1.7362301 -2.586559 1.0347837 -0.71484774 -1.6612114 -2.165941 -1.0363889 -2.737152
-0.26181346 -1.7850485 2.2804825 -1.9242704 0.10967937 -0.8051109 0.61422265 0.63389415
-1.5006794 0.2206177 -1.9040705 -0.4595081 -0.242719 -0.026838921 0.2923981 -0.5209534

conv.1.update_fn.bn.0.running_var f4 [64]
00000000: faca 0040 8ed5 3640 b001 2940 78aa 3440
00000010: 892f ff3f aad1 8240 b7ba b33f 6e36 0e40
00000020: 995d 3540 7913 3940 d86c 3b40 0f1c 4740
00000030: 82fe 8f40 cd94 dc3f b0f5 f33f a609 fd3f
00000040: b34e 3f40 3438 3b40 d3d5 dc3f 24f9 2240
00000050: a780 3540 164b 9c40 e133 6940 cb98 5840
00000060: 08af 4340 bb3e 7040 c861 4c40 9718 1340
00000070: b705 f53f 516f fc3f c004 7440 3711 a53f
00000080: 2ce7 0140 9f76 cd3f 7426 3640 9703 a43f
00000090: 2376 4840 48d8 4c40 75ce 3f40 7f56 0c40
000000a0: 0cab 4540 1938 b240 a6e2 2840 c0cd 1340
000000b0: 70ad 6840 decf 4240 ac11 b240 3c26 2a40
000000c0: 60dd 6440 0e64 8e40 b007 3c40 f683 7840
000000d0: fa0b dd3f e4af 2240 0b32 5b40 06ab 5c40
000000e0: ce52 6640 3240 3940 252f 8440 62a2 4940
000000f0: 16ac 0740 274e 1440 8774 3740 a10b 2c40
2.0123887 2.8567843 2.640728 2.8229046 1.9936382 4.0880938 1.4041356 2.2220721
2.8338377 2.8918135 2.9285183 3.1110876 4.499818 1.723291 1.9059353 1.976857
2.9891784 2.9253054 1.7252754 2.5464563 2.8359773 4.884166 3.6437914 3.3843257
3.057558 3.7538288 3.193468 2.2983758 1.9142369 1.9721471 3.81279 1.2895879
2.0297346 1.6051825 2.846097 1.2813596 3.1322105 3.2007008 2.9969761 2.1927793
3.0885649 5.569348 2.6388335 2.309433 3.6355858 3.0439372 5.564657 2.6585836
3.5760117 4.4497137 2.9379692 3.8830543 1.726928 2.5419855 3.4249294 3.4479384
3.598804 2.8945432 4.130755 3.150536 2.1198783 2.31727 2.8664873 2.6882098

conv.2.update_fn.fc.0.weight f4 [64, 64]
00000000: b924 a1bc e978 0bbc 9c84 b2bd dff6 f5bd
00000010: 758c 603b e090 db3d dd27 0fbe 5f09 d7bd
00000020: bb25 04bc a976 abbd 391a ac3d 4d66 b53d
00000030: c8f3 033d d1f8 543c 9f9d 713d 33c4 d83c
00000040: e84b 05be 7949 103e 1405 023d d9ed b03d
00000050: a016 df3d ccf4 453d 4d05 d43d 27ef 213e
00000060: 8751 cc3d fc52 7d3d 62f3 eb3d c8f7 8cbd
00000070: b58e bfbd f775 bc3c 9cbc 90bc 676d d8bd
00000080: 8ede 14be ac3d c73d e04b 833c f243 a5bc
00000090: ff69 d1bd f324 783d db8e cc3a b646 f43c
000000a0: f6ba d4bd 56ed 413d 05b5 57bd d212 833d
000000b0: 38f6 af3d ba3d e33d ba6c bfbc ca18 8dbd
000000c0: b11e 3abd 44c9 c83a ffd1 953d 8caf 39bd
000000d0: ef4f f83c af55 5abd edba 40bd 26a0 cdbd
000000e0: 44a0 bf3d d0fe dfbd e45e d1bd c110 753c
000000f0: 29cc d23d 5f57 97bd e8e5 d8bc 727b bf3b
00000100: 7d89 9e3d 0f5d edbb 347a 283d f998 d3bc
00000110: 7f30 9bbd df84 703c ff8e 163d 524e f53c
00000120: 898f db3d 36e3 18be 52bb 9fbd e20d 693c
00000130: 646c 95bd b92e eebc 9a1b 0bbe d189 523d
00000140: 622c 293d bef9 48bd 14e4 09bd d067 cabd
00000150: 1d89 35bd b124 0f3e 3132 74bc b80f 913b
00000160: b01c 853d ac07 e3bd 2cb1 86bd 85a0 0dbc
00000170: 4e3d 943d 332f 3a3d 91f2 ef3c e033 c13d
00000180: 507f 2e3c d2e6 063d cacf bd3d ce3a e9bd
00000190: 52db cb3a 8a76 f33d 9a33 d1bd c1e0 023d
000001a0: 536d fb3d ebde aabd f9c3 e33d dbe2 a83d
000001b0: eba1 033d f390 e63d ce1e d4bb 73f4 b23c
000001c0: 06ad f93a 1a22 153e 8828 f3bc b0f3 a4bd
000001d0: 229b 133c c82d ec3d 544e 46bd b269 2e3d
000001e0: 71c6 d03c 6034 9ebd 7be5 e63d 849e a8bd
000001f0: 05e2 a1bd 6e79 823d 2067 2b3e 9673 fcbd
00000200: b261 053e 0c23 b43d 4388 ee3d 6cd5 6ebd
00000210: 9a4d 12be c7a5 e8bc 2749 203d 09a0 c93d
00000220: 47db a43d caa7 b93c 5bc4 023d f076 46bd
00000230: 181b a2bd 3603 bdbd c42f 30bd 4838 79bd
00000240: 08e2 073e 1edf 473b c279 d43d 5f1f 3b3e
00000250: 4cd9 ebbc cc0b fabc 5a76 d6bd 9706 e53c
00000260: 979a 9abc c475 1b3d 4783 95bd 82c9 4b3d
00000270: aa28 15bd c7a7 22bc 01a8 84bc 9ae3 81bc
00000280: 3d84 8b3c 82c1 8f3d 266c 233d 1f98 b73c
00000290: bae4 823d 89f8 a03d dfb0 d1bd 174b cfbd
000002a0: 678d cabd 5540 203e 32c7 3d3d 101f d13d
000002b0: 8a2f b83d 7749 a63d ce63 ca3c a938 76bd
000002c0: 9787 903d 52d6 d9bc 5848 743d 145f da3d
000002d0: 660b 12bd 8f56 c03d 403d 783d 3ca0 a13d
000002e0: c140 f93c 6493 50bd 5067 393d 28c9 bebd
000002f0: 5418 a93d 5a05 ecbb c735 e3bd a200 ce3d
00000300: 1eba 0b3d 5469 ee3d 8752 d9bd 50f0 e03c
00000310: 441a 03be 7406 923d b7bf 9c3b 4540 b7bd
00000320: 31c4 983d f7ec 0a3d f7b1 0ebe 2b58 a93d
00000330: de49 b33d 786f a0bc f63b 6d3c b07b 7e3d
00000340: 2a7a eb3d 6f3f bfbd 38ec c03d 3a5c c03d
00000350: d392 c93d 83d8 143e 6824 4ebd 5ab1 fcbd
00000360: 1d36 e8bc e7a9 4cbc f159 a73d 3b46 bd3d
00000370: 2c68 f43d 3560 c53d cca0 abbd 55d6 663c
00000380: 7a1e 9bbc 9570 a3bb e16f bfbd 5f1a 013e
00000390: 4d02 a33d 3020 e4bd 4f18 483d 7f40 bb3d
000003a0: aa63 c83d c830 73bc b98f 7b3d eb09 bebd
000003b0: feef 0d3d cc9e dc3a a09a 50bd 9a14 bfbd
000003c0: c61c f73d 696b d6bd 2429 0bbd 4a43 5bbd
000003d0: 03a5 6c3d 2536 473b e29d 97bd fd87 d5bd
000003e0: 39d8 ad3d d657 573d 563e 143d 8578 d2bc
000003f0: 3b3f 02bd 5662 06bd 36c0 bbbd 6c57 05bd
-0.019670831 -0.008512714 -0.087166995 -0.120099775 0.0034263406 0.10720992 -0.1398005 -0.10499834
-0.008065636 -0.08372242 0.08403439 0.08857403 0.03221491 0.012998776 0.05898821 0.026460743
-0.13017237 0.14090528 0.031743124 0.08639116 0.10892987 0.04832916 0.103525735 0.15813886
0.099764876 0.06184672 0.11521031 -0.06883198 -0.09353391 0.023005469 -0.017668061 -0.10567742
-0.14538023 0.0972856 0.016027391 -0.020174 -0.10225295 0.060582113 0.0015606539 0.029818874
-0.103872225 0.04734548 -0.052662868 0.06400074 0.085918844 0.11095758 -0.023367275 -0.06889494
-0.045439426 0.0015318771 0.07315444 -0.04533343 0.030311553 -0.05330437 -0.047053266 -0.100403115
0.0935674 -0.109372735 -0.10223177 0.014957608 0.10292847 -0.073897116 -0.026476815 0.0058435732
0.077410676 -0.0072437595 0.041132167 -0.025829779 -0.07577609 0.014680116 0.036757465 0.029944573
0.107207365 -0.14930424 -0.077994004 0.014224501 -0.072960645 -0.029075013 -0.13584748 0.051400963
0.041302092 -0.049066298 -0.033664778 -0.09883082 -0.044320215 0.1397884 -0.014904545 0.0044269226
0.06499612 -0.11085448 -0.065767616 -0.008644228 0.072382554 0.04545517 0.02929047 0.094337225
0.010650471 0.03293497 0.09268148 -0.11388169 0.0015553033 0.11887844 -0.1021492 0.031952623
0.12276711 -0.083432995 0.11121363 0.08246394 0.03213684 0.112581156 -0.006473399 0.021845078
0.0019048757 0.1456379 -0.029682413 -0.08054292 0.0090091545 0.115321696 -0.048414543 0.042581268
0.02548525 -0.077248335 0.11274239 -0.082333595 -0.07904438 0.06370817 0.16738558 -0.12326734
0.13025549 0.08795747 0.116470836 -0.058309004 -0.14287415 -0.028399361 0.039132264 0.098449774
0.08049636 0.022663016 0.03192554 -0.04845327 -0.07915324 -0.09229128 -0.043014303 -0.06084469
0.13269818 0.0030497978 0.10374786 0.18273686 -0.028790139 -0.030523203 -0.104717925 0.027957244
-0.018872542 0.037954107 -0.0730043 0.04975272 -0.036415733 -0.009927697 -0.016193392 -0.0158556
0.01703083 0.070193306 0.03989806 0.022411404 0.063912824 0.07859904 -0.102388136 -0.10121744
-0.098902516 0.1564954 0.046332546 0.10211003 0.08993442 0.08119481 0.024705794 -0.06011263
0.07057112 -0.026591454 0.059639305 0.10662666 -0.0356554 0.0939151 0.060605288 0.078918904
0.030426385 -0.050921813 0.045264542 -0.09315711 0.08256593 -0.0072027864 -0.110942416 0.100587144
0.034113042 0.116411835 -0.10611444 0.02745834 -0.12802988 0.07130137 0.0047835964 -0.08947805
0.074592955 0.033917394 -0.13935076 0.0826877 0.087543234 -0.019584402 0.014479628 0.062129676
0.1149791 -0.09338271 0.09420055 0.09392591 0.098424576 0.14535718 -0.05032769 -0.123385146
-0.028346116 -0.01249168 0.08171452 0.09241911 0.11933932 0.09637491 -0.08380279 0.014089187
-0.01893543 -0.004987786 -0.09347511 0.12607716 0.07959423 -0.11138952 0.048851307 0.09143161
0.097846344 -0.014843173 0.06141636 -0.092792355 0.034652703 0.0016831993 -0.050928712 -0.09330101
0.12066035 -0.104697056 -0.03397478 -0.05353097 0.057774555 0.0030397263 -0.07403161 -0.10426328
0.08488507 0.052574 0.03619226 -0.025692234 -0.031798583 -0.032808624 -0.09167521 -0.032554075
