datasets/social/backup/results/temp/3/GSN_sparse/checkpoints/checkpoint.pth.tar (torch, 844130 bytes, 142 tensors)

conv.0.update_fn.fc.0.weight f4 [64, 534]
0	0xb8ccd084	-9.766317e-05
1	0x3d055b32	0.032557674
2	0x3c84515c	0.016152076
3	0x3d004d14	0.031323507
4	0xbd0fc865	-0.03510322
5	0x3cc82b0b	0.024434587
6	0x3d4328e0	0.047646403
7	0x3ccd3fac	0.025054775
8	0x3d37dd77	0.04488894
9	0xbbf5b85d	-0.0074987845
10	0x3cc695af	0.024241297
11	0x3d4483ac	0.047977135
12	0xbbcd9881	-0.0062742834
13	0x3c8ad5a9	0.016947584
14	0xbd2c4549	-0.042058263
15	0xbd0cd55f	-0.034383174
16	0xbc81798c	-0.015805028
17	0xbc1e8009	-0.009674081
18	0xbd4af997	-0.049554434
19	0x3d4cfb30	0.05004424
20	0x3d07e64e	0.03317862
21	0x3d8edb85	0.06975464
22	0xba2d40b6	-0.0006609069
23	0x3cf4b8e6	0.029873323
24	0x3c9204d2	0.017824564
25	0x3cfe6691	0.031054767
26	0xba666126	-0.000878828
27	0xbd1206dd	-0.035651077
28	0x3d77a9db	0.06046472
29	0x3d397f34	0.045287326
30	0xbd1d493a	-0.038399912
31	0x3d8ab88b	0.0677348
32	0x3b305df3	0.0026911467
33	0x3c21f637	0.009885362
34	0x3c5110de	0.012760369
35	0xbcbe5b03	-0.023236757
36	0xbc08eb2c	-0.008356851
37	0xbc1f5e1b	-0.009727026
38	0xba926704	-0.0011169617
39	0xbcce0cb9	-0.025152551
40	0xbd291f8f	-0.041289862
41	0x3d0cae78	0.034346074
42	0xbc6bbd2f	-0.014388367
43	0xbca4f0b4	-0.020134307
44	0x3c96ecbc	0.01842343
45	0x3b374210	0.002796296
46	0x3cab3dde	0.020903524
47	0xbcb17bdf	-0.021665512
48	0xbcfc0929	-0.030766087
49	0x3d0bfeb3	0.034178447
50	0x3c0cf269	0.008602717
51	0x3c91cd31	0.017798038
52	0x3cd82c67	0.02638836
53	0xbce08852	-0.027408753
54	0x3d990ad5	0.07472769
55	0xbcdd747e	-0.027033087
56	0x3d1fa60c	0.038976714
57	0xbc53ad63	-0.012919757
58	0x3d7a7d55	0.061154682
59	0xbc0eff42	-0.00872785
60	0xbc229427	-0.009923018
61	0x3d9626b5	0.073316015
62	0x3d00728b	0.031359237
63	0xbd5254a2	-0.051350243
64	0x3c80681c	0.015674643
65	0x3dd7c1f1	0.10535038
66	0xbceb6572	-0.028734896
67	0x3c4fc9bb	0.012682374
68	0x3d1bbb9a	0.038020708
69	0xbd4c64a6	-0.049900673
70	0xbda7d6d6	-0.081952736
71	0x3db916a7	0.09037524
72	0x3c9f7253	0.019463694
73	0x3ce5f4df	0.028070865
74	0xbbb2268d	-0.0054367245
75	0x3d8bcf6c	0.06826672
76	0xbd74c50b	-0.059758227
77	0x3dbf067e	0.0932741
78	0xbcaba007	-0.02095033
79	0x3cd2c82f	0.02573022
80	0xbd24f4d3	-0.040272545
81	0xbbcc5da5	-0.0062367492
82	0xbd67f349	-0.0566285
83	0x3e0e2306	0.13880548
84	0x3b91b110	0.0044461563
85	0xbb3d0a3f	-0.0028845218
86	0x3c3019b9	0.01074832
87	0xbdb1fd96	-0.08690946
88	0x3d51a18e	0.05117946
89	0xbcd2a323	-0.025712555
90	0x3d8b01d3	0.06787457
91	0x3d5831b0	0.05278176
92	0xbbd6f7f4	-0.00656032
93	0x3ca9dbc3	0.020734673
94	0xbc424130	-0.011856362
95	0x3d425bcd	0.04745083
96	0xbd56757b	-0.05235813
97	0xbcdfa047	-0.027298106
98	0xbd8de7b5	-0.0692896
99	0x3d42587c	0.047447667
100	0x3c4de22f	0.012566133
101	0xbb53c287	-0.0032311992
102	0x3ab82a97	0.0014050779
103	0x3bb854ae	0.005625329
104	0x3d821dc5	0.06353334
105	0x3c033fc8	0.008010812
106	0xbd90a1ee	-0.07062136
107	0xbd577ae1	-0.05260742
108	0xbe0d747a	-0.13813964
109	0x3c95aefa	0.018271912
110	0x3d46705f	0.04844701
111	0xbb677a5a	-0.003532073
112	0x3d84c934	0.06483689
113	0x3d08d760	0.033408523
114	0x3d3305dd	0.043706764
115	0xbd07fb64	-0.03319873
116	0x3bd0fd43	0.0063778474
117	0x3af0d0a8	0.0018372731
118	0xbcefb079	-0.029258953
119	0xbc2f7e56	-0.010711273
120	0x3cdf8503	0.027285105
121	0x3a1886af	0.0005818409
122	0x3d3f2662	0.046667464
123	0xbb36c5d2	-0.0027888906
124	0xbcab60cf	-0.020920185
125	0xbca09249	-0.019601004
126	0x3d0639ec	0.032770082
127	0x3c379fe8	0.011207558
128	0x3d0021a1	0.03128207
129	0x3b69f654	0.0035699802
130	0xbcf48814	-0.029850043
131	0xbd28cecd	-0.041212846
132	0xbdb3b23f	-0.08774232
133	0x3da45624	0.080242425
134	0x3d433b92	0.047664233
135	0xbd16c4b4	-0.036808684
136	0x3bde468a	0.0067833113
137	0xbd0d00ef	-0.03442472
138	0xbcdc518a	-0.02689435
139	0xbcf69509	-0.030100362
140	0x3cf39ec1	0.029738786
141	0xbd061cb9	-0.032742236
142	0x3d54fa56	0.05199655
143	0x3acc4a9c	0.00155862
144	0x3d2469a1	0.040139798
145	0xbc58aaa5	-0.013224279
146	0x3d7a7e79	0.06115577
147	0xbb73718e	-0.0037146541
148	0x3ce48315	0.027894536
149	0xbc2e9cd0	-0.010657504
150	0x3cc3ff41	0.023925425
151	0xbd150c2b	-0.036388557
152	0x3cd956b4	0.026530601
153	0x3cfc75e8	0.03081794
154	0xbd066f84	-0.032821193
155	0xbc05a334	-0.008156586
156	0x3d435237	0.047685828
157	0x3d239a76	0.039942227
158	0x3d22ad81	0.039716247
159	0x3abaf2eb	0.0014263069
160	0x3d64d2de	0.05586516
161	0xbb9b31ce	-0.004736162
162	0x3cd6d50d	0.026224637
163	0x3d287af2	0.041132875
164	0x3d144042	0.036194094
165	0xbb92ab0e	-0.0044759577
166	0xbcbfbc30	-0.023405164
167	0x3d0decdd	0.03464972
168	0xbbd41627	-0.0064723673
169	0x3d54a431	0.051914398
170	0xbccb6aef	-0.024831263
171	0xbd1dd978	-0.038537472
172	0x3d2f6134	0.04281731
173	0x3c60b709	0.013715514
174	0x3d57e563	0.052708995
175	0x3d368e8c	0.044569537
176	0xbcad868d	-0.021182323
177	0xbd075d08	-0.033047706
178	0x3bd544e4	0.0065084565
179	0x3d3eb187	0.046556022
180	0x3a8ac3ec	0.0010586954
181	0x3c864fd6	0.01639549
182	0xbd0acbe2	-0.033885844
183	0x3cfc0d6f	0.030768124
184	0xbc3877ba	-0.011259014
185	0x3cf49fd5	0.02986137
186	0x3d1a14f3	0.037617635
187	0x3d11294a	0.035439767
188	0x3c1a5dcb	0.009421776
189	0x3b9a875e	0.004715844
190	0xbcd73c27	-0.0262738
191	0x3d64c3c1	0.055850748
192	0x3afa5cbb	0.0019101122
193	0x3c48cc44	0.012255732
194	0x3d21a136	0.039460383
195	0xbad6a85c	-0.0016377079
196	0x3c87759d	0.016535575
197	0xbd7424a5	-0.05960526
198	0x3c3afe1a	0.011413122
199	0x3d0990aa	0.033585228
200	0x3d9a2448	0.07526451
201	0x3d38b627	0.04509559
202	0x3cf0936d	0.029367173
203	0xbd178231	-0.036989395
204	0xbcd08d83	-0.025458103
205	0xbd1385a6	-0.03601613
206	0x3d13466c	0.03595583
207	0x3d348baa	0.044078507
208	0x3d35036d	0.04419272
209	0xbbba157f	-0.005678832
210	0xbcef6b61	-0.029226007
211	0x3d53393f	0.051568266
212	0xbd35b38d	-0.044360686
213	0x3b9435ef	0.004523031
214	0x3d1c3b1b	0.038142305
215	0x3d43a92c	0.047768757
216	0x3d2aaac3	0.041666757
217	0x3d3d6b2a	0.046244778
218	0x3cd0579c	0.0254324
219	0x3d5d6f88	0.054061443
220	0x3c52f567	0.012875891
221	0xbd0a3c07	-0.033748653
222	0xbc17b4bc	-0.009259399
223	0x3d220889	0.03955892
224	0xbd01e5ab	-0.03171317
225	0xbbc40abf	-0.0059827263
226	0x3bbc4574	0.005745584
227	0x3d0cd4b8	0.034382552
228	0x3c4adf6e	0.012382371
229	0xbc2dcbc3	-0.010607663
230	0x3b58f9d7	0.00331079
231	0x3c83350d	0.016016508
232	0x3cf7de6d	0.030257428
233	0x3bb03954	0.005377928
234	0xbca06b26	-0.019582342
235	0x3d0a5e11	0.033781115
236	0x3d1ef053	0.03880341
237	0x3cbda2a0	0.023148835
238	0xbd1100f9	-0.03540132
239	0x3c9858a8	0.018596962
240	0x3cdf6d81	0.027273895
241	0xbd74d93b	-0.05977748
242	0xbc226821	-0.009912522
243	0x3d4587c9	0.048225198
244	0x3ca896b6	0.020579677
245	0xbd8ad8cb	-0.06779631
246	0x3e0057b8	0.12533462
247	0x3d13b0a1	0.03605712
248	0x3d9156e8	0.07096654
249	0x3ce98e8b	0.028510353
250	0xbc1a577c	-0.009420272
251	0x3da09d2a	0.07842477
252	0xbcecdeef	-0.028914897
253	0x3c7f5279	0.015583628
254	0xbcfa7036	-0.030571084
255	0xbde35608	-0.111003935

conv.0.update_fn.fc.0.bias f4 [64]
0	0x3cf48c17	0.029851956
1	0x3c81e4a5	0.015856097
2	0xbc859594	-0.016306676
3	0xbd1da1cb	-0.038484376
4	0xbd1f29b8	-0.038858145
5	0x3c92d3ab	0.017923197
6	0xbd236c27	-0.039898064
7	0xbcaa5e02	-0.02079678
8	0x3bfca8a5	0.0077105337
9	0x3c905862	0.01762027
10	0xbd4f364f	-0.050588902
11	0x3d08aade	0.033366077
12	0x3cc5175a	0.024058986
13	0x3d2920bd	0.041290987
14	0x3d06863b	0.032842856
15	0x3cf6ccaa	0.030126888
16	0x3cadfc63	0.021238511
17	0xbbfc00b6	-0.0076905144
18	0x3b9b7351	0.0047439714
19	0xbc80bf01	-0.015716078
20	0x3c8a1251	0.016854437
21	0x3d4c436a	0.04986898
22	0xbd0fc5ad	-0.035100628
23	0x3d02b73e	0.031913035
24	0x3d043af2	0.032282777
25	0xbd1b53d1	-0.03792173
26	0xbcbaf94e	-0.022823956
27	0xbced92c1	-0.029000642
28	0xbcf988b6	-0.030460697
29	0x3cb2b024	0.021812506
30	0x3ad15eaa	0.0015973647
31	0x3c60e853	0.013727265
32	0xbcc2e2cb	-0.023789784
33	0xbbf410f8	-0.007448312
34	0x3ca89d79	0.020582901
35	0xbc659d07	-0.014014489
36	0xbcee1f54	-0.029067673
37	0x3a25a401	0.0006318689
38	0x3c899a51	0.016797217
39	0x3c1ac892	0.009447234
40	0x3d017f69	0.03161565
41	0xbca69759	-0.02033584
42	0xbd294d81	-0.04133368
43	0xbc865292	-0.016396794
44	0xbd3a9207	-0.04554942
45	0x3c6f86fc	0.014619585
46	0x3c20b532	0.009808825
47	0xbcee669f	-0.029101668
48	0xbd112cf4	-0.03544326
49	0x3c6c492a	0.014421741
50	0xbcb140db	-0.02163737
51	0xbd3a4c60	-0.045482993
52	0xbc01c23e	-0.007919846
53	0x3cb01077	0.021492226
54	0xbca97612	-0.020686183
55	0x3c28d0e1	0.010303707
56	0x3c2f631b	0.010704781
57	0x3ce74275	0.028229931
58	0xbc96516f	-0.018349377
59	0x3d2a01f3	0.041505765
60	0x3c0d3d97	0.008620641
61	0x3cdd7207	0.027031912
62	0x3d3235e4	0.043508425
63	0x3bec6e08	0.007215265

conv.0.update_fn.fc.1.weight f4 [64, 64]
0	0xbd944f44	-0.07241681
1	0x3db69702	0.08915521
2	0x3c38261b	0.011239554
3	0x3dcab4b5	0.098977484
4	0x3dd77bab	0.10521635
5	0xbc5dd874	-0.013540376
6	0x3b359320	0.0027706102
7	0x3dc6708a	0.09689434
8	0xbdd18d05	-0.102319755
9	0xbda09096	-0.078400776
10	0x3de433b8	0.11142677
11	0x3d749e34	0.059721187
12	0x3d37421a	0.044740774
13	0x3debeff8	0.1152038
14	0x3d76b393	0.06022985
15	0xbde5d43f	-0.11222123
16	0xbd25eec5	-0.04051091
17	0x3de00738	0.10938877
18	0x3cc379bd	0.02386176
19	0x3cd83639	0.026393043
20	0xbdb9e028	-0.090759575
21	0xbe0f9fd3	-0.14025812
22	0x3d882375	0.06647388
23	0x3e025f4c	0.12731665
24	0x3ca7066f	0.02038881
25	0xbc7f70dd	-0.015590874
26	0x3dd4e287	0.10394769
27	0xbe15a3fd	-0.14613338
28	0xbd8c5803	-0.068527244
29	0x3dbe0c9b	0.09279748
30	0x3d9dbe4f	0.07702314
31	0x3c9dcca8	0.019262627
32	0x3d90de1d	0.07073615
33	0xbe29b2bf	-0.16572092
34	0xbd98ab15	-0.07454506
35	0xbd7dd230	-0.06196803
36	0xbd98bcea	-0.074579075
37	0xbabfc6b3	-0.001463136
38	0xbd7a48de	-0.061104648
39	0xbd8d2b67	-0.06893044
40	0x3d8b6c1c	0.068077296
41	0x3dac7743	0.08421185
42	0xbd81f61e	-0.06345771
43	0xbd5fc35c	-0.05462967
44	0xbd7b5b33	-0.06136627
45	0xbcd23431	-0.025659652
46	0x3c4ab7b1	0.012372897
47	0x3da8aea5	0.08236436
48	0x3d2c5be0	0.042079806
49	0x3d137037	0.03599569
50	0xbdeaeea4	-0.11471298
51	0x386fb15b	5.7147216e-05
52	0x3d76c375	0.060244996
53	0x3cae9588	0.021311536
54	0x3ce8e012	0.028427158
55	0xbd781bb0	-0.06057328
56	0xbc37668b	-0.011193882
57	0xbcd085ec	-0.025454484
58	0x3c17e496	0.009270808
59	0xbcfcd312	-0.030862365
60	0x3c8fb6a4	0.017543145
61	0xbe0930cd	-0.13397522
62	0x3ddc7bab	0.10765775
63	0xbd190cd6	-0.037365757
64	0xbcd4e58f	-0.025988368
65	0x3d8c3d07	0.068475775
66	0xbad77d10	-0.001644047
67	0xbdd2eb75	-0.10298816
68	0xbdc492fc	-0.095983475
69	0xbdb0ec23	-0.086387895
70	0xbdf2d8ee	-0.11857782
71	0x3d8da9ae	0.069171295
72	0xbd487bdf	-0.048946258
73	0x3cac6e17	0.021048589
74	0x3e13ca56	0.14432654
75	0xbdcf3995	-0.10118405
76	0x3dcdf034	0.10055581
77	0xbdd07e90	-0.1018039
78	0x3e036619	0.12831916
79	0x3e169f0f	0.14709114
80	0xbd3d9af1	-0.04629034
81	0xbd5c6068	-0.053802878
82	0x3cb7b847	0.022426737
83	0x3e04d182	0.12970546
84	0x3d3ae295	0.04562624
85	0x3dcc15c8	0.09965092
86	0x3db8f465	0.090309896
87	0x3d85ce68	0.065335095
88	0xbd3db730	-0.04631728
89	0x3db12a80	0.08650684
90	0xbda947e8	-0.08265668
91	0x3cbb1840	0.022838712
92	0xbd9e5adc	-0.07732174
93	0xbcf78c91	-0.030218394
94	0xbd6d9a4c	-0.058008477
95	0x3db6b36e	0.08920942
96	0x3cd279eb	0.0256929
97	0x3e0034e8	0.12520182
98	0x3d397a1f	0.04528248
99	0x3bf6c943	0.0075313165
100	0x3d38b78a	0.04509691
101	0xbb98f623	-0.0046680137
102	0x3d06a0e3	0.032868277
103	0x3c065a0d	0.008200181
104	0x3db9c5eb	0.09070953
105	0x3d71e8ee	0.05906003
106	0x3b2d0901	0.0026403072
107	0xbc0ead3b	-0.008708294
108	0xbd65524c	-0.055986688
109	0xbdaeeed1	-0.08541644
110	0xbd73548e	-0.05940681
111	0xbd76a480	-0.060215473
112	0x3d3e9d29	0.0465366
113	0x3cbfdab8	0.023419723
114	0x3d514ff4	0.05110164
115	0x3e070630	0.13185954
116	0xbd109aad	-0.03530376
117	0xbd8208b9	-0.0634932
118	0x3d57e0f3	0.052704763
119	0x3e03dce1	0.12877227
120	0x3c7d6fe0	0.015468568
121	0xbd98fe78	-0.07470411
122	0xbd0ec4e4	-0.03485574
123	0xbdd1c6b2	-0.10242976
124	0x3decdfe6	0.11566143
125	0xbddd8547	-0.10816436
126	0x3de9d2c8	0.114171565
127	0xbd8ece92	-0.06972994
128	0x3cea9772	0.028636668
129	0xbd018619	-0.031622026
130	0xbba31129	-0.004976411
131	0xbd472e2f	-0.04862803
132	0xbd2157c5	-0.039390344
133	0xbd186a43	-0.037210714
134	0xbdac8be7	-0.08425122
135	0x3d9c3cce	0.07628785
136	0x3d36c866	0.04462471
137	0x3dc928d7	0.09822243
138	0xbd12527b	-0.03572319
139	0xbde7ec1c	-0.11324331
140	0x3d8e743e	0.06955765
141	0x3e056afb	0.13029091
142	0xbc5f0d9d	-0.0136140855
143	0x3d662eea	0.056197084
144	0xbca19115	-0.0197225
145	0xbd815785	-0.06315521
146	0x3d0779c4	0.03307511
147	0x3d55b0f3	0.052170705
148	0x3dec7eaf	0.115476005
149	0xbc966065	-0.018356511
150	0x3db0ee42	0.08639194
151	0x3d17e91f	0.037087556
152	0xbc651f0b	-0.013984452
153	0xbd0a171e	-0.033713453
154	0x3ce38708	0.027774349
155	0xbb99c90f	-0.0046931575
156	0xbd02fcc8	-0.031979352
157	0x3cae0954	0.021244682
158	0xbd7c327b	-0.06157158
159	0xbd5f495b	-0.054513317
160	0x3d7cac77	0.061687913
161	0x3c747498	0.014920376
162	0x3d1f6eed	0.038924146
163	0xbd96b450	-0.07358611
164	0xbcc66b7a	-0.02422117
165	0xbd8ab88b	-0.0677348
166	0x3ca2dbb5	0.019880155
167	0x3cad6cf5	0.021170119
168	0x3d50dc96	0.050991617
169	0x3b9f7648	0.004866395
170	0xbd4a9ab6	-0.04946395
171	0x3df3eb6e	0.11910139
172	0x3e05ae0d	0.13054676
173	0x3d259bc1	0.04043174
174	0x3aea2fb8	0.0017867004
175	0xbe016edb	-0.12639944
176	0xbbfe63cf	-0.007763363
177	0x3d5eb716	0.054373823
178	0x3d1bd5a4	0.03804554
179	0x3d957f6a	0.07299693
180	0xbdf7cc41	-0.12099505
181	0xbd11f17f	-0.0356307
182	0x3d6ed572	0.058309026
183	0x3cf72017	0.030166669
184	0x3e07d672	0.13265398
185	0xbd3027b5	-0.043006618
186	0xbded0198	-0.115725696
187	0x3d9d9813	0.076950215
188	0x3d4302ee	0.047610216
189	0xbd7fa736	-0.062415324
190	0xbd8a3a4a	-0.06749399
191	0xbdb307d8	-0.087417305
192	0xbdbd0832	-0.09230079
193	0x3d6e8218	0.058229536
194	0xbd9e4a74	-0.077290446
195	0xbd43baee	-0.047785692
196	0xbd36a771	-0.04459328
197	0x3d6569e9	0.056009207
198	0xbde90c77	-0.113793306
199	0x3e12cce3	0.1433597
200	0xbc3aec11	-0.011408822
201	0xbd886e94	-0.06661716
202	0xbdafb1c9	-0.08578832
203	0x3d6cf5b9	0.057851527
204	0xbcb2c752	-0.021823559
205	0x3db10179	0.08642859
206	0xbd8f9381	-0.07010556
207	0xbd97d13c	-0.07412955
208	0x3c595ac5	0.01326627
209	0x3c76f733	0.015073585
210	0xbd50a812	-0.050941534
211	0x3d5423e4	0.05179204
212	0x3c04c0a7	0.0081025725
213	0xbdfdcbcb	-0.12392386
214	0xbe01d8a5	-0.126803
215	0xbc1f5e2a	-0.00972704
216	0xbd7cf8fd	-0.06176089
217	0xbde7d75c	-0.113203734
218	0x3df513f2	0.11966695
219	0x3b2434a2	0.0025055786
220	0x3dec83c6	0.11548571
221	0xbd96632f	-0.073431365
222	0x3dfb7176	0.122775
223	0x3dc9e18e	0.09857474
224	0xbc9f0be9	-0.019414859
225	0xbd08e265	-0.03341903
226	0x3dc0d6bd	0.09415958
227	0xbdf8fcc7	-0.121575885
228	0x3bb937ad	0.005652389
229	0x3cdea1f1	0.027176829
230	0x3d6ca5cb	0.0577753
231	0xbcb6fab8	-0.022336349
232	0xbd9a9413	-0.07547774
233	0xbd276e06	-0.04087641
234	0x3dc1333f	0.094336025
235	0xbde9a68b	-0.11408719
236	0xbd59f7e8	-0.053214937
237	0x3d6e6e47	0.058210637
238	0x3c8918dd	0.016735489
239	0xbdda513c	-0.106600255
240	0xbdc9552e	-0.098307
241	0x3d5edb33	0.054408263
242	0x3db7e1d9	0.08978624
243	0xbca1e48a	-0.019762296
244	0xbd63e773	-0.05564065
245	0xbded1e31	-0.11578024
246	0xbddb7cb4	-0.107171446
247	0xbe084e08	-0.13311017
248	0x3d7656db	0.060141426
249	0xbd8168fd	-0.06318853
250	0x3da5b0c4	0.08090356
251	0x3d0a3c82	0.03374911
252	0xbbdc4b11	-0.006722816
253	0x3d24cdb2	0.04023523
254	0xbdb7893f	-0.089617245
255	0x3db5469a	0.08851357

conv.0.update_fn.fc.1.bias f4 [64]
0	0xbbecab45	-0.0072225654
1	0xbc1ac08f	-0.009445324
2	0xbd2b1168	-0.041764647
3	0x3c9b1e89	0.018935459
4	0x3df2c2c7	0.11853557
5	0xbd49fce6	-0.04931345
6	0x3d9220ae	0.071351394
7	0xbd1fefdd	-0.03904711
8	0x3de45c4d	0.111504175
9	0x3df3d0c9	0.11905057
10	0x3d41c3a3	0.047305714
11	0x3dc2ce9c	0.09512064
12	0xbce24476	-0.027620535
13	0xbdb223ed	-0.086982585
14	0xbcf7899d	-0.030216986
15	0xbc542c2d	-0.012949985
16	0xbcd71b9d	-0.026258284
17	0xbaa6a439	-0.0012713737
18	0xbd57dbfc	-0.052700028
19	0xbd9e0a69	-0.07716829
20	0x3cd265ca	0.025683302
21	0xbcf3b77d	-0.02975058
22	0x3db64f03	0.08901789
23	0x3dfcd621	0.12345529
24	0xbd3f050f	-0.046635684
25	0xbd92e5be	-0.07172726
26	0x3da96b69	0.0827244
27	0x3dc5b05e	0.0965278
28	0x3d89a475	0.06720821
29	0xbda83900	-0.08213997
30	0x3da46a3e	0.080280766
31	0xbde927ce	-0.11384545
32	0xbdbe16d3	-0.09281697
33	0x3d18a5a0	0.037267327
34	0x3cedae21	0.029013695
35	0x3d71ba55	0.05901559
36	0x3d6cc713	0.05780704
37	0x3dfe8ba7	0.1242898
38	0x3d439bfc	0.04775618
39	0xbde991eb	-0.11404785
40	0x3d935f6a	0.07195933
41	0xbd6a277c	-0.05716656
42	0x3d745388	0.059649974
43	0xbdf748cc	-0.12074432
44	0x3d54056f	0.051762994
45	0xbd856551	-0.06513465
46	0xbc00f0c8	-0.007869907
47	0xbd048156	-0.032349907
48	0x3dbdefd7	0.092742614
49	0x3d42cd20	0.047558904
50	0x3d93f256	0.07223956
51	0x3d099aaf	0.033594783
52	0xbd850512	-0.06495108
53	0x3d9735e5	0.073833264
54	0x3daad195	0.08340756
55	0x3bdf7b8e	0.006820149
56	0xbdb9b23b	-0.09067198
57	0x3bda524c	0.0066626426
58	0x3da5d9a7	0.080981545
59	0x3dbf8eea	0.093534306
60	0x3d82a676	0.06379406
61	0xbd645956	-0.05574926
62	0xbd5c6565	-0.053807635
63	0x3d085302	0.033282287

conv.0.update_fn.bn.0.weight f4 [64]
0	0x3f7cdb2c	0.9877193
1	0x3f809ffd	1.0048825
2	0x3f756b55	0.958669
3	0x3f753436	0.9578279
4	0x3f7d2fd8	0.9890113
5	0x3f75f9a4	0.96084046
6	0x3f84d188	1.0376444
7	0x3f798a2b	0.9747645
8	0x3f79d9f1	0.9759818
9	0x3f7d0455	0.98834735
10	0x3f822821	1.0168496
11	0x3f8195a0	1.0123787
12	0x3f7ccebc	0.9875295
13	0x3f75fb4d	0.9608658
14	0x3f7b9cbd	0.9828604
15	0x3f7fd077	0.9992747
16	0x3f84397c	1.0330043
17	0x3f83ee91	1.030718
18	0x3f7cb002	0.98706067
19	0x3f82fc4c	1.0233245
20	0x3f7b14a1	0.9807835
21	0x3f821fd1	1.016596
22	0x3f7f1b26	0.996508
23	0x3f7887f2	0.97082436
24	0x3f8652b7	1.0493993
25	0x3f7858f1	0.97010714
26	0x3f7f1e51	0.99655634
27	0x3f7d49ea	0.9894091
28	0x3f7d06bb	0.98838395
29	0x3f79842e	0.97467315
30	0x3f82f6a8	1.0231524
31	0x3f7d5fd2	0.98974335
32	0x3f803b3c	1.0018077
33	0x3f838179	1.0273887
34	0x3f7cd1a1	0.9875737
35	0x3f815348	1.010354
36	0x3f7fbcce	0.9989747
37	0x3f7b6afd	0.98210126
38	0x3f817d5b	1.011638
39	0x3f823fe0	1.0175743
40	0x3f7c3a3c	0.9852636
41	0x3f81bfa7	1.0136613
42	0x3f7d367b	0.98911256
43	0x3f855776	1.0417316
44	0x3f841da0	1.0321541
45	0x3f7ef5d0	0.9959383
46	0x3f7f1e0e	0.99655235
47	0x3f80028a	1.0000775
48	0x3f8169fa	1.0110466
49	0x3f7fcdc2	0.99923337
50	0x3f7d7f75	0.9902261
51	0x3f7d4f8f	0.9894952
52	0x3f8441e1	1.0332605
53	0x3f7cf232	0.9880706
54	0x3f79005f	0.9726619
55	0x3f828dbf	1.0199507
56	0x3f8041f4	1.0020127
57	0x3f799ef9	0.975082
58	0x3f7a88e5	0.97865134
59	0x3f8168f7	1.0110158
60	0x3f7d19cf	0.98867506
61	0x3f82bcd5	1.0213877
62	0x3f82947f	1.0201567
63	0x3f7e6566	0.9937347

conv.0.update_fn.bn.0.bias f4 [64]
0	0xbd3a4a87	-0.04548123
1	0x3c806715	0.015674153
2	0xbd019d72	-0.031644292
3	0xbbd61048	-0.0065327026
4	0xbcab276c	-0.020892821
5	0xbd1db01b	-0.038498025
6	0x3c24728f	0.0100370785
7	0xbd1de941	-0.038552526
8	0x3c416496	0.011803767
9	0xbc872358	-0.016496345
10	0x3c13232f	0.008980556
11	0x3b918ef4	0.00444209
12	0xbd4c0342	-0.049807794
13	0xbd915daa	-0.07097943
14	0xbc765a5b	-0.015036191
15	0xbc01766b	-0.007901768
16	0xbba7b7a2	-0.0051183263
17	0x3ca896b5	0.020579675
18	0xbc7a69de	-0.01528403
19	0x3bb46421	0.0055051004
20	0xbd1acd1a	-0.037793256
21	0xbd29246c	-0.0412945
22	0xbccbe1e9	-0.024887996
23	0xbb3c7291	-0.002875481
24	0x3d3f16ad	0.046652485
25	0xbc7128a2	-0.01471916
26	0xbb91831d	-0.0044406787
27	0xbbc1c056	-0.005912821
28	0xbacb798c	-0.0015523895
29	0xbca517d3	-0.020152962
30	0xbc199465	-0.009373759
31	0xbc81a45e	-0.015825447
32	0x3ba26a1b	0.0049564964
33	0x3cb3c219	0.021943139
34	0xbafb2d28	-0.0019163238
35	0x3c0226ae	0.007943792
36	0xbcf9ec8d	-0.030508304
37	0xbbe8c316	-0.007103334
38	0xbb03c475	-0.0020106111
39	0x3b3763cf	0.0027983075
40	0x3b7df629	0.003875146
41	0x3cae98d7	0.021313114
42	0xbd1ebda9	-0.038755093
43	0x3d5bae81	0.053633217
44	0x3c7b21ce	0.015327884
45	0xbcb871bc	-0.02251517
46	0xba4dc037	-0.00078487716
47	0xbc8cbe5a	-0.01718061
48	0x3c8c1145	0.017098079
49	0xbd2b3153	-0.041795086
50	0xbd28605a	-0.041107513
51	0xbc03fa9a	-0.008055354
52	0x3cb63705	0.022243032
53	0x3b840f47	0.0040301415
54	0xbcdebc0e	-0.02718928
55	0xbb844962	-0.004037068
56	0x3c38c47f	0.011277317
57	0xbcea5ac1	-0.028607728
58	0xbc82fe22	-0.01599032
59	0x3c01abfd	0.00791454
60	0xbbec9380	-0.007219732
61	0xbbeb8d60	-0.007188484
62	0xbbc76b4d	-0.0060857893
63	0x3b002bc5	0.0019557339

conv.0.update_fn.bn.0.running_mean f4 [64]
0	0x3ea7a6e4	0.32744515
1	0x3f06241a	0.52398837
2	0xbf031fa4	-0.51220155
3	0x3e122336	0.14271244
4	0x3f1ec761	0.6202298
5	0x3f0d1bfe	0.5512084
6	0x3e8ca9fd	0.2747344
7	0x3ddda3d4	0.10822263
8	0x3f31ac41	0.69403464
9	0xbe0e08ea	-0.13870588
10	0x3f3d5ed7	0.7397284
11	0x3ef95ef7	0.48705265
12	0xbde234ef	-0.110452525
13	0x3e6e1843	0.23251443
14	0x3e56e009	0.209839
15	0xbc88faf0	-0.016721219
16	0x3eef3544	0.46720326
17	0xbd9a1484	-0.07523444
18	0xbef52803	-0.4788209
19	0xbe4fa8ba	-0.20279208
20	0xbe23eb3f	-0.16007708
21	0x3edb0856	0.42779797
22	0x3f21f37a	0.6326214
23	0xbeb9f5e6	-0.36320418
24	0xbe2aa643	-0.16664986
25	0xbf4834ba	-0.78205454
26	0xbef1b9c3	-0.47212037
27	0xbee31a50	-0.44356012
28	0xbed3cfe3	-0.41369542
29	0x3e1422da	0.1446642
30	0x3f438201	0.76370245
31	0x3ef192a3	0.47182187
32	0x3dafd316	0.08585183
33	0xbf01ceab	-0.50705975
34	0xbe5318e4	-0.20614964
35	0x3e83d500	0.25748444
36	0x3f7245a8	0.94637537
37	0xbd5edab8	-0.054407805
38	0x3d92494f	0.07142889
39	0x3dd291d9	0.102817245
40	0xbef07113	-0.4696127
41	0xbf40b826	-0.7528099
42	0xbdd45ded	-0.103694774
43	0xbd94b283	-0.07260611
44	0xbe969581	-0.29410937
45	0xbf12b129	-0.57301575
46	0xbe92618a	-0.2859004
47	0x3f56f007	0.8396
48	0x3e353ba5	0.17698534
49	0xbeadca9a	-0.33943635
50	0xbd4d28e4	-0.050087824
51	0x3dacd0c8	0.08438259
52	0x3eeb1c84	0.45920193
53	0xbf5abfcc	-0.8544891
54	0xbec63006	-0.38708514
55	0x3f85b6b3	1.044638
56	0x3ec2e0f7	0.3806226
57	0x3f0f9d3b	0.5609929
58	0x3dc2add0	0.09505808
59	0xbe0a7615	-0.13521607
60	0x3dd64697	0.10462683
61	0x3dd95595	0.106120266
62	0x3eba2bc0	0.36361504
63	0xbf84323b	-1.0327829

conv.0.update_fn.bn.0.running_var f4 [64]
0	0x3e6a7688	0.22896779
1	0x3e504cea	0.2034184
2	0x3f02edc4	0.5114405
3	0x3f6a9900	0.9163971
4	0x3e9ab7cd	0.30218354
5	0x3f15ea03	0.585602
6	0x3e5937ba	0.21212664
7	0x3fa75215	1.3071924
8	0x3ee679bf	0.4501476
9	0x3f34494c	0.7042434
10	0x3e9ec0fb	0.31006607
11	0x3ef46d9e	0.4773988
12	0x3e58bb0a	0.211651
13	0x3ed06b3b	0.4070681
14	0x3f0bb77e	0.5457686
15	0x3eb1e43f	0.3474445
16	0x3e95c316	0.292504
17	0x3e7d3511	0.24727274
18	0x3f222fa0	0.6335392
19	0x3ecb3acc	0.39693296
20	0x3e8640c4	0.26221287
21	0x3e93bde7	0.28855821
22	0x3f2ab48a	0.6668173
23	0x3f59ed57	0.85127777
24	0x3ea67056	0.3250758
25	0x3f421141	0.7580758
26	0x3eb89910	0.36054277
27	0x3f3b7ff0	0.7324209
28	0x3ebc27bb	0.36749062
29	0x3ea3ca21	0.3199015
30	0x3f051a95	0.51993686
31	0x3eaedb4c	0.34151685
32	0x3f39f299	0.726358
33	0x3e8336f6	0.2562787
34	0x3eca88fa	0.3955763
35	0x3ecc26d6	0.3987338
36	0x3ebf31db	0.37342724
37	0x3f43d55d	0.7649744
38	0x3e83e131	0.25757745
39	0x3e5c4e9b	0.2151436
40	0x3f26e3e0	0.6519146
41	0x3ef781b0	0.4834113
42	0x3ee46db7	0.44614956
43	0x3e83f8b0	0.2577567
44	0x3ea01cf9	0.31272104
45	0x3e890b27	0.2676632
46	0x3ee7a039	0.45239428
47	0x3ec96dfc	0.39341724
48	0x3f007acf	0.5018739
49	0x3ebfab66	0.37435454
50	0x3e676bd4	0.22599727
51	0x3eb7fa1a	0.35933
52	0x3e845928	0.2584927
53	0x3fbd8332	1.4805663
54	0x3f0c3773	0.5477211
55	0x3f0cf828	0.55066156
56	0x3f07209a	0.5278412
57	0x3edd2e49	0.43199375
58	0x3e91e62c	0.2849592
59	0x3eddbc06	0.43307513
60	0x3f015978	0.50527143
61	0x3e24a9fd	0.1608047
62	0x3e4132bc	0.1886701
63	0x3f5bd273	0.85867995

conv.1.update_fn.fc.0.weight f4 [64, 64]
0	0x3db7a3f5	0.08966819
1	0x3d793de9	0.060850058
2	0xbe071825	-0.13192804
3	0x3e0b9983	0.13632779
4	0xbddd49cc	-0.10805091
5	0xbd7ecb24	-0.06220545
6	0xbd1bb94f	-0.03801852
7	0x3d634eb6	0.055494986
8	0xbe10e935	-0.14151461
9	0x3b84d403	0.004053594
10	0x3e03d1bd	0.12872978
11	0x3de1c9f9	0.11024851
12	0x3d58d7e1	0.052940253
13	0xbacbf139	-0.0015559561
14	0xbdc6df5f	-0.097105734
15	0x3dd26297	0.10272711
16	0x3d4acf87	0.04951432
17	0x3cf19a14	0.029492415
18	0xbdaea6dd	-0.085279204
19	0x3b011c26	0.0019700616
20	0x3dd96e36	0.10616724
21	0xbb04b6f9	-0.0020250662
22	0xbca88d81	-0.020575287
23	0x3b3bdb48	0.0028664637
24	0xbd056e32	-0.032575794
25	0xbd94e7fa	-0.072708085
26	0x3db1a3fe	0.08673857
27	0x3c8911f0	0.016732186
28	0xbd191a3f	-0.037378546
29	0x3d3c580a	0.045982398
30	0xbd323605	-0.04350855
31	0xbcb091c5	-0.021553883
32	0x3dc4508f	0.09585678
33	0x3d947c42	0.07250263
34	0x3ddee380	0.10883236
35	0x3d160ac2	0.036631353
36	0x3dd825bd	0.10554073
37	0x3dcb9918	0.0994131
38	0x3ca6c4a0	0.02035743
39	0x3d9214aa	0.071328476
40	0xbd8ba823	-0.06819179
41	0x3d85413c	0.06506583
42	0x3cdba695	0.026812831
43	0xbdd6a64a	-0.10480936
44	0xbdf0996f	-0.11748015
45	0xbde65cae	-0.11248146
46	0x3c6194de	0.013768403
47	0xbd727148	-0.059190065
48	0x3e10b8a5	0.14132936
49	0xbd268046	-0.040649675
50	0x3db808e8	0.08986074
51	0x3c6f429b	0.014603282
52	0x3d3544e9	0.04425517
53	0xbdb9ecd1	-0.09078372
54	0xbd464f74	-0.048415616
55	0xbddacf3e	-0.106840596
56	0xbd356fca	-0.044296063
57	0x3c4ed206	0.012623316
58	0xbde76943	-0.11299374
59	0xbda2baf7	-0.07945817
60	0x3e1ddd0f	0.15416358
61	0xbd6b2132	-0.057404704
62	0xbb964445	-0.004585775
63	0x3d0e4185	0.034730453
64	0xbdc73d24	-0.097284585
65	0x3dacb28d	0.08432493
66	0xbd168e6d	-0.03675692
67	0x3d052e31	0.032514755
68	0xbc619b7e	-0.013769982
69	0x3dd60edc	0.10452053
70	0xbd8aabaa	-0.067710236
71	0xbe465129	-0.19366898
72	0xbd77c356	-0.06048902
73	0xbd922a07	-0.07136922
74	0x3cce011b	0.025147012
75	0xbd0295ab	-0.031881016
76	0x3cd8fa70	0.026486605
77	0xbd1e243d	-0.03860878
78	0x3bb6f9a0	0.005583957
79	0xbd610a7f	-0.05494165
80	0xbe30bee7	-0.17260323
81	0xbd81425b	-0.063114844
82	0x3de1414f	0.10998785
83	0xbdd6ccd1	-0.104882844
84	0xbd831f1c	-0.06402418
85	0x3e241436	0.16023335
86	0xbd9e82d4	-0.07739797
87	0xbde093e8	-0.10965711
88	0x3d8acc87	0.06777292
89	0x3cfff71e	0.031245764
90	0xbd9892d5	-0.07449881
91	0xbde74b07	-0.11293607
92	0x3d185488	0.03718999
93	0xbd0d3204	-0.034471527
94	0x3d36e09c	0.044647798
95	0x3d48adc8	0.048993856
96	0xbc7dbe21	-0.015487225
97	0xbda3ff09	-0.080076285
98	0xbd478f8b	-0.048720878
99	0x3d8acf78	0.06777853
100	0x3ddfbb3e	0.109243855
101	0x3e10d399	0.14143218
102	0x3dbfebb5	0.093711294
103	0x3ce592ab	0.028024038
104	0xbd85fe0f	-0.065425985
105	0x3e0de28e	0.13855955
106	0xbd93d17c	-0.0721769
107	0xbd4a7700	-0.049429893
108	0xbd3601c2	-0.04443527
109	0x3d1f6329	0.038912926
110	0x3c4f6047	0.012657232
111	0x3bcf838b	0.00633282
112	0x3da73374	0.08164111
113	0x3cb73a24	0.02236659
114	0xbd01cecd	-0.03169136
115	0x3d76f3d7	0.060291138
116	0x3db0ef7d	0.08639429
117	0x3d6d6c17	0.05796441
118	0xbdf50526	-0.119638726
119	0x3a57e40b	0.000823558
120	0x3d4ed70f	0.050498065
121	0xbd19fb21	-0.03759301
122	0x3dddcb0f	0.10829746
123	0x3dcafdb5	0.09911672
124	0x3caa4d63	0.020788854
125	0x3d695983	0.05697013
126	0x3dce72de	0.10080503
127	0xbd128b2d	-0.03577726
128	0xbbe62946	-0.007023963
129	0xbd9eba56	-0.077503845
130	0x3d0e4957	0.03473791
131	0x3e0aaba0	0.13542032
132	0x3d45b585	0.048268814
133	0x3c986661	0.018603506
134	0x3d06e486	0.03293278
135	0xbde73d30	-0.112909675
136	0xbda46d93	-0.08028712
137	0xbd91ea7e	-0.07124804
138	0x3db06c9e	0.08614467
139	0x3da1ee70	0.079068065
140	0xbd618e9f	-0.055067655
141	0xbda8fae8	-0.082509816
142	0x3dde7271	0.10861672
143	0x3da59b72	0.080862895
144	0x3c2b9f24	0.010474954
145	0x3de11ac9	0.10991437
146	0xbc74656a	-0.014916757
147	0x3dc110ee	0.09427057
148	0xbd59e794	-0.053199366
149	0xbcb0e170	-0.021591872
150	0x3df67c24	0.12035397
151	0x3d89f2c5	0.06735758
152	0x3e0b6a7b	0.13614838
153	0xbd59619d	-0.053071607
154	0xbdbc9117	-0.09207361
155	0xbca79a8b	-0.020459434
156	0xbd423c0d	-0.04742055
157	0xbdd16c79	-0.10225768
158	0x3d59faeb	0.05321781
159	0x3d1117bf	0.035423037
160	0x3d4da277	0.050203767
161	0x3db34337	0.087530546
162	0x3d55185a	0.052025177
163	0xbcafb92a	-0.021450598
164	0x3e0d5441	0.13801672
165	0x3dd840ad	0.10559211
166	0xbbd9a98f	-0.0066425274
167	0x3d8cc5d6	0.06873672
168	0x3d79a135	0.060944755
169	0xbc5f9fef	-0.013648971
170	0x3df8b9f1	0.121448405
171	0x3dea8734	0.11451569
172	0x3c9d9c9a	0.019239713
173	0xb9a018dc	-0.000305361
174	0xbd4de8d9	-0.05027089
175	0xbaff3418	-0.0019470481
176	0xbd073d74	-0.03301759
177	0x3d2c69f4	0.042093232
178	0x3d926a99	0.07149238
179	0xbd0a7c64	-0.033810034
180	0xbce6462a	-0.028109629
181	0xbd719fbd	-0.05899023
182	0x3e03d5ff	0.12874602
183	0xbd9c99a2	-0.07646491
184	0xbd3530df	-0.04423606
185	0x3d04abfe	0.032390587
186	0xbd976d6b	-0.07393917
187	0xbd893def	-0.06701266
188	0xbd33e026	-0.043914936
189	0xbd5a99d5	-0.053369362
190	0x3dab093e	0.08351372
191	0x3d9912dd	0.07474301
192	0xbca1f6f9	-0.019771086
193	0x3ca0516e	0.019570079
194	0xbd801c13	-0.06255355
195	0xbd890481	-0.06690312
196	0x3d8839d4	0.06651655
197	0x3c89b092	0.016807828
198	0x3ce23454	0.027612843
199	0x3b0222dc	0.0019857204
200	0x3ddf3778	0.10899252
201	0xbdf84ce0	-0.12124038
202	0xbda2ff23	-0.0795882
203	0xbd649311	-0.055804316
204	0xbdee3f81	-0.11633206
205	0x3daf9352	0.08573021
206	0xbcd81b30	-0.026380152
207	0x3d1ec35c	0.038760528
208	0x3d014887	0.031563308
209	0x3d4d8a00	0.050180435
210	0x3c1e1634	0.009648848
211	0xbd99969b	-0.07499429
212	0x3dbb1713	0.091352604
213	0xbd9b41d0	-0.07580912
214	0x3dd47a43	0.10374882
215	0x3db3f028	0.087860405
216	0xbe057357	-0.1303228
217	0xbc1d09dd	-0.009584871
218	0x3db6025f	0.08887171
219	0x3d97818a	0.073977545
220	0xbc1c18fa	-0.009527439
221	0x3dc77aa4	0.09740189
222	0xbd6ed8d4	-0.058312252
223	0xbb5dc592	-0.0033839685
224	0xbd56a857	-0.052406635
225	0xbcba9918	-0.022778079
226	0x3dcc0994	0.099627644
227	0xbdbc49b0	-0.09193742
228	0xbd0a6282	-0.03378535
229	0x3c8c675f	0.017139135
230	0x3d85a5f1	0.065257914
231	0xbdc9348c	-0.09824476
232	0xbddc318e	-0.10751639
233	0x3c8835ed	0.016627276
234	0x3d94994f	0.07255804
235	0xbd2c49b4	-0.042062476
236	0x3d5b3887	0.053520706
237	0xbc2ee673	-0.010675061
238	0x3d447fee	0.047973566
239	0xbdafc865	-0.08583144
240	0xbde57145	-0.11203245
241	0xbd1ff7d3	-0.039054703
242	0xbdf4f4bc	-0.11960742
243	0xbd8c240b	-0.06842812
244	0x3ddba9b2	0.10725726
245	0x3e0a922e	0.13532326
246	0x3c3338e5	0.010938858
247	0xbd924619	-0.07142276
248	0x3d5c563c	0.053793177
249	0x3d885d6e	0.06658445
250	0xbd1b2508	-0.037877113
251	0xbd31bd42	-0.04339338
252	0xbd60ebc8	-0.05491236
253	0x3d8200cb	0.063478075
254	0xbd89101e	-0.06692527
255	0xbda5ff2e	-0.08105312

conv.1.update_fn.fc.0.bias f4 [64]
0	0xbd15a530	-0.03653449
1	0xbd74285f	-0.059608813
2	0x3c9811ca	0.01856317
3	0xbdf0566b	-0.11735233
4	0xb8b67f4c	-8.702147e-05
5	0x3c3796ca	0.0112053845
6	0xbd9294c0	-0.07157278
7	0x3d9ea1fe	0.07745741
8	0x3deea87b	0.11653229
9	0x3dec112e	0.11526714
10	0xbd5e0984	-0.054208294
11	0x3c7a2a97	0.015268943
12	0x3dd58db9	0.10427422
13	0xbcee0a75	-0.02905772
14	0x3dbdd35b	0.092688285
15	0x3d50122e	0.050798588
16	0x3d64b35e	0.05583512
17	0x3d9ae48a	0.075631216
18	0xbd2663b7	-0.04062244
19	0xbd7d413d	-0.061829794
20	0xbc9c9738	-0.019115075
21	0xbcc9f271	-0.024651738
22	0xbd8c6833	-0.06855812
23	0x3de7a15f	0.11310076
24	0x3d0dc5f8	0.034612626
25	0xbdcc607d	-0.09979341
26	0x3da65bf0	0.081230044
27	0xbdc240b6	-0.09484999
28	0xbc15d67e	-0.009145377
29	0xbdf41850	-0.119187
30	0x3c812a70	0.015767306
31	0xbdbc4098	-0.09192008
32	0xbddfa1f0	-0.10919559
33	0x3def628c	0.11688718
34	0xbcef6b35	-0.029225925
35	0x3dd7eb3e	0.10542916
36	0x3b1251b4	0.002232653
37	0xbdd75bfd	-0.10515592
38	0xbd067040	-0.032821894
39	0x3d57ba1d	0.052667726
40	0xbd159f56	-0.036528908
41	0x3dccf589	0.100077696
42	0xbc64b435	-0.01395898
43	0xbbc2418c	-0.005928224
44	0x3dc5b228	0.09653121
45	0xbb97992e	-0.0046264147
46	0x3ce82128	0.028336123
47	0x3d177e8a	0.03698591
48	0x3e00d39d	0.12580724
49	0xbd038bf6	-0.0321159
50	0x3df6b9e7	0.12047177
51	0x3d8bc874	0.06825343
52	0xbdeb94a6	-0.11502962
53	0x3d59def0	0.053191125
54	0xbd9ff05b	-0.07809516
55	0x3dccd336	0.10001223
56	0x3ad4542f	0.0016199405
57	0x3d8328c2	0.06404258
58	0xbc2a1a29	-0.010382214
59	0x3c1ac064	0.009445284
60	0xbddcb336	-0.10776369
61	0xbd8c90a7	-0.06863528
62	0xbdc8b0cf	-0.097993486
63	0x3d39bb68	0.04534474

conv.1.update_fn.fc.1.weight f4 [64, 64]
0	0xbdcea874	-0.10090724
1	0xbdfcc54f	-0.12342321
2	0x3d216cd7	0.03941044
3	0xbdc3813a	-0.095461324
4	0xbc66989c	-0.014074471
5	0xbd0fcca8	-0.035107285
6	0xbe024755	-0.12722524
7	0x3dc6aad7	0.09700554
8	0x3c90af19	0.017661618
9	0xbca4a496	-0.020098012
10	0x3d513d40	0.051083803
11	0x3d1bc956	0.038033806
12	0x3d9356fc	0.07194325
13	0xbd485e97	-0.048918333
14	0xbde5e62e	-0.11225544
15	0xbda728be	-0.08162068
16	0x3d07ef9e	0.0331875
17	0xbdd6ff32	-0.104978934
18	0xbe113ff6	-0.14184555
19	0xbdfda8df	-0.12385725
20	0xbde2dc81	-0.11077214
21	0xbc8fa6d6	-0.017535608
22	0xbd92c6f6	-0.07166855
23	0xbbb476dc	-0.005507333
24	0x3d84559b	0.064616404
25	0x3bc6415f	0.0060502733
26	0xbdc4c15a	-0.096071914
27	0xbd4aa108	-0.049469978
28	0xbd4dcb63	-0.050242793
29	0x3d5cb1e6	0.053880595
30	0x3ce2c3fc	0.027681343
31	0xbdde3511	-0.10849965
32	0xbc9350d2	-0.017982874
33	0x3cebdb88	0.028791204
34	0x3da01761	0.07816959
35	0x3d0ef679	0.034903023
36	0xbdb81dc1	-0.0899005
37	0xbdd2dad5	-0.10295645
38	0x3c9b1aab	0.018933615
39	0xbcc32cb1	-0.023825021
40	0x3dea2b59	0.11434049
41	0xbddac2ce	-0.10681687
42	0x3cec922a	0.02887829
43	0xbd8c801f	-0.06860375
44	0x3d49a8e6	0.04923334
45	0xbd94ca21	-0.072651155
46	0xbdbb5647	-0.091473155
47	0xbdc04f66	-0.09390144
48	0xbda52ce6	-0.08065204
49	0x3d21ffb4	0.039550498
50	0xbdaa4203	-0.08313372
51	0xbe12273a	-0.14272776
52	0x3d9d9f8a	0.07696445
53	0xbbedb43a	-0.0072541507
54	0xbe0b4e2d	-0.1360404
55	0x3dc22eae	0.0948156
56	0xbd129f28	-0.035796314
57	0xbd9211cb	-0.071323
58	0x3db0a86c	0.08625874
59	0xbde3563c	-0.11100432
60	0xbe0f7be3	-0.14012103
61	0x3d6a5873	0.057213258
62	0xbe0682e9	-0.13135876
63	0x3d9db092	0.07699694
64	0xbd52ae12	-0.051435538
65	0x3de058cd	0.109544374
66	0xbda3e2e2	-0.08002259
67	0x3b0153ed	0.0019733862
68	0x3da68f0f	0.08132755
69	0xbccdcc00	-0.025121689
70	0xbd6060fe	-0.05478
71	0x3db3c517	0.08777826
72	0x3d567f2d	0.052367378
73	0x3a4907d8	0.00076687103
74	0x3d54c7d8	0.0519484
75	0x3d9c2cc1	0.07625724
76	0xbc76183f	-0.015020429
77	0x3d7a3c33	0.061092567
78	0x3d113386	0.035449527
79	0xbd6f1a3c	-0.05837463
80	0xbbd9b3a1	-0.006643728
81	0xbd3f67b4	-0.04672976
82	0x3c9e2de0	0.019308984
83	0x3df4bca1	0.119500406
84	0x3d32f54b	0.04369096
85	0x3db08e9f	0.08620953
86	0xbde2e819	-0.11079425
87	0xbb3fede1	-0.0029286074
88	0x3df24f6b	0.11831554
89	0xbcc2f21a	-0.023797084
90	0x3d98e5c4	0.07465699
91	0xba1293f8	-0.0005591507
92	0x3d331fe8	0.0437316
93	0x3d080d49	0.033215795
94	0xbdf66d96	-0.120326206
95	0x3d841969	0.06450159
96	0xbd898c89	-0.06716258
97	0xbd1dc71c	-0.038519964
98	0x3da4fd3f	0.08056115
99	0x3d78ec13	0.060772013
100	0x3d241406	0.04005816
101	0x3bbcc0f8	0.0057603084
102	0xbdf7098a	-0.12062366
103	0x3e164670	0.14675307
104	0x3deee093	0.11663928
105	0x3d50b1bb	0.050950747
106	0xbdac1e03	-0.08404162
107	0xbcc7fec0	-0.024413466
108	0x3ca3a911	0.019978078
109	0xbdc241f7	-0.09485238
110	0x3d102501	0.03519154
111	0xbdc5cb12	-0.09657873
112	0xbd174077	-0.036926713
113	0xbdedeeec	-0.11617836
114	0xbc81ace5	-0.015829513
115	0xbdd4c5d8	-0.10389298
116	0xbbefa917	-0.0073138583
117	0x3d8fc54d	0.07020054
118	0xbe100456	-0.14064154
119	0x3e0c39f7	0.13693987
120	0xbdd5a6b4	-0.10432187
121	0xbdd8cd03	-0.10585978
122	0x3ce31ece	0.02772465
123	0x3c7f0e83	0.015567425
124	0x3dceb1b7	0.1009249
125	0xbda69be0	-0.081351995
126	0x3c3fd1b9	0.011707717
127	0xbcd055b6	-0.025431495
128	0x3ce00939	0.027348148
129	0xbdbaf3a0	-0.09128499
130	0xbcb47fa9	-0.02203353
131	0xbdb44f93	-0.0880424
132	0xbd070132	-0.032960124
133	0x3df5f06e	0.12008749
134	0xbde1f681	-0.11033345
135	0xbd396aaa	-0.04526774
136	0xbdfdb958	-0.12388867
137	0xbca21c6b	-0.019788941
138	0xbc86584f	-0.01639953
139	0xbd5f4eda	-0.054518558
140	0xbdb28c01	-0.0871811
141	0xbcc103db	-0.023561409
142	0xbd3277d5	-0.043571312
143	0x3d83ae0d	0.06429682
144	0x3dcdb1d4	0.10043684
145	0x3d237b66	0.039912604
146	0x3c7e4cee	0.015521271
147	0xbd79dc8f	-0.061001357
148	0x3de9915d	0.11404679
149	0x3dbacd21	0.091211565
150	0xbdfc5648	-0.12321144
151	0x3d236862	0.03989447
152	0xbdd95d73	-0.10613527
153	0x3c416d08	0.01180578
154	0xbd849478	-0.06473631
155	0xbdbc884d	-0.09205685
156	0x3cec4e7a	0.028846014
157	0x3cfd94cc	0.030954741
158	0x3d4b7733	0.049674224
159	0x3cfdb318	0.030969188
160	0x3d9d1c43	0.07671406
161	0x3cb4a6cd	0.022052193
162	0x3dd36ef8	0.103239
163	0xbd99dff2	-0.07513417
164	0xbd62bfb0	-0.05535859
165	0xbcd5a54a	-0.026079793
166	0xbdb32f83	-0.087492965
167	0xbd838e69	-0.06423647
168	0x3d5f6f03	0.05454923
169	0xbc821efd	-0.015883917
170	0x3d5dd231	0.054155532
171	0x3e05402e	0.13012764
172	0xbd317a39	-0.04332945
173	0xbda9e645	-0.082958736
174	0x3ce5ec4d	0.028066779
175	0x3d65354b	0.055959027
176	0x3dbb992d	0.09160075
177	0x3ce7ba88	0.028287187
178	0x3e080e14	0.1328662
179	0x3d9daea8	0.07699329
180	0x3d305618	0.043050855
181	0xbdae5d3e	-0.08513878
182	0x3dc9bd90	0.09850609
183	0xbe169b8a	-0.14707771
184	0xbdff0096	-0.12451284
185	0x3dce507c	0.10073945
186	0xbca72925	-0.020405361
187	0xbd975af2	-0.07390393
188	0x3d848922	0.064714685
189	0xbdf771ae	-0.120822296
190	0xbd29249f	-0.04129469
191	0xbc8e1e10	-0.01734832
192	0xbdb57a96	-0.08861272
193	0xbb3380b0	-0.0027389936
194	0x3db417ea	0.08793624
195	0x3dbc04d9	0.09180612
196	0xbdacefba	-0.08444162
197	0xbd8fd4ea	-0.07023032
198	0x3d829c96	0.06377523
199	0xbdca3d30	-0.09874952
200	0xbc9be5ad	-0.019030416
201	0x3d8537c4	0.06504777
202	0xbce9595b	-0.02848499
203	0x3d6f4eff	0.058424946
204	0xbd32fad4	-0.04369624
205	0x3c83d0ed	0.016090835
206	0xbcf3e8c0	-0.02977407
207	0xbc5b4300	-0.013382673
208	0x3cdeb965	0.027188012
209	0xbdde2201	-0.108463295
210	0x3d993b8b	0.0748206
211	0x3d937f77	0.07202046
212	0x3d485aa4	0.048914567
213	0x3d4ac483	0.049503814
214	0xbc94bdc0	-0.018156886
215	0xbd2d4e1c	-0.04231082
216	0x3d3cb3ba	0.046069838
217	0xbe08ac32	-0.13346937
218	0xbd0a718e	-0.0337997
219	0x3d019ae3	0.031641852
220	0xbdb121f7	-0.086490564
221	0x3cfc5693	0.030803
222	0x3c0d0ab8	0.008608513
223	0x3d89a81b	0.06721517
224	0x3d935d72	0.07195558
225	0xbc8914b2	-0.016733501
226	0xbe24dfac	-0.16100949
227	0x3da29ca8	0.07940036
228	0x3dca7f3d	0.0988755
229	0x39e13455	0.00042954335
230	0xbb855119	-0.0040685055
231	0x3df73328	0.12070304
232	0x3d1cb39d	0.03825723
233	0x3d829969	0.06376917
234	0xbe02dcff	-0.12779616
235	0x3bd0ea97	0.0063756215
236	0x3e1b631a	0.15174523
237	0xbc8f16ab	-0.017466864
238	0xbd2ef65b	-0.04271541
239	0xbdba0366	-0.090826795
240	0xbd589890	-0.05287987
241	0xbd564a79	-0.052317116
242	0x3d9b6320	0.07587266
243	0xbdcd40e6	-0.10022144
244	0xbd535943	-0.0515988
245	0xbd8549bb	-0.065082036
246	0xbc643fa6	-0.013931191
247	0x3c446899	0.011987829
248	0xbe115e13	-0.14196043
249	0xbe021f23	-0.1270719
250	0x3df7a33f	0.120916836
251	0x3d35f518	0.044423193
252	0x3dc6efb7	0.09713691
253	0xbda16002	-0.0787964
254	0xbde7f8b7	-0.113267355
255	0x3dd124a0	0.10212064

conv.1.update_fn.fc.1.bias f4 [64]
0	0xbd25a6b6	-0.04044219
1	0xbdb7af74	-0.08969012
2	0x3db3c4ee	0.08777796
3	0xbcf10142	-0.029419545
4	0xbe007962	-0.12546304
5	0xbcf7f19c	-0.030266576
6	0x3db96afc	0.09053609
7	0xbcf64b1f	-0.030065117
8	0x3d35585a	0.04427371
9	0x3df68a66	0.12038116
10	0xbd9b716d	-0.075899936
11	0x3c4776f1	0.012174354
12	0x3c73b5ad	0.014874858
13	0xbd14fd10	-0.03637415
14	0x3dfce852	0.12348999
15	0x3e0173e5	0.12641867
16	0xbd77437c	-0.060367092
17	0x3dd1304f	0.10214292
18	0xbc902fe4	-0.017600961
19	0xbccd4499	-0.025057124
20	0xbd9a1892	-0.07524218
21	0x3ce9db62	0.028546993
22	0x3da1ae57	0.07894581
23	0x3daeb2e9	0.08530218
24	0xbd6d6756	-0.057959877
25	0x3a125717	0.00055824354
26	0x3d349133	0.044083785
27	0xbcc869f6	-0.024464589
28	0x3d3a453f	0.045476194
29	0x3de0967e	0.10966204
30	0x3dbc0c1e	0.09181999
31	0xbdb8360d	-0.08994684
32	0xbd0b4892	-0.034004755
33	0x3bead978	0.0071670376
34	0xbae7035b	-0.0017624901
35	0xbc525c3f	-0.012839376
36	0x3d42d2e2	0.047564395
37	0xbbd2b092	-0.00642974
38	0xbde86b16	-0.1134855
39	0x3d7c6276	0.061617337
40	0x3db01a59	0.085987754
41	0xbda4b1ea	-0.08041747
42	0x3da9a730	0.082838416
43	0x3d8f7ac8	0.070058405
44	0x3c1b4801	0.009477616
45	0xbd3e1a4f	-0.04641181
46	0x3d4cf00f	0.050033625
47	0xbdb7a11a	-0.089662746
48	0xbdc4b7f5	-0.096053995
49	0x3c8111a1	0.015755476
50	0xbcbeb418	-0.023279235
51	0x3d8e30e1	0.06942917
52	0xbdd7484b	-0.10511836
53	0x3db5191e	0.08842681
54	0x3d7f5a01	0.062341694
55	0x3dae43ca	0.085090235
56	0xbd582ddc	-0.05277811
57	0xbdad2b72	-0.08455552
58	0xbdb20a3e	-0.0869336
59	0xbdd141b0	-0.10217607
60	0x3dc180c2	0.09448387
61	0x3dd2568a	0.10270412
62	0x3d967678	0.07346815
63	0x3dec0b25	0.11525563

conv.1.update_fn.bn.0.weight f4 [64]
0	0x3f82686b	1.0188116
1	0x3f8952e1	1.0728418
2	0x3f7d0090	0.98828983
3	0x3f804ce1	1.0023462
4	0x3f7cbaa5	0.98722297
5	0x3f832c59	1.0247909
6	0x3f7b6ca0	0.98212624
7	0x3f80b894	1.0056329
8	0x3f8175cf	1.0114077
9	0x3f7a44bf	0.9776115
10	0x3f89c144	1.0762105
11	0x3f7d2e42	0.9889871
12	0x3f78634c	0.97026515
13	0x3f8550be	1.0415266
14	0x3f816da5	1.0111586
15	0x3f7f1dd4	0.9965489
16	0x3f7d6ea0	0.98996925
17	0x3f805ad9	1.0027725
18	0x3f812499	1.0089294
19	0x3f845f21	1.0341531
20	0x3f7e9e67	0.9946045
21	0x3f7c3b88	0.9852834
22	0x3f81e281	1.0147249
23	0x3f7b763a	0.98227274
24	0x3f7e339b	0.99297494
25	0x3f7eb34b	0.9949233
26	0x3f72b723	0.94810694
27	0x3f845fc1	1.0341722
28	0x3f77f92f	0.968646
29	0x3f78bc59	0.97162396
30	0x3f866cf4	1.0502
31	0x3f7a7739	0.9783817
32	0x3f7ba106	0.9829258
33	0x3f7b4fb8	0.98168516
34	0x3f806c8d	1.0033127
35	0x3f718934	0.9434998
36	0x3f8a654c	1.0812163
37	0x3f82601a	1.0185578
38	0x3f8053ab	1.0025533
39	0x3f83dce1	1.0301782
40	0x3f80db8e	1.0067003
41	0x3f7ff03a	0.9997593
42	0x3f7778e7	0.9666886
43	0x3f80ee14	1.0072656
44	0x3f81f628	1.0153246
45	0x3f802d28	1.001378
46	0x3f7be999	0.98403317
47	0x3f75b986	0.9598621
48	0x3f72e94c	0.9488723
49	0x3f81cb99	1.0140258
50	0x3f802904	1.0012517
51	0x3f83eead	1.0307213
52	0x3f77a29d	0.96732503
53	0x3f7d03ac	0.9883373
54	0x3f7bbef4	0.98338246
55	0x3f81be9d	1.0136296
56	0x3f7d7e63	0.99020976
57	0x3f7d79b3	0.99013823
58	0x3f8092a3	1.004475
59	0x3f84a731	1.0363523
60	0x3f7d5f49	0.9897352
61	0x3f7cbae5	0.9872268
62	0x3f78bbd6	0.97161615
63	0x3f8294b4	1.020163

conv.1.update_fn.bn.0.bias f4 [64]
0	0x3c57958c	0.013158213
1	0x3b44608e	0.0029964778
2	0xbbb0ebb5	-0.005399192
3	0x3d1477c7	0.03624704
4	0xb89cd1fd	-7.477773e-05
5	0x3d724030	0.059143245
6	0x3b99ff92	0.004699656
7	0xbbc55a74	-0.0060227457
8	0xbc1e1102	-0.00964761
9	0xbd28c76f	-0.04120582
10	0x3d0dd663	0.034628283
11	0x3bde9bbf	0.0067934687
12	0xbc7e835e	-0.01553425
13	0x3cb478f7	0.022030337
14	0xbc6ac1f0	-0.014328465
15	0xbb233398	-0.0024902578
16	0xbb46e704	-0.0030350098
17	0xbcfea267	-0.031083299
18	0x3c8a35a1	0.016871275
19	0x3d0b1b2c	0.03396146
20	0xbc9b0b7e	-0.018926378
21	0xbc52bbdd	-0.012862173
22	0xbbcf40ee	-0.006324879
23	0x3d583dd8	0.052793354
24	0xbac8c77a	-0.0015318238
25	0xbcd6c156	-0.026215237
26	0xbd22c34b	-0.039737027
27	0x3d20ca95	0.039255697
28	0xbc4ae5ef	-0.012383922
29	0xba479267	-0.0007613063
30	0x3d8a13c5	0.06742052
31	0xbd02b2f2	-0.031908937
32	0x3c46df20	0.012138158
33	0xbcf9494a	-0.030430455
34	0x3c8327cb	0.016010186
35	0xbd3a1f0f	-0.045439776
36	0x3ce0deab	0.027449926
37	0x3ca6750e	0.020319488
38	0xb928193e	-0.00016031132
39	0x3c709968	0.014685012
40	0x3c83a672	0.016070578
41	0xbc87be1d	-0.016570145
42	0x3b764c5b	0.0037582132
43	0xbae6b034	-0.001760012
44	0x3c86b741	0.016444804
45	0xbc484b81	-0.012225033
46	0x3bac772a	0.005263229
47	0xbccf3d5a	-0.02529781
48	0x3c06ef4b	0.008235763
49	0x3d2acbf9	0.04169843
50	0xbca7abff	-0.020467756
51	0x3c090c2a	0.008364717
52	0xbd488451	-0.04895431
53	0x3c011082	0.007877471
54	0x3bad6eb5	0.0052927383
55	0xba52f332	-0.0008047103
56	0xbb7421cf	-0.0037251597
57	0xba396bbf	-0.00070732454
58	0x3cc42ca4	0.023947068
59	0x3b9f1c02	0.0048556337
60	0xbbf91f10	-0.00760258
61	0xba1bafc2	-0.0005938971
62	0xbce9cbb0	-0.028539509
63	0x3c8ea8a2	0.017414395

conv.1.update_fn.bn.0.running_mean f4 [64]
0	0x40abed21	5.3726964
1	0xbf6090f7	-0.877212
2	0x40c2358d	6.069037
3	0xbfaa0680	-1.3283234
4	0xbeec031e	-0.46096128
5	0x3ff566b4	1.9171968
6	0x40782777	3.8774087
7	0x405d836d	3.4611466
8	0xc0b34858	-5.602581
9	0x400981e0	2.148552
10	0xbff21f44	-1.8915792
11	0xc0ceee73	-6.4666076
12	0x40c847e3	6.258775
13	0xc034857c	-2.8206472
14	0xc047d230	-3.1222038
15	0x40c827eb	6.254873
16	0x4000b1dd	2.010856
17	0xbff5cc05	-1.9202887
18	0x4053e8d9	3.311087
19	0xbf878531	-1.0587522
20	0x40e56112	7.1680994
21	0x40d93842	6.7881174
22	0x408b4b15	4.3529153
23	0x402421fd	2.5645745
24	0x40dcce66	6.900195
25	0xc0a0ab42	-5.0209055
26	0xc0059b82	-2.0876164
27	0x403a133e	2.9074244
28	0xbedf6782	-0.43633658
29	0x407ed3ce	3.9816775
30	0xbfb224d0	-1.3917484
31	0xbf358e82	-0.70920575
32	0xc01dc1ce	-2.464954
33	0x3f83795d	1.0271412
34	0x3fd05456	1.6275737
35	0xc0d5d4d3	-6.6822295
36	0xc055c5f1	-3.3402064
37	0xc01c116d	-2.4385636
38	0x40567a4f	3.3512151
39	0xc05f260e	-3.4866977
40	0xc0b3dee6	-5.6209593
41	0xc03e0ba9	-2.9694617
42	0xc0aa62b7	-5.32455
43	0x3f3e311d	0.7429369
44	0xc0e06ebb	-7.013517
45	0xbf1b9a78	-0.60782576
46	0xbf902ee5	-1.1264311
47	0xc0e227ab	-7.0673423
48	0x3dceb790	0.100936055
49	0x3fbf3b10	1.49399
50	0xc0ec5dbc	-7.386442
51	0x3d1d735e	0.0384401
52	0x3fcaadf5	1.5834337
53	0xc0e5a144	-7.1759357
54	0xc06ab979	-3.6675704
55	0xc0095005	-2.145509
56	0xc0d151c4	-6.541231
57	0xc070756f	-3.7571676
58	0xc097bf45	-4.7420983
59	0xc0c5430f	-6.164436
60	0xc002d310	-2.0441322
61	0x3c8a0610	0.016848594
62	0xc0b3af86	-5.615176
63	0x409ba5b0	4.8639755

conv.1.update_fn.bn.0.running_var f4 [64]
0	0x42a4dd59	82.43232
1	0x417bed3b	15.745418
2	0x4274b740	61.178955
3	0x415b1793	13.693255
4	0x417afab9	15.686212
5	0x4234a4c9	45.160923
6	0x428dbfd5	70.87467
7	0x41a44426	20.533276
8	0x420d5e3c	35.342026
9	0x42594e83	54.32667
10	0x419c57b4	19.542824
11	0x427e756c	63.61467
12	0x424e8520	51.630005
13	0x41387e7e	11.530882
14	0x416abae4	14.670628
15	0x42625c76	56.590294
16	0x4266d64e	57.709282
17	0x424731d6	49.798668
18	0x42455ccb	49.34062
19	0x41cbd572	25.479221
20	0x423590f8	45.39157
21	0x42ab67d4	85.70279
22	0x41eef3c0	29.869019
23	0x41b41ed9	22.515062
24	0x42ab6bde	85.71068
25	0x41f55fa3	30.671698
26	0x4174166a	15.255472
27	0x4206744e	33.61358
28	0x41e0d0e6	28.102001
29	0x42842188	66.06549
30	0x41d6e713	26.86283
31	0x424a9d38	50.653534
32	0x4288eb14	68.45914
33	0x429db046	78.844284
34	0x422bfa5d	42.994495
35	0x422ca81e	43.164177
36	0x41a21222	20.258854
37	0x418e62fc	17.798332
38	0x41b0e6df	22.11273
39	0x41971b97	18.888472
40	0x426f8de2	59.888557
41	0x41ca97a8	25.32405
42	0x4279a381	62.40967
43	0x421e7d93	39.62263
44	0x429c680d	78.203224
45	0x41bb3d8b	23.40505
46	0x419b6a32	19.426853
47	0x425ebe88	55.686066
48	0x41c4bfce	24.593655
49	0x420076ed	32.11614
50	0x42aa7fc0	85.24951
51	0x41ef5aa5	29.91926
52	0x420efdd8	35.747894
53	0x424fa75a	51.91343
54	0x41b8d9f6	23.106426
55	0x4167f24f	14.496657
56	0x4297d554	75.91666
57	0x42351698	45.272064
58	0x4226454b	41.56767
59	0x42519b4b	52.401653
60	0x429af886	77.4854
61	0x41b56f1d	22.679255
62	0x42191084	38.26613
63	0x42b70c36	91.52385
